Weights/p2/CNN_classifier_PA3_24100238.pth (torch, 287384 bytes, 16 tensors)

conv_block.0.weight f4 [8, 3, 5, 5]
00000000: 6b0d 643c 5720 d93d c384 5fbd 9fa7 58bd
00000010: 1d16 76bb 49fe cebd 8149 b4bc 50a4 ab3d
00000020: 28da 12bd 8547 2bbc 75b6 fdbd 118a f03c
00000030: e825 f1bc a806 ba3d 07f7 00bd 6cbb f1bd
00000040: abe7 d13c 9365 ab3d a8b8 2cbd fc73 b73d
00000050: 6327 e2bd 2d34 463d e285 1bbd 7cac 9c3d
00000060: fda3 afbd c5a8 a9bd e0af 04be 2104 c0bd
00000070: cd24 48bd 2cbf 9f3d 5787 023d 5529 663d
00000080: 2774 ffbd 36c1 003d 929a a0bd a653 b9bd
00000090: dfcb b13c c7f5 a638 4eee b8bd 96ec 733d
000000a0: d309 963d e3ef e2bd 9ec7 673c 15ad 81bc
000000b0: 2288 5f3d 6cd0 16bc 0fce 913d bf66 3e3d
000000c0: ea02 aabd d3e3 3abd b311 02be ddbc 76bd
000000d0: 5c37 fabd 73a9 7cbc b162 a23b fb54 063d
000000e0: 5b36 bdbc a5a2 8b3d 739c 9dbc 19fb 163d
000000f0: 91d8 80bd d6ff 41bd b920 1d3d be15 ffbd
00000100: edac 263d 591c d03d fd1c d1bd 6463 b53d
00000110: 840f dcbd 2f46 0cbe a12c e5bd c8d7 bcbd
00000120: 84c8 c1bc 0c95 13bd dbbf e9bd ce35 053d
00000130: 5f43 5a3d 3201 8aba 7acb d83d 8fca 48bd
00000140: db42 433c 5a67 83bd 7449 9fbd a238 ce3d
00000150: c6ae ef3d ff5a 9ebd f679 123d ba6c a33d
00000160: 97df 4bbd 9032 f4bd a201 16bb feac ca3d
00000170: 8bb9 1d3d 0d0e 5dbd a556 05be 0e44 96bd
00000180: 2d81 adbd 0bcc cc3d 8307 56bd a851 123c
00000190: b8be 02be 9519 e2bd 9d6b e13d 5593 8bbd
000001a0: 0ac2 293d 0a57 26bd a16a b93d b791 acbd
000001b0: c3fa a53d 85c5 b53d 3151 a13d 8340 76bc
000001c0: 0750 1cbd 4b57 61b9 a552 bfbd 005a a63d
000001d0: b545 bebd 847a c1bd 98a4 d2bd 7016 adbc
000001e0: 785f 0b3c 305a 483d a964 4cbc 4766 f2bd
000001f0: 6957 6b3d b12a 3f3d 0585 3f3c 838d 2fbd
00000200: c8d4 38bd 841e a13d f2a6 08bb 9f69 883b
00000210: 3a92 acbd b0a3 0d3e 604a 823d c498 e33d
00000220: 8d18 f33d ecce 3d3d 8151 2a3c 10cb bc3b
00000230: 4b2b 3cbd 4bc6 3338 3f54 5cbd 78a8 9ebc
00000240: caca a9bd 904c e5bc 8b63 733d 5c80 cf3d
00000250: 6704 c0bd 5039 13be 5378 b3bd c56a bd3d
00000260: 589f 2c3d 8f1a 75bc f987 b6bd d9d2 843d
00000270: 6a6a 20be 35d9 293d ed34 dd3c b89e 30bd
00000280: c670 1abe 57e6 84bc b69a 633c 6b4f cf3d
00000290: 0cfd b83c 361b 06be 065a b13b 1f9c 763d
000002a0: 8ec1 9cbd 99a9 833d 771c dbbd adb3 c83d
000002b0: 3631 a3bd 062b 92bd 76d1 fc3c c3e1 8fbd
000002c0: 0dc5 ac3d 215f 133d d728 a5bb efb5 853d
000002d0: 0fbf 2abb 5170 993d d66e ccbd e7fe cd3d
000002e0: a1d7 e53d ee40 6a3d 8385 793d ad0c 3cbc
000002f0: dee2 2cbd cd40 e7bc ae85 08bd 1aad b93d
00000300: e2d1 603b 3cfd e03d 263c 083e be74 00be
00000310: e9d8 fe3c 42a1 09bd b7dc e63b 3494 da3d
00000320: 655d a7bd ab1e b53d 61da 76bd 6b64 d93b
00000330: b16e f13b 56e1 e6bc 5177 dfbc 3b1c a0bd
00000340: 09ad 283d e20a f63d 86cb 74bd 157f 1b3d
00000350: 8779 f0bc 0275 bd3d 21b6 a53d 7266 ccbd
00000360: 7675 35bb e1a9 91bc a122 6bbd 0002 473d
00000370: 855c 0bbe 8f7d 513d 8052 5e3d bb3a 1b3d
00000380: 67e9 bf3d 3d65 173c 8905 9b3a 6331 debb
00000390: 9f2d 92bd 492b cbbb 6403 a73b c034 8d3d
000003a0: 81b2 ad3c 194a 79bb 4f22 ed3d 15a7 e83d
000003b0: 0608 c1bc 1a16 9f3d f3d0 89bd 6269 8bbc
000003c0: de4e 853d bf6d ccbc 39c7 ca3d 6afe d93d
000003d0: c6f2 3abd 99df 6f3c edf1 5e3c daa9 3dbd
000003e0: f362 b43c da8d 6cbd 6d1b 5b3d a32e 703d
000003f0: ce20 3ebd 006e 963d 70c5 49bd 641c 963d
0.013919215 0.106018715 -0.05456997 -0.05289423 -0.0037549802 -0.10107095 -0.022007706 0.083809495
-0.03585258 -0.010454063 -0.123883165 0.02936271 -0.02943702 0.09083301 -0.031485584 -0.11803326
0.025623163 0.08368983 -0.04216829 0.08957669 -0.11042669 0.048389602 -0.037969477 0.07650086
-0.085762 -0.08284143 -0.12957716 -0.093757875 -0.04886322 0.07800135 0.03186735 0.05619176
-0.12473326 0.03143426 -0.07841982 -0.09049158 0.021703659 7.9612764e-05 -0.09029828 0.059551798
0.073260926 -0.11080911 0.014146714 -0.015829602 0.054573186 -0.009204965 0.07119381 0.046484705
-0.08301337 -0.045627426 -0.12702064 -0.060238708 -0.1221759 -0.015421259 0.0049556126 0.032795887
-0.023097208 0.06818131 -0.01923964 0.03686056 -0.06291307 -0.047363125 0.038361285 -0.12455319
0.04069226 0.10161657 -0.10210607 0.08856848 -0.10745147 -0.13698648 -0.11190153 -0.092208445
-0.023655184 -0.036030814 -0.11413547 0.032522015 0.053286906 -0.0010528921 0.10585685 -0.0490213
0.011917795 -0.06416197 -0.07777682 0.100693956 0.11703257 -0.077322 0.035760842 0.07979722
-0.04977378 -0.119237065 -0.0022889157 0.09896277 0.038507026 -0.053968478 -0.13021334 -0.07337199
-0.08471904 0.099998556 -0.052253257 0.008930601 -0.12768066 -0.11040036 0.11006854 -0.06815211
0.041444816 -0.04061035 0.09053541 -0.084262304 0.081044696 0.088755645 0.07876814 -0.015030029
-0.038162258 -0.00021490191 -0.09341935 0.08122635 -0.09290639 -0.09447196 -0.102853 -0.021128863
0.008506648 0.048914135 -0.012475171 -0.11835914 0.057456408 0.046671573 0.011689429 -0.042859565
-0.0451248 0.078671485 -0.002085146 0.0041629816 -0.08426328 0.13831973 0.06361842 0.11113122
0.11869917 0.046339914 0.010395409 0.0057615116 -0.045939725 4.28616e-05 -0.05379128 -0.019367442
-0.08290632 -0.02799061 0.059421103 0.101319045 -0.0937584 -0.14377332 -0.087631844 0.0924888
0.04214415 -0.014959945 -0.089126535 0.064855285 -0.15665594 0.04146691 0.027002776 -0.043120116
-0.15082082 -0.016223116 0.013891866 0.1012257 0.0225816 -0.13096318 0.005412343 0.060207482
-0.07654105 0.064288326 -0.106987886 0.097998954 -0.079683706 -0.07137112 0.030861598 -0.070254825
0.08436022 0.035979394 -0.005040269 0.06528842 -0.0026053821 0.07492126 -0.09982078 0.100583844
0.112227686 0.057190828 0.060918342 -0.0114776315 -0.042208545 -0.028229142 -0.033330612 0.0906622
0.0034304787 0.109858006 0.13304195 -0.12544534 0.03110929 -0.033601053 0.007045354 0.10672799
-0.081721105 0.0884374 -0.060266856 0.006634285 0.007367932 -0.02818362 -0.027278574 -0.078178845
0.041180644 0.120137945 -0.059764408 0.03796299 -0.029354824 0.09250833 0.08091379 -0.099804774
-0.002768842 -0.0177812 -0.05740607 0.04858589 -0.13609512 0.051145133 0.054277897 0.037897807
0.0937069 0.009240446 0.0011827211 -0.0067807897 -0.07137608 -0.0062002284 0.0050968397 0.06894827
0.021203281 -0.003803855 0.115788095 0.11359993 -0.023563396 0.077678874 -0.06729307 -0.017018024
0.06509183 -0.024954675 0.0990128 0.10644229 -0.045641683 0.014640712 0.013607484 -0.04630456
0.022019839 -0.057752468 0.053492952 0.058638226 -0.046418004 0.073451996 -0.049260557 0.07329634

conv_block.0.bias f4 [8]
00000000: 7576 06be 0f25 c43d 6bb2 c83d 80f2 453d
00000010: 3df5 143d 7d3c 2ebd d379 c43c 0abd 773d
-0.13131125 0.09577381 0.097996555 0.04832697 0.03636669 -0.042538155 0.023983872 0.060483016

conv_block.2.weight f4 [8]
00000000: 2686 773f 1a47 7e3f 8f65 803f 6048 733f
00000010: 048e 843f 672b 7d3f d21a 863f f546 6f3f
0.9668907 0.9932724 1.0030993 0.9503231 1.035584 0.9889435 1.0476935 0.93467647

conv_block.2.bias f4 [8]
00000000: 4566 5dbe db5d 043d 196c 0d3e 2999 d03c
00000010: edf7 b33d 7dc8 533d c049 22bb 4eec d33d
-0.21621044 0.03231607 0.13810767 0.025463657 0.087875225 0.051704872 -0.0024763197 0.10347806

conv_block.2.running_mean f4 [8]
00000000: a9d2 b930 8cc5 063d a3d5 7d3e 9900 563e
00000010: 4175 de3c 90e8 2a3d 4f98 803c 9b13 be3e
1.3520395e-09 0.03290324 0.24788527 0.20898665 0.02715552 0.041725695 0.015697626 0.37124333

conv_block.2.running_var f4 [8]
00000000: 9ee7 b12d 6288 453b 78fb 943c f405 453c
00000010: d886 bf3a 4774 9c3b d66a 8b3a 3fa0 153d
2.0225429e-11 0.0030141105 0.018186316 0.012025345 0.001461233 0.0047746035 0.0010636698 0.036529776

conv_block.4.weight f4 [16, 8, 5, 5]
00000000: 3e55 553d 2282 a63d 0269 ae3d 677a 523c
00000010: 1f4b 923d 1c2d de3d ee72 b73d 6a9f c33d
00000020: ee50 bc3d 48e9 8c3d a9f7 c23d ae3a c93d
00000030: a92a ab3d a97f 8b3d a15f 713d 3b1f 553c
00000040: c94f e33d 885a 683d 006a 353d 4beb 393d
00000050: 5e57 463d 651d 103d ae79 073d 8e95 9a3d
00000060: c73a a53d 1220 dc3c 9b34 013d 460d 823a
00000070: 9b40 81ba ae18 46bc cd93 0c3d a0f4 103b
00000080: e534 48bd 325c 03be 903c b9bd bbcb 413d
00000090: 9771 2ebc 25ff f839 0bfe 4f3b 22f0 633d
000000a0: c316 193d 95be d13d 459d b83d 2f41 c9bc
000000b0: 5428 24bd a7a1 9fba 5ac2 ca3c c876 63bd
000000c0: 3ed5 f23c f729 1c3d c38b b83d 54aa 853c
000000d0: a30c 943d 855d fc3c 4da2 58bc cbf8 2f3d
000000e0: eabd e4bc c5c7 debc 7d9f c9bc ba92 7dbd
000000f0: 2bd5 9cbd 8c19 763d 2abf b73c e7d5 313d
00000100: 1cfa 683d 6b3a c4bd 8f7d 3e3c bdf1 a3bd
00000110: 06d8 f3bb 1888 aa3c 97a4 e0bd 76be ec3c
00000120: 3b70 c3bd 8f06 58bd 860f 063c ee0c f6bb
00000130: ab5d da3c 3947 a83c b5ac 03bd 5350 ab3d
00000140: 1650 7dbd 2d76 b1bc 5235 593a ab5b 1e3d
00000150: 60bb f73c db3f 953c 76b7 95bd 7b19 0fbb
00000160: 05c9 adbd d602 d83b bcdf 00bb 6f7e 083c
00000170: 07f0 d73c dcd1 e83c dcfb a03c f793 82bc
00000180: 52d1 a3bd 3230 ffbd deee 9eba 2055 0438
00000190: 73a5 9fbd ad82 0a3b 2877 9d3d 715c 353d
000001a0: 54aa 8c3d 70b8 1ebc 64e2 523d 7ac6 2ebd
000001b0: cfc2 e4bd 1cc1 253c dd32 a03c d401 eebc
000001c0: 6fb5 11bc b9ee 9abd 8941 9b3c 2992 d13c
000001d0: d5db 54bd 4965 95bd 64a2 97bd 4cc4 a43d
000001e0: be59 713d 34d0 cc3c c641 933b 19eb d9bd
000001f0: 516f ffb8 9c11 d33c a228 9c3d 865b debc
00000200: e5e6 7bbd be52 b7bd ba2b aa3d 63db 813d
00000210: d8ad bbbc 54cf d9bb 97d5 b43c 0811 8dbd
00000220: c310 6fbd 0513 3f3b ac6a b1bc 2d59 5d3d
00000230: bd09 eebb 6184 5bbc 77a7 853d 1b8a 633c
00000240: 0cef 3d3d 2c9d 533c 406c 2cbd f69c cabd
00000250: e742 46bc a731 1d3d 36b4 0cbd 49f5 e03c
00000260: 5518 adbd 465d a8bd d0de 6fbc ee5b a2bc
00000270: 916e 3f3d f506 a8bc e14f b93c fe78 d03b
00000280: 476e 883b d1f5 623c ce3c ae3b 7743 02bd
00000290: 557b 55bd d981 993d 49be 463c 9240 c3bc
000002a0: d500 ab3d 773b 1f3d 0252 b8bd 05cb 28bd
000002b0: f4cc 3c3d 9155 853d 722a 043d e80f c5bc
000002c0: 43e4 b63d de70 05bd 3b82 a43c aca8 0437
000002d0: 5c83 ec3c c9e4 d8bd 592b 3dbd e774 28bd
000002e0: a434 a2bc 861a abbd 37cb d8bd fa69 96bd
000002f0: 31e4 a2bc c6ba a8bd 2d61 ddbd c405 fdbc
00000300: ff2d 6bbd 4237 d43c b178 b03c f753 7cbd
00000310: 6ae1 f9bd 384c 29bd 8628 623c 4960 17bd
00000320: da12 d63c 9424 033d a997 e3bb 613d 643d
00000330: 2c28 b63c f779 5e3b bccf 2fbc bce2 993d
00000340: 6e38 8839 e6e7 1c3d c64e db3c 7e7e e73c
00000350: 2850 243d f699 843d b1cb 1a3c c1eb 123d
00000360: b49d d93c 0415 943c b1f2 c13c e9c5 8c3d
00000370: 0d3b 953d f73e 793d 34a4 a53c cbcb a13d
00000380: c1b8 923c 3895 a8bc 2001 cdbd 87e6 74bd
00000390: dc1e 8f3c e57e 82bd 2da8 1f3d beb2 ef3c
000003a0: 5131 d43c 3c92 a2bc e36c 68bd 89f3 803d
000003b0: 76c0 9c3b 16ac c0bc 9657 d8bc 3505 77bd
000003c0: e5f6 4a3d d304 3a3d cc04 92bd 4bac 913c
000003d0: 9480 0dbd 2b7b bdbb c8cf 763d dcda 27bd
000003e0: 9f79 61bd 46a6 13bb 0182 21bd 1799 943d
000003f0: 9cbf 533d ae9a 703c 4cb0 9bbc d7d9 2a3b
0.052083246 0.081302896 0.085161224 0.012846566 0.071432345 0.10848448 0.08957468 0.0955189
0.091951236 0.06880432 0.09519894 0.098256454 0.08357746 0.068114586 0.05892909 0.013007934
0.11099202 0.056726962 0.044290543 0.04539041 0.048423164 0.035184283 0.033075027 0.075480565
0.080678515 0.026870761 0.03154431 0.0009922169 -0.0009861173 -0.012090845 0.03432064 0.0022118464
-0.04887857 -0.12828138 -0.090447545 0.047313433 -0.010647199 0.00047492344 0.0031737115 0.05564893
0.037375223 0.10241429 0.09014372 -0.024567215 -0.040077522 -0.0012178913 0.024750877 -0.0555332
0.029642697 0.03812596 0.090110324 0.01631657 0.07228973 0.030806312 -0.013222289 0.042961877
-0.02792259 -0.027194867 -0.024612183 -0.061907507 -0.07657846 0.060082957 0.022430021 0.043416884
0.056879148 -0.09581455 0.011626615 -0.08005092 -0.0074415235 0.020816848 -0.10968893 0.028899413
-0.09542891 -0.05274063 0.008182412 -0.0075088656 0.026655992 0.020541774 -0.032147128 0.0836493
-0.061843954 -0.021662796 0.00082858384 0.03866164 0.030240715 0.018218925 -0.07310383 -0.0021835256
-0.08485607 0.006592135 -0.0019664606 0.008330925 0.026359571 0.028420381 0.019651346 -0.015939696
-0.07998909 -0.124603644 -0.0012125631 3.155053e-05 -0.07795229 0.0021135018 0.07688743 0.044277612
0.06868425 -0.009687528 0.051485434 -0.04266975 -0.11169969 0.010116842 0.019555504 -0.029053606
-0.008893355 -0.07565064 0.018952148 0.02558239 -0.05196746 -0.07294709 -0.074040204 0.08045253
0.058923475 0.025001623 0.004493925 -0.106405444 -0.00012180082 0.025765233 0.076249376 -0.027143251
-0.061499495 -0.08951329 0.083091214 0.06340673 -0.022910044 -0.00664703 0.022074504 -0.06888014
-0.058365595 0.0029155624 -0.02165731 0.054040123 -0.0072643445 -0.013398261 0.06526082 0.013887907
0.04637055 0.012915891 -0.042095423 -0.09893219 -0.012100912 0.03837743 -0.03435155 0.027460711
-0.084519066 -0.082209155 -0.014640525 -0.019819226 0.046736304 -0.02051113 0.022621097 0.0063620796
0.0041635367 0.0138525525 0.005317307 -0.03180262 -0.05211957 0.074954696 0.012130328 -0.0238345
0.08349768 0.03887507 -0.09000017 -0.04120924 0.046093896 0.06510461 0.03226704 -0.024055436
0.08930256 -0.03257834 0.02008163 7.907085e-06 0.02887123 -0.10590512 -0.046183918 -0.04112711
-0.019800492 -0.08354668 -0.10585635 -0.07344432 -0.0198842 -0.08238749 -0.108095504 -0.030886538
-0.057416912 0.025905255 0.021541925 -0.061603513 -0.122011974 -0.041332453 0.013803607 -0.03695706
0.026132036 0.032017305 -0.0069455695 0.055722598 0.022235952 0.0033947208 -0.01073068 0.07513949
0.00025981985 0.038307093 0.02677096 0.028258558 0.040115505 0.06474678 0.009447978 0.035869364
0.026564457 0.018076427 0.023675295 0.06873686 0.07286654 0.060851064 0.0202199 0.079001985
0.017910363 -0.020578966 -0.1000998 -0.05979016 0.01747077 -0.063718595 0.038978744 0.029260036
0.025902422 -0.01984512 -0.056744467 0.06296451 0.0047836853 -0.023519557 -0.026408952 -0.0603077
0.049551863 0.045414757 -0.07129821 0.017782351 -0.03454645 -0.005782505 0.06025675 -0.040980205
-0.055047628 -0.0022529527 -0.039430622 0.07255762 0.051696405 0.014685316 -0.019004963 0.0026069784

conv_block.4.bias f4 [16]
00000000: 4ba6 03be a836 e7bd 6fdd 03be 96d4 a0bd
00000010: ea0b 81bd d434 2abd d74f 9fbc 0a33 1bbe
00000020: 0870 31be 8f63 4fbd 8d2b 14bd 43eb 27bd
00000030: 8a08 1dbe 553e 22be 00f9 2fbe 7435 9cbd
-0.12856404 -0.11289722 -0.12877439 -0.078530475 -0.063011006 -0.041554287 -0.01944725 -0.15156189
-0.17327893 -0.050632056 -0.036174346 -0.040995847 -0.15335289 -0.1584409 -0.1718483 -0.07627383

conv_block.6.weight f4 [16]
00000000: 36a1 9d3f 70d2 903f f1fc 993f e06d 973f
00000010: eebe a53f 47d0 9a3f b220 953f 762d 993f
00000020: af21 8e3f 029b 8f3f fee6 983f dc3a 8c3f
00000030: f0e1 8f3f 361b 973f 84c2 903f c105 8a3f
1.2314823 1.131422 1.2030317 1.1830406 1.2948892 1.2094811 1.1650603 1.1966999
1.110403 1.121918 1.1945493 1.0955462 1.1240826 1.1805179 1.1309361 1.0783006

conv_block.6.bias f4 [16]
00000000: abae 25be a484 623b 4a33 09be ff94 cdbd
00000010: 81d7 98bd 10b0 0bbe 8b79 86bc bd3d b6bd
00000020: aebb e4bd 91ea a8bd 309a d4bc cc88 dcbd
00000030: 6922 10be 2048 fcbd 6e16 ffbd 62b7 3bbe
-0.16179912 0.0034563923 -0.13398471 -0.100381844 -0.07462979 -0.13641381 -0.016415378 -0.088984944
-0.111686096 -0.08247865 -0.025952429 -0.107682794 -0.14075626 -0.12318444 -0.1245545 -0.18331674

conv_block.6.running_mean f4 [16]
00000000: d465 d63d f028 833d d82b 913d 2784 973d
00000010: e9b8 413d 0c8e 7c3d f358 b73d 6020 a43d
00000020: 550c 7b3e 2d66 3e3d 26c4 8a3d 4ed9 7c3d
00000030: 5b00 163e 65b5 eb3d 4614 973f 28dc 373e
0.10468641 0.064042926 0.07088441 0.07398253 0.047295485 0.061658904 0.089525126 0.080139875
0.24516423 0.04648416 0.067756936 0.061730675 0.14648573 0.11509208 1.1803062 0.17955077

conv_block.6.running_var f4 [16]
00000000: 6d5e c73d 3ca7 5b3d b8f4 a23d 8af6 6d3d
00000010: 466c fe3c 7231 6c3d 00e5 933d 1ac3 b53d
00000020: 50a6 4f3e 6df5 043d 2b10 843d 2452 223d
00000030: 514b ff3d bbd5 283e 10be b63f bb4b 363e
0.09734807 0.053626284 0.07956833 0.058096446 0.031057488 0.057664342 0.07221413 0.08875103
0.20278287 0.03246062 0.06448396 0.039629117 0.12465537 0.16487782 1.4276752 0.17802326

classifier.0.weight f4 [64, 1024]
00000000: fed7 b53b 2450 b33b fa3c 51bc 8893 013d
00000010: 188a 0ebc f149 f13c 514e 2a3b f3fa e9bc
00000020: ac15 363c 9df3 5ebc f12d f9bc 4c34 a0bc
00000030: 6d9c 94bc 6e18 20bd db29 06bd 8542 4ebd
00000040: 0aa3 1b3d 63a1 8cbc 9aef d1bc 69ac 85bc
00000050: 0b64 72bc 4132 b63c 7af4 a6bb 2e66 f03c
00000060: e623 a73c 14f5 c83c 43a8 363d 23ff 53bc
00000070: 37f5 3ebc 3410 363c b631 8e3a f864 b53c
00000080: d3e3 623d 3a31 3dbc 4aa6 3c3d 476b b7bb
00000090: 6095 5cbc b3a2 b33c 461a 9639 a0e5 ddbc
000000a0: a265 583c f3bd 5abd 19b9 053b 2d1f b4bc
000000b0: 4ab7 323c ba80 6f3d dbec cd3b 85dc 133d
000000c0: 0437 eebb 5e0e 3cbc dec1 a2bc d2d3 f7b8
000000d0: 4a6a 3a3c 4ba2 7d3d 1884 31bd 7ec0 1c3d
000000e0: 54ac 40bc 4429 68bd 7dc6 0abd bdda ab3c
000000f0: 5c21 ce3c 7d51 6d3d e876 30bd 90c4 36bc
00000100: 1ea4 12bc 8c3b e03b e745 6d3b c58e 56bd
00000110: 6696 08bd 12bd 063d 025d 3d3d 24c1 eb3c
00000120: b080 4e3c 02c3 c0bc c712 06bd 7062 b6bb
00000130: ecd6 d63c 5d18 b23c b514 863c 801b 5a3d
00000140: f64c 893c aeae 433c e2ed 48bc 7aaa 3dbd
00000150: 4ae0 a83c 5a68 493c b333 96bc d238 8c3c
00000160: f291 04bd e7b8 9bbb 2b9e d9bb 95c7 25bc
00000170: cb2d cbbc 6687 5b3d d7c8 c5bc a216 27bd
00000180: 095a b5bc b800 4a3a c546 9cbc cca5 1cbb
00000190: a747 46bd ddda c13b eb99 1bbd f939 e4bc
000001a0: 5832 9e3d 7381 d1bb 9447 bd3a 1789 94bc
000001b0: 1b6a 95bc 482e c43c 61bb aa3b 3aa1 a2bc
000001c0: b27b df3c 1968 b03c e4d7 123d 89f6 073c
000001d0: cecb 1dbd e735 6b3d 9f1c 943c b90c 793d
000001e0: 3e88 093d c4d2 543d 6abb 113d a371 353d
000001f0: 2c87 0abd 78b3 81bc 41c2 173a 8780 acbc
00000200: 9e69 743d 6d55 71bc 0a7d f5ba 108e 06bd
00000210: 8d50 89bb 25c4 913c 5fcb 28bc 9e2f 7ebc
00000220: c5a2 013c 73ed c9bc 353e 2abd 58c1 68bc
00000230: aeaf 9f3d fb5a f13b 3e64 303c 20ac 98bc
00000240: 9ce2 61bb 259a e63b 04d1 243d 83d8 373c
00000250: a605 c63c 0627 463b c390 163d 58c8 633d
00000260: 4e3a 353d 8771 163c e34e 553c e7cd dbbc
00000270: 83b1 0fbc 7273 d93b 6bb4 013d 8e09 76bc
00000280: 8cce 283d 7387 0b3b 4744 933c 34b5 16bd
00000290: 5670 82ba c216 2cbd 82fc d03c b670 353c
000002a0: b102 0b3d e9f5 cb3c e035 833c 0db8 193c
000002b0: 2224 8b3c 6dd2 c0bc a821 3d3c df00 03bd
000002c0: 507b 003d db1f b03d 4e4c bfbc 77ad d43c
000002d0: c484 11bd f218 883d dedf 8c3d 97bb 1a3d
000002e0: d963 9a3b f494 443d 1b6c 0fbb 5405 1d3d
000002f0: 4258 833c 1b43 ed3b f925 1f3d 3464 16bd
00000300: 62c8 9fbc df51 f53b 11ad e9bc 7710 853d
00000310: 1af0 363d 9e88 20bc 0786 bebc f5ab dcbc
00000320: 7b68 7bbb be33 c43a 04ed 4b3d b008 473d
00000330: fb33 263d 1897 c8bc 6394 153d 24e1 1dbd
00000340: c907 5b3d bdbc a1bc fb37 d93c 380e 1b3d
00000350: 45b4 a3ba 04e1 1ebb 6924 6dbb 0d98 8ebc
00000360: d041 973c e3ce 8cbc 3265 863d bcc1 383d
00000370: 1165 4f3c b1af 463d 51ac e5bc cdb7 1a3c
00000380: 2861 663d 0cd7 8c3c dd6b a0bb 2d19 8e3d
00000390: 7761 04bd 8737 b73c 7772 91bc f0c0 473c
000003a0: 48ec 3a3d 32df f8bb 21f3 883d 843a 993c
000003b0: 3425 bb3b 6358 f7bc fb3e 753c 4053 72bc
000003c0: efdf 0d3d e529 f13c 268e 983c 9e4d b63c
000003d0: 592e 04bc 8812 df3c ae3d 94bc 89f4 953c
000003e0: 47be 02bd a293 aa3d a38c 14bb b493 61bd
000003f0: dc12 f93c 6bb4 403d b239 aa3c afbf 4ebd
0.00554943 0.0054722 -0.012770886 0.031634837 -0.008699916 0.029454203 0.0025986622 -0.028562045
0.011113565 -0.013607887 -0.030417414 -0.019556187 -0.018140996 -0.039085798 -0.03275476 -0.050356407
0.037997283 -0.017166799 -0.025626946 -0.016317563 -0.01479436 0.02224076 -0.005095062 0.029345598
0.02040286 0.024530925 0.04459406 -0.012939247 -0.011655143 0.011112262 0.0010848555 0.022142872
0.05539305 -0.011547381 0.046057023 -0.0055975053 -0.013463348 0.021928167 0.00028629805 -0.027087033
0.013207825 -0.053403806 0.0020404516 -0.021987522 0.010907957 0.058472373 0.006284339 0.036098976
-0.007269742 -0.011478035 -0.019867834 -0.000118173324 0.01137788 0.061922353 -0.043338865 0.038269512
-0.011759836 -0.05667998 -0.0338807 0.020978326 0.025162391 0.05793904 -0.043082148 -0.011155263
-0.008950261 0.006843036 0.0036204995 -0.05238225 -0.033346556 0.032895155 0.046231277 0.02877862
0.012603924 -0.023530487 -0.03273275 -0.005565934 0.02622553 0.021740133 0.016367296 0.053248882
0.01676033 0.011943502 -0.012263747 -0.046305157 0.020614762 0.012292946 -0.018335199 0.017116938
-0.032365747 -0.0047522667 -0.0066411695 -0.010118385 -0.02480211 0.053595923 -0.02414362 -0.04079307
-0.022137659 0.00077057956 -0.019076714 -0.0023902534 -0.048408177 0.005915983 -0.037988584 -0.027859675
0.07724446 -0.0063936054 0.0014440888 -0.018131776 -0.018239072 0.02394785 0.0052103256 -0.01985227
0.027280662 0.021534013 0.03585042 0.008298525 -0.03852444 0.057424452 0.018080054 0.06080315
0.033577196 0.051958814 0.035579123 0.044297826 -0.033820316 -0.015832648 0.0005789139 -0.02105738
0.059671037 -0.01472984 -0.0018729281 -0.032850325 -0.0041905106 0.017793724 -0.010302394 -0.0155142825
0.007912342 -0.024649357 -0.04156323 -0.014206253 0.0779718 0.007365582 0.010766087 -0.018636763
-0.0034467345 0.0070374184 0.040238395 0.011221054 0.024172615 0.0030235662 0.03675915 0.055610985
0.044245057 0.00918234 0.013019296 -0.02683158 -0.008770349 0.0066360766 0.0316662 -0.015016926
0.041212603 0.002129045 0.017976893 -0.036793903 -0.0009951692 -0.04201389 0.02551103 0.011074236
0.033938114 0.024897533 0.0160169 0.00938226 0.016985003 -0.023537839 0.011543669 -0.031983253
0.0313676 0.08599826 -0.023351815 0.02596162 -0.035527006 0.06645383 0.06878637 0.037776556
0.00471161 0.047993615 -0.0021884504 0.03833516 0.016033296 0.0072406656 0.038854573 -0.036716655
-0.01950473 0.0074865664 -0.028524907 0.06497281 0.044662572 -0.009798197 -0.023257269 -0.026937464
-0.0038361836 0.0014969034 0.049786583 0.04859227 0.040576916 -0.02448611 0.036518466 -0.03854479
0.05347422 -0.019743318 0.026515951 0.037855357 -0.0012489638 -0.0024243006 -0.0036185032 -0.017406488
0.018463999 -0.017188495 0.0656227 0.045106634 0.012658373 0.048507396 -0.028036268 0.009443236
0.056245 0.017192386 -0.004895671 0.06938396 -0.032319512 0.022365345 -0.017754776 0.012191996
0.04563549 -0.0075949663 0.06686998 0.01870466 0.005711222 -0.030193513 0.014968629 -0.014790356
0.034637388 0.029438922 0.01862247 0.022253808 -0.008067691 0.027230516 -0.018095817 0.01830508
-0.031919744 0.0832894 -0.0022666834 -0.0550725 0.0304045 0.04704706 0.020779464 -0.050475772

classifier.0.bias f4 [64]
00000000: e71b 05bd df29 203d 30e6 1b3d 7e35 acbd
00000010: 8722 febc 32c4 f03c 7085 163d ff4f d0bd
00000020: 71d4 c43c f493 153c 77cd 31bd 610e ea3b
00000030: f33e be3c a7f8 90bb 3d91 ba3d 2881 623d
00000040: fca0 9d3d abf2 5d3c d33e 2d3d 4e8b 843d
00000050: 3129 383d 5734 10bd 5e56 a43c a3b2 00bd
00000060: 61ca 8abd ad73 583d ae32 f43c 2f85 013d
00000070: f989 5e3d 5c73 69bb 7e13 203c 9be3 cd3c
00000080: 13b3 763c f57a 6d3d 419e 513d 2c27 1dbd
00000090: 6ce0 fdbb d971 673d 7890 263d fcd2 89bb
000000a0: c01d 89bc 4fb0 fcbb 1296 02bd cd65 543d
000000b0: 7179 233b 1656 c038 4775 4dbd d6a0 11bd
000000c0: d566 7a3c ef41 26bd 8a5d 253d bdec ecbc
000000d0: 923b 093d 1197 113d 6898 cc3d 7418 b53d
000000e0: 6599 793d bb57 1a3c c243 54bd 3a04 653d
000000f0: 361f 0dbd 41e7 b03c 8a6b 253d bf5c 453d
-0.032497313 0.03910243 0.03806132 -0.0840864 -0.031022323 0.029390428 0.03674835 -0.10171508
0.024027081 0.009129513 -0.043408837 0.0071428274 0.023223376 -0.004424173 0.09109733 0.055298954
0.07696721 0.013546626 0.042296242 0.06471883 0.04496116 -0.035206165 0.020060714 -0.03142036
-0.06776882 0.052844692 0.029809322 0.031621154 0.0543308 -0.0035621738 0.009770272 0.025132945
0.015057343 0.05797859 0.051176313 -0.038367435 -0.0077477004 0.056505058 0.04066512 -0.0042060595
-0.016737819 -0.0077114473 -0.0318814 0.051854897 0.002494421 9.171308e-05 -0.050160673 -0.035553776
0.015283306 -0.040590223 0.04037241 -0.02892148 0.033504076 0.03554446 0.09990007 0.08842555
0.060937304 0.009420331 -0.05182243 0.055912234 -0.034453593 0.021594645 0.04038576 0.048184153

classifier.2.weight f4 [10, 64]
00000000: b105 863d f09a b2bd 0b95 5c3d a639 8c3d
00000010: 3a7f 50bd 2bb3 2abe af0e d53d 2927 0fbe
00000020: 2b9f abbd 0a15 b23d 9705 783d 640b e1bd
00000030: 7b22 13be cbef 3ebd 11d5 3bbe 45d5 193e
00000040: 2158 77be 4f8f ae3d d247 32be acc7 70bd
00000050: 52bb 1f3d af08 84bd 839d 92bd 4c2c 10be
00000060: 2be2 5ebd 46ce 373e f06d 863d 7ff5 16bd
00000070: 8fd7 5b3d a9c4 31be a7da cc3d 33ff ebba
00000080: a196 2fbe ef42 38be c9ab 013a e3c9 ca3d
00000090: a817 2ebe cf3a 6abd 09d6 1bbd 5f5a 013e
000000a0: 7221 b6bd 7a83 fabd 4b63 84bc 4287 03be
000000b0: 929c 8abd 43d2 1abe a9bc 6a3d ead1 f1bd
000000c0: 4b05 8fbe e848 823d b290 013e bb1e c3bd
000000d0: dec7 e0bc 6182 39be c9b3 8cbc 1b5d dcbc
000000e0: 9dc4 bcbd a44a adbd b919 013b c5e3 04be
000000f0: ed6c 1d3e a60b 7a3d edc3 ccbd 25b4 d4bb
00000100: 35d1 3bbe a6be ff3d e7de 35be f5f6 823d
00000110: 6608 8e3d df04 6abd d1be 5cbe 1900 24be
00000120: bc45 4ebd bb9c 78be 4535 8dbd 3422 cf3d
00000130: 2ece 133e 7edd e6bd b3b4 b0bd c144 50be
00000140: 727c f13c df6a a9bd 39b9 65be bcfe 32be
00000150: ef32 84bd 0925 aabd 1ddb 25be 83dd b53c
00000160: b787 fc3d f4da 483c c87b 303e 77c6 673c
00000170: 51b4 853d f3d3 39bc ba95 2bbb c33a 1abd
00000180: c9c7 dbbc c266 c03d 9395 10be 0031 39bd
00000190: 1d3c 0cbe 7e75 e03d cd2b 513d 6d57 7c3d
000001a0: f18e 393e 53e1 3a3e a2c9 5abe 6024 193d
000001b0: 8259 16be a510 173d 4f34 c1bd 83ab 8cbd
000001c0: a55c 0d3e 6184 08be 0b33 a03d 2564 3f3e
000001d0: c2cc 893d b648 0bbe b427 e2bd 7b8c 3abe
000001e0: cdc8 c53c cb0f f73d 8a65 0abd d294 a2bd
000001f0: 6e83 2fbe bd00 1e3e 2f0c e83d 94ae 0dbe
00000200: 7468 613d 116c 7dbe 8143 43be 0712 133e
00000210: 83f1 5abe ec47 fbbd 6f6a 45be f438 c43d
00000220: c3d5 14be 2daf 0f3d 9f3c 0e3b 9250 43bd
00000230: 7883 01bc 94f6 e23d fb82 22be b731 093c
00000240: 6394 4c3d 6bb6 b8bd 945f 22bd 2e6f 11be
00000250: 8d2d a8bd 2ac1 903d 1d27 36be 8acc 99bc
00000260: 3c60 263e 122d e7bc e32f 19be c8f5 643d
00000270: a74d 6cbe 20ef a23d 9da3 3c3d 17e9 80be
00000280: 9c33 4f3d 9e49 53be a42c c7bd 247a 1abe
00000290: c305 3cbd 0c14 67bd 4d1b 9bbd e7d7 49be
000002a0: 5b4e a9bd e3d3 cc3d b658 0dbd 5041 56bb
000002b0: 3a7e 85bc 2830 0dbc cf30 ac3d 58b6 2f3d
000002c0: 1631 b53c bf30 033e e838 e2bd 24e0 18bd
000002d0: 0087 3cbe 4b4d dfbd 4bc0 d9bd 3723 a9bd
000002e0: 3b73 6d3d 88f8 0d3d 759a c53c a977 03be
000002f0: aa94 e9bd e2c0 84bc 610f efbd 3399 6bbe
00000300: 4dda 6fbe 43c9 dfbd ee88 7b3e 864b 81be
00000310: 6638 18be beb3 783d f4f2 3c3e 706d febc
00000320: 5aaa c53c cbaf 923e 586d b4bd de81 3b3e
00000330: ada6 ea3d 2ab2 2c3e b9b7 9abc c8a2 85bd
00000340: 73d0 493e 11c2 22bd c28a 8fbe f567 853d
00000350: c91b 6c3d eebe 0cbe b3a2 bf3c 2403 b2bd
00000360: 2b6b 43be b4c1 4b3e 9f61 1dbe f46d d23d
00000370: 11ab c4bd 6e19 6ebd b50a bf3d e431 e5bb
00000380: 796e ccbb c674 b7bc c3e2 6c3d 239d 52be
00000390: f93b 693e 1f4a 213d 52d2 06be 5d30 91bd
000003a0: ab4a 28be 92db 923c 9e0c 37be 3c77 373d
000003b0: ee12 383e f93a 093d d338 8fbd 18d9 5ebc
000003c0: 7bc6 ef3d 98a1 7cbd 5d70 0bbe 6a48 88bd
000003d0: 0d56 fabc 1c8f 88bd 95e9 d13c 47df f8bd
000003e0: 320f 0bbe 1a43 993c 049b e7bb f9af 1ebd
000003f0: 57dc bbbd ce90 813c 0fb5 8abd fe7b a8bd
0.06544054 -0.08720958 0.053853076 0.06846933 -0.050902583 -0.1666991 0.10403191 -0.13979782
-0.08379968 0.08695419 0.060552206 -0.10988501 -0.14368622 -0.046615403 -0.18342997 0.15022762
-0.24154712 0.08523428 -0.1741021 -0.058784172 0.038997002 -0.06446969 -0.07158949 -0.14079398
-0.05441491 0.17949781 0.06563938 -0.036855217 0.05367237 -0.17360176 0.10002642 -0.0018005132
-0.17147304 -0.17994283 0.00049465575 0.09901788 -0.17001212 -0.05718499 -0.038045917 0.1263213
-0.08893098 -0.122321084 -0.016160628 -0.12844566 -0.06768145 -0.15119271 0.057308827 -0.11807616
-0.27933726 0.06361562 0.12652853 -0.09527346 -0.027439054 -0.18116142 -0.017175572 -0.026899865
-0.092171885 -0.08461502 0.001969917 -0.12977512 0.15373583 0.061046265 -0.099983074 -0.0064912015
-0.18341525 0.12487535 -0.17760812 0.063947596 0.069351956 -0.05713355 -0.21557166 -0.16015662
-0.050359473 -0.24278538 -0.06894926 0.101139456 0.1443412 -0.11272715 -0.08628216 -0.20338728
0.029478285 -0.08272337 -0.22433938 -0.17479986 -0.06455027 -0.08307845 -0.16196866 0.022200352
0.12330573 0.012259234 0.17234719 0.014146439 0.06528533 -0.011342037 -0.0026181773 -0.037653696
-0.026828663 0.093945995 -0.14119558 -0.045212746 -0.13694806 0.1095991 0.051067162 0.061606813
0.18120934 0.18250017 -0.2136598 0.037388206 -0.14682582 0.036881108 -0.09433805 -0.06868651
0.13804872 -0.13331749 0.07822236 0.18690546 0.067285076 -0.13601956 -0.11042729 -0.18217652
0.0241436 0.12063559 -0.03378824 -0.079385415 -0.1713998 0.15429969 0.11330449 -0.13836128
0.055031255 -0.24748255 -0.1906872 0.14362346 -0.21381192 -0.122695774 -0.19278882 0.095811754
-0.14534669 0.03507917 0.0021703613 -0.04768426 -0.00790488 0.11082187 -0.15870278 0.008373669
0.0499462 -0.090191685 -0.03964193 -0.14202568 -0.08211813 0.07068093 -0.17788358 -0.01877429
0.16247648 -0.028219733 -0.14959674 0.055898458 -0.23076497 0.07955766 0.04605447 -0.25177833
0.050586328 -0.20633551 -0.097253114 -0.15085655 -0.045903932 -0.056415603 -0.075735666 -0.19711266
-0.08266898 0.10001352 -0.03450843 -0.0032692738 -0.016295541 -0.008617438 0.08407747 0.042898506
0.022118133 0.12811564 -0.1104601 -0.037323132 -0.18410873 -0.10903414 -0.1063238 -0.0825867
0.05797122 0.034660846 0.024121502 -0.12838615 -0.114053085 -0.016205255 -0.11672855 -0.2300766
-0.23423119 -0.109270595 0.24563953 -0.25252932 -0.14865264 0.06071829 0.18452054 -0.031058043
0.024129082 0.28649744 -0.08809918 0.18311259 0.11457572 0.16864839 -0.018886434 -0.06525189
0.19708423 -0.039735857 -0.2803555 0.06513969 0.057643685 -0.13744709 0.02339301 -0.08692005
-0.1908385 0.1989811 -0.1536927 0.10274878 -0.09602941 -0.05812972 0.09328214 -0.006994473
-0.0062387553 -0.02239455 0.057833444 -0.20567755 0.22776784 0.039377328 -0.13166168 -0.07089303
-0.16434734 0.017926965 -0.17875907 0.044791445 0.17975971 0.033503506 -0.0699326 -0.013601564
0.11707779 -0.061677545 -0.13617082 -0.06654437 -0.03055861 -0.06667921 0.025624076 -0.12151962
-0.13580015 0.018708754 -0.00706804 -0.03874204 -0.09172886 0.015816119 -0.067728154 -0.08226775

classifier.2.bias f4 [10]
00000000: edb0 b63d ddf9 82bd e424 e1bc 803a bc3d
00000010: 1481 273d 159c ebbd a161 24be d904 b3bd
00000020: 6b23 97bd e9ac f83c
0.08920465 -0.06395314 -0.027483411 0.091908455 0.040894583 -0.1150438 -0.16052867 -0.08741159
-0.07379802 0.030355887
