Weights/p2/EncoderDecoderCNN_weights.pth (torch, 750610 bytes, 12 tensors)

encoder.0.weight f4 [32, 3, 3, 3]
0.0006702422 -0.08907793 0.030576052 0.11784328 -0.018278548 0.13102613 0.11111475 0.16812776
0.07159926 -0.08398283 0.18626702 -0.07705532 -0.14391573 -0.17829224 0.044833362 0.017983194
0.04951854 -0.09490368 -0.03352712 -0.140061 -0.027741663 0.060906302 -0.04678763 0.068447605
-0.008977371 0.03142149 -0.17873196 -0.10555489 -0.08687266 0.14178132 -0.09754534 0.017489303
-0.04074267 0.011099106 -0.1272008 -0.055773903 0.07160849 -0.027875287 -0.042483713 -0.033794884
0.1252375 -0.03992307 0.0054705744 0.18199566 0.16450582 0.0019761203 -0.0074908896 -0.0062317806
-0.0037166935 -0.052193213 -0.049708664 -0.042962603 0.0984104 -0.1325006 -0.00042256605 0.03883769
0.04936204 0.13047718 0.1391092 0.15876973 -0.03665831 -0.17546684 0.030077534 -0.14032014
-0.12758997 0.0838192 0.086977415 0.16687444 -0.04289964 -0.15989012 0.13340999 -0.055250157
-0.08464397 0.19281253 -0.04712755 -0.11715771 -0.10723183 0.059215937 0.15711671 0.112140514
-0.12592953 -0.116448775 -0.18092768 -0.057987556 0.01138361 0.08260237 -0.08966743 0.0168224
-0.009313261 -0.13664542 0.06139859 0.11289913 -0.057060577 0.1276408 -0.038700357 0.15193751
-0.04979467 -0.20749825 0.06478566 -0.16573755 0.18625966 0.027470723 0.0031832752 0.108177
0.017706413 -0.0341507 -0.113193266 -0.0145358015 0.05426784 0.043229546 0.07721487 -0.21353559
-0.13442533 -0.11015331 0.05002638 -0.08134627 -0.09931309 0.028014492 -0.10301306 0.0019222171
0.09696529 0.12546054 0.11206416 -0.106272325 -0.08935754 -0.034034785 0.11361487 0.07158605
-0.1046473 -0.1974416 0.102259904 -0.19178313 0.04705285 0.12433347 0.063787304 -0.17662555
0.103620715 0.15272216 -0.06405803 0.12466504 0.16981448 -0.08107543 0.101718165 0.11163607
0.13343158 0.14058927 -0.14611411 0.04191398 0.008991585 0.0487555 0.045723878 -0.1824377
0.106168166 -0.118592784 -0.09963311 -0.008040298 -0.10263935 -0.024447681 0.15842956 -0.012245048
0.06933037 0.14519462 0.054566793 -0.1275114 0.12261313 -0.0021264753 -0.07437454 0.08366258
0.08351556 -0.04797459 -0.025241118 -0.0021748387 0.059741165 0.114734516 0.14110923 -0.06085335
0.12182827 0.04518924 -0.14745137 -0.058860533 -0.0708235 0.055129167 0.036006354 -0.017641881
0.009351304 0.18201964 -0.10731168 -0.08668581 0.0015111729 -0.072838664 0.09632048 -0.08319215
0.14306575 -0.19010003 -0.19708148 0.018991452 0.01940431 -0.049220014 0.14945333 -0.1341561
-0.086183235 -0.12249438 0.12242304 -0.14589745 0.10662565 0.13908237 -0.14199075 -0.02795215
-0.010422077 0.089464635 0.10627883 -0.11524514 0.18334739 -0.01973454 0.17587253 0.13941883
0.12819171 0.089219354 -0.014697429 -0.093671046 -0.09761973 0.09114394 -0.04153768 0.06956952
0.12834874 0.1556354 -0.057816714 -0.018792015 -0.035162587 0.051740978 -0.016719345 -0.12635003
0.15821429 -0.08294246 -0.052448217 0.033797596 0.10736759 -0.12424207 0.046935722 0.11198094
-0.12442009 0.19716954 -0.18519554 -0.19545758 -0.17372674 0.03153892 -0.017098855 0.029649328
-0.16280273 -0.024591438 -0.014517935 0.003714555 0.17087479 0.11767232 0.12490496 0.07986631
00000000: 31b3 2f3a 7d6e b6bd a17a fa3c d157 f13d
00000010: e5bc 95bc b72b 063e 2190 e33d af29 2c3e
00000020: a2a2 923d 31ff abbd c8bc 3e3e 2ecf 9dbd
00000030: a55e 13be 3e92 36be 30a3 373d 7e51 933c
00000040: f4d3 4a3d dc5c c2bd bc53 09bd 276c 0fbe
00000050: 7c42 e3bc e378 793d 63a4 3fbd 422e 8c3d
00000060: d315 13bc d2b3 003d 8305 37be 2a2d d8bd
00000070: 4bea b1bd 1f2f 113e dac5 c7bd ba45 8f3c
00000080: c9e1 26bd 06d9 353c ed40 02be 2d73 64bd
00000090: 79a7 923d b75a e4bc 6703 2ebd 816c 0abd
000000a0: 423e 003e 6086 23bd 8142 b33b 125d 3a3e
000000b0: 3774 283e cc81 013b 2376 f5bb f733 ccbb
000000c0: c593 73bb 8dc8 55bd 509b 4bbd 8ef9 2fbd
000000d0: 648b c93d 3dae 07be db8b ddb9 4514 1f3d
000000e0: da2f 4a3d cf9b 053e a472 0e3e 8894 223e
000000f0: 0627 16bd 94ad 33be 2965 f63c 15b0 0fbe
00000100: f2a6 02be 67a9 ab3d 3721 b23d 22e1 2a3e
00000110: 88b7 2fbd 3cba 23be a19c 083e fd4d 62bd
00000120: d159 adbd a670 453e d108 41bd 62f0 efbd
00000130: 5d9c dbbd 698c 723d 34e3 203e eda9 e53d
00000140: acf3 00be b27c eebd 1b45 39be 5c84 6dbd
00000150: 5282 3a3c 6e2b a93d 8fa3 b7bd 21cf 893c
00000160: a696 18bc c7ec 0bbe 177d 7b3d a937 e73d
00000170: 5ab8 69bd 45b4 023e 4484 1ebd 8295 1b3e
00000180: 7ff5 4bbd 6c7a 54be 58ae 843d 1bb7 29be
00000190: daba 3e3e 480a e13c 7f9e 503b e78b dd3d
000001a0: 0a0d 913c 9be1 0bbd dfd1 e7bd 9227 6ebc
000001b0: f447 5e3d 7711 313d d422 9e3d 13a9 5abe
000001c0: cba6 09be 0f98 e1bd 76e8 4c3d e098 a6bd
000001d0: a964 cbbd a67e e53c 83f8 d2bd e7f2 fb3a
000001e0: bd95 c63d ba78 003e e581 e53d 4ea5 d9bd
000001f0: 1601 b7bd 0f68 0bbd eaae e83d b59b 923d
00000200: 5351 d6bd 212e 4abe a46d d13d cc62 44be
00000210: 7dba 403d 8ca2 fe3d eba2 823d 54dd 34be
00000220: 1937 d43d 3363 1c3e db30 83bd 6250 ff3d
00000230: d9e3 2d3e e00a a6bd 9d51 d03d 74a1 e43d
00000240: 4aa2 083e a2f6 0f3e f09e 15be fead 2b3d
00000250: 7151 133c d9b3 473d f648 3b3d f3d0 3abe
00000260: b26e d93d c6e0 f2bd 720c ccbd 74bb 03bc
00000270: 9434 d2bd 8146 c8bc 5c3b 223e 749f 48bc
00000280: 15fd 8d3d e6ad 143e 6e81 5f3d 5992 02be
00000290: 981c fb3d 565c 0bbb ae51 98bd 4957 ab3d
000002a0: 350a ab3d 0181 44bd 76c6 cebc bd87 0ebb
000002b0: 27b3 743d eef9 ea3d f07e 103e 5d41 79bd
000002c0: 1a81 f93d 5a18 393d 7efd 16be be17 71bd
000002d0: e90b 91bd 1fcf 613d 667b 133d b585 90bc
000002e0: 3636 193c 5b63 3a3e 3ac6 dbbd 5488 b1bd
000002f0: 8c12 c63a 702c 95bd ac43 c53d a560 aabd
00000300: d47f 123e 95a9 42be bacf 49be f693 9b3c
00000310: caf5 9e3c ed9a 49bd 4b0a 193e 3760 09be
00000320: d680 b0bd 55de fabd eeb8 fa3d 2466 15be
00000330: 8c5e da3d 9c6b 0e3e 0666 11be e8fb e4bc
00000340: 5cc1 2abc 3c39 b73d b7a8 d93d a505 ecbd
00000350: 6bbf 3b3e 54aa a1bc ee17 343e cfc3 0e3e
00000360: b044 033e a3b8 b63d 7ccd 70bc 9bd6 bfbd
00000370: daec c7bd ada9 ba3d 6a23 2abd 777a 8e3d
00000380: da6d 033e e35e 1f3e 38d1 6cbd b6f1 99bc
00000390: a506 10bd 59ee 533d 02f7 88bc e761 01be
000003a0: ed02 223e bddd a9bd f1d3 56bd 596f 0a3d
000003b0: 8ae3 db3d a072 febd ac3f 403d 4356 e53d
000003c0: f6cf febd d0e6 493e e6a3 3dbe 0826 48be
000003d0: 6ce5 31be f42e 013d e612 8cbc 26e3 f23c
000003e0: c2b5 26be fc73 c9bc a2dc 6dbc e46f 733b
000003f0: cdf9 2e3e 2ffe f03d 2cce ff3d f390 a33d

encoder.0.bias f4 [32]
-0.009360809 0.07051491 -0.23478298 0.09013445 0.17128508 -0.03546048 -0.09605847 -0.0041288426
-0.13150766 0.0922269 -0.22705702 -0.039374124 0.07836309 -0.13072227 0.050699282 0.0004269244
-0.22157378 0.102328755 0.047907688 0.13120888 -0.040408574 -0.025124362 0.03886275 0.10456575
0.08128287 0.14730954 -0.1355512 0.030969042 -0.19606559 0.11217482 0.0533012 0.10263503
00000000: 145e 19bc 1f6a 903d f36a 70be 6998 b83d
00000010: 5b65 2f3e 023f 11bd 4eba c4bd 3e4b 87bb
00000020: f2a9 06be 75e1 bc3d a381 68be c346 21bd
00000030: d47c a03d 0fdc 05be 0daa 4f3d d3d4 df39
00000040: 3de4 62be bd91 d13d da3a 443d 9f5b 063e
00000050: 7683 25bd 9bd1 cdbc 8c2e 1f3d 9126 d63d
00000060: a277 a63d 50d8 163e efcd 0abe cab2 fd3c
00000070: 6bc5 48be e9bb e53d 5c52 5a3d 5132 d23d

encoder.3.weight f4 [64, 32, 3, 3]
-0.08780518 0.033152174 -0.0032265326 0.0039933664 -0.03674307 0.019685632 0.0152064115 0.04940582
-0.033846818 0.0039908146 -0.0041620606 0.057439998 -0.08402217 -0.011753087 -0.0054897056 -0.04832799
0.016095681 0.015183815 0.017818933 -0.03294998 -0.01983645 0.003164975 0.06478129 0.042120498
0.028355666 0.03516463 -0.058457803 -0.013700423 -0.07073506 -0.0637514 0.07717856 0.024487207
0.024972314 0.022191979 -0.00936015 -0.00789264 -0.036112364 -0.028006569 0.06678828 -0.0010538058
0.03942934 0.04723758 0.0014220638 -0.041280013 -0.03943705 0.01342302 0.0221919 -0.04622845
-0.029791849 -0.03739768 0.02281305 0.035041165 -0.011726328 0.03367052 -0.062003672 0.07067812
-0.02559704 0.024836212 -0.04081895 -0.035571367 -0.007779306 0.061378486 0.028596817 -0.0012261011
0.056227203 -0.010704506 -0.0005360964 -0.0079072025 0.042836078 -0.024575746 0.012044459 0.005715191
-0.036816377 0.022518666 0.019043293 -0.03132103 -0.0073190583 -0.018639706 0.063332826 0.035798006
-0.0066969907 -0.029244725 0.00395703 -0.035662886 0.05195836 -0.03324289 5.4547716e-05 0.054567765
-0.052715562 0.034103435 -0.025762206 0.027546097 0.004577778 -0.0025985218 -0.026138145 -0.023769125
0.012177046 -0.020545753 -0.02521942 -0.042413853 -0.004881421 -0.04428584 0.022034034 0.016867805
-0.0286815 -0.0067760404 0.018320663 0.029870525 -0.07483313 0.028046712 0.012132533 0.014638556
0.015146225 0.01940662 -0.061780047 -0.04026689 0.013931179 -0.048973918 0.013673344 0.024127135
0.02119108 -0.017016562 0.06929031 0.018285466 0.08637885 0.08697895 -0.06449145 0.051669564
-0.12304999 0.052788597 0.06355371 -0.27125895 -0.09666109 -0.073749885 -0.007082518 -0.013403503
0.097035125 0.07116396 0.061033554 -0.01055194 -0.044805422 -0.030779386 -0.036216117 -0.0068613696
0.08408742 -0.046117503 0.033832453 -0.02585371 -0.015643407 0.046106167 -0.06310474 0.031259462
0.023290878 0.055430785 -0.028067376 0.08236313 0.01708044 -0.021328574 -0.100456774 0.01713643
-0.027790522 -0.09349585 0.052252244 0.07383505 0.08078332 -0.02419401 -0.032015 0.07578949
0.0009916184 0.07501776 0.027119523 -0.051032025 -0.030662887 -0.029041786 0.017724104 0.051275354
0.05056451 -0.03778146 0.0019494017 0.010181592 0.047113907 -0.034523007 -0.011165084 -0.03738554
0.0033481629 -0.029967291 -0.018090578 6.46506e-05 0.06968238 0.13115501 -0.068264104 -0.09544857
-0.044251896 -0.10573927 -0.06131946 0.045596566 -0.10311538 0.055067264 -0.05278336 0.04090327
-0.010977021 -0.05572843 -0.05298824 0.055740625 0.021064024 -0.017140185 0.02293918 0.017876558
-0.0044391574 0.000710887 -0.08860369 -0.014986306 0.0132854525 0.008911801 -0.009544685 -0.008793152
-0.04213263 0.016728556 -0.04883654 0.04274876 -0.032890975 -0.002564151 -0.012682744 0.0005689406
0.05678861 -0.15408869 0.02991274 -0.03441635 0.02420793 -0.06276686 -0.22024861 -0.018652128
-0.11563551 -0.15711194 -0.0049083373 -0.028523535 0.003224213 0.030479526 0.045924872 0.002400146
-0.024074495 0.045925602 0.082527444 0.02309504 -0.0012529095 0.065850124 -0.013758175 0.029438712
0.0093592955 -0.02253674 0.030136462 0.0348834 -0.15475827 -0.09701231 0.049888823 0.013591924
00000000: 34d3 b3bd 93ca 073d 3c74 53bb c9da 823b
00000010: e77f 16bd c343 a13c 5024 793c c25d 4a3d
00000020: f6a2 0abd 61c5 823b e561 88bb 3446 6b3d
00000030: d113 acbd 0590 40bc fde2 b3bb 92f3 45bd
00000040: 17db 833c 89c5 783c 03f9 913c 8ff6 06bd
00000050: 0d80 a2bc 786b 4f3b 0eac 843d 8b86 2c3d
00000060: 244a e83c c908 103d 7371 6fbd bd77 60bc
00000070: 8bdd 90bd 1890 82bd cb0f 9e3d 6599 c83c
00000080: bd92 cc3c f4cb b53c 515b 19bc 2250 01bc
00000090: 8fea 13bd 086e e5bc 4bc8 883d db1f 8aba
000000a0: a980 213d 317c 413d 8b64 ba3a 3b15 29bd
000000b0: bf88 21bd 3aec 5b3c cacb b53c 0b5a 3dbd
000000c0: 090e f4bc 4f2e 19bd 6fe2 ba3c 5387 0f3d
000000d0: c91f 40bc 19ea 093d 90f7 7dbd b1bf 903d
000000e0: e2b0 d1bc 5075 cb3c c531 27bd 48b3 11bd
000000f0: 8ce9 febb 0268 7b3d df43 ea3c 20b5 a0ba
00000100: 7f4e 663d f461 2fbc d288 0cba 368d 01bc
00000110: e274 2f3d 1353 c9bc 1f56 453c 7f46 bb3b
00000120: c5cc 16bd 1179 b83c ae00 9c3c 7b4a 00bd
00000130: b6d4 efbb 4cb2 98bc a4b4 813d eea0 123d
00000140: 6e72 dbbb a292 efbc f9a9 813b 3f13 12bd
00000150: 4ad2 543d b229 08bd 2aca 6438 7382 5f3d
00000160: 46ec 57bd 0bb0 0b3d 430b d3bc 5aa8 e13c
00000170: 2f01 963b f64b 2abb aa1f d6bc 78b7 c2bc
00000180: 3c82 473c 914f a8bc f598 cebc 26ba 2dbd
00000190: 54f4 9fbb 1265 35bd b880 b43c 5a2e 8a3c
000001a0: 77f5 eabc 8c09 debb 3715 963c 08b3 f43c
000001b0: 1d42 99bd 38c2 e53c 88c7 463c 8ed6 6f3c
000001c0: df27 783c a2fa 9e3c 130d 7dbd e5ee 24bd
000001d0: 9a3f 643c e098 48bd 2906 603c 45a6 c53c
000001e0: ea98 ad3c 5166 8bbc 14e8 8d3d 67cb 953c
000001f0: 65e7 b03d 0522 b23d 1814 84bd 77a3 533d
00000200: a201 fcbd db38 583d 7328 823d 74e2 8abe
00000210: 40f6 c5bd 2e0a 97bd 7814 e8bb 5e9a 5bbc
00000220: 5aba c63d 69be 913d 52fe 793d 0be2 2cbc
00000230: e485 37bd 0d25 fcbc 5a57 14bd 57d5 e0bb
00000240: 0636 ac3d b5e5 3cbd e693 0a3d 29cb d3bc
00000250: 9a26 80bc d2d9 3c3d 0f3d 81bd ec09 003d
00000260: 83cc be3c 640b 633d 8eed e5bc 00ae a83d
00000270: 47ec 8b3c 43b9 aebc 48bc cdbd b361 8c3c
00000280: f3a8 e3bc c17a bfbd 7306 563d d536 973d
00000290: ba71 a53d 8432 c6bc 2922 03bd 8537 9b3d
000002a0: 31f9 813a e9a2 993d c329 de3c f506 51bd
000002b0: bc30 fbbc 0ae9 edbc 2432 913c 1b06 523d
000002c0: bb1c 4f3d bbc0 1abd 1183 ff3a b1d0 263c
000002d0: 83fa 403d ff67 0dbd c2ed 36bc 9421 19bd
000002e0: da6c 5b3b f77d f5bc b132 94bc 0795 8738
000002f0: a3b5 8e3d 804d 063e 0dce 8bbd 8a7a c3bd
00000300: 7a41 35bd d58d d8bd 1d2a 7bbd 77c3 3a3d
00000310: 282e d3bd 368e 613d 5d33 58bd 308a 273d
00000320: f7d8 33bc 7f43 64bd 320a 59bd 4850 643d
00000330: 768e ac3c 9369 8cbc f2ea bb3c dc71 923c
00000340: 5a76 91bb d25a 3a3a da75 b5bd 2089 75bc
00000350: 3aab 593c cd02 123c 4f61 1cbc 2711 10bc
00000360: 4493 2cbd 530a 893c d308 48bd 5319 2f3d
00000370: b0b8 06bd 510b 28bb 49cb 4fbc f524 153a
00000380: 2c9b 683d 6dc9 1dbe 900b f53c 29f8 0cbd
00000390: b54f c63c e98b 80bd da88 61be 59cc 98bc
000003a0: 4fd2 ecbd f4e1 20be 1ed6 a0bb 30aa e9bc
000003b0: 514d 533b 33b0 f93c b81b 3c3d c54b 1d3b
000003c0: e037 c5bc 7c1c 3c3d 2604 a93d cf31 bd3c
000003d0: ab38 a4ba 6edc 863d f869 61bc 7429 f13c
000003e0: bb57 193c f89e b8bc bee0 f63c e5e1 0e3d
000003f0: f478 1ebe 64ae c6bd 3958 4c3d a9b0 5e3c

encoder.3.bias f4 [64]
0.011498846 0.052824657 -0.033970777 -0.0025616232 0.030385513 0.022761485 -0.020860588 -0.12681393
-0.045086525 -0.044214852 -0.09543176 0.06700511 -0.035638686 0.008283 -0.10257186 -0.058099095
-0.042450182 -0.035769254 0.0020578846 0.058403697 -0.080462284 -0.010227185 -0.016919771 -0.009631559
-0.023091557 -0.0066160997 -0.049962517 -0.045752548 0.03378264 -0.029137678 0.03483726 -0.010042869
-0.10110361 0.05227755 -0.045470882 0.014218922 -0.09687629 -0.06392135 0.015669541 -0.0993548
-0.020375028 0.0086268615 0.027614903 -0.074517146 -0.0141402865 0.019652823 0.025063695 0.0527836
-0.07787013 -0.0039628455 0.025442988 0.052926295 -0.012393402 -0.043263793 -0.07487599 0.012456271
-0.05051363 -0.05622856 0.023255838 -0.0029641346 -0.014787989 -0.0016763735 0.015768459 -0.04423201
00000000: a865 3c3c ab5e 583d f124 0bbd e8e0 27bb
00000010: 0aeb f83c 4b76 ba3c d3e3 aabc 83db 01be
00000020: a6ac 38bd a21a 35bd ba71 c3bd fa39 893d
00000030: dff9 11bd 6cb5 073c 3211 d2bd 51f9 6dbd
00000040: 3ee0 2dbd c882 12bd 93dd 063b b738 6f3d
00000050: 69c9 a4bd ec8f 27bc 559b 8abc b0cd 1dbc
00000060: 812a bdbc decb d8bb 7fa5 4cbd 0667 3bbd
00000070: aa5f 0a3d 24b2 eebc 84b1 0e3d d88a 24bc
00000080: 690f cfbd fc20 563d ad3f 3abd 7bf6 683c
00000090: 1467 c6bd 32e9 82bd 695d 803c 887a cbbd
000000a0: 88e9 a6bc ae57 0d3c a638 e23c 729c 98bd
000000b0: a9ac 67bc f5fe a03c 6152 cd3c 9e33 583d
000000c0: 607a 9fbd c2da 81bb d06d d03c 3ec9 583d
000000d0: b20d 4bbc 6035 31bd 9558 99bd 6315 4c3c
000000e0: 61e7 4ebd eb4f 66bd 0783 be3c ed41 42bb
000000f0: 5249 72bc c3b9 dbba db2c 813c a02c 35bd

encoder.6.weight f4 [128, 64, 3, 3]
-0.046834882 -0.1354802 -0.092426285 -0.044410635 -0.07445627 -0.08957249 -0.05084238 -0.046313934
-0.072477676 -0.022143606 -0.020870006 0.0054297564 -0.029371891 0.037263542 0.04024301 0.006457851
0.0053834724 0.019611616 0.023800038 -0.03132633 0.017246084 -0.03328107 -0.02160546 0.036677748
0.027330687 -0.046862017 -0.005362786 0.014809477 0.01705522 0.051486496 0.06828674 -0.000541
-0.0144135095 0.025295814 0.049480136 0.010347648 -0.045841295 0.024294931 -0.016527008 0.03221788
-0.04437836 0.009493533 -0.023691991 -0.0047469414 -0.018595042 -0.022472145 -0.045920394 0.032212246
0.024608426 -0.003903995 0.017790878 -0.0015983041 0.030642074 -0.0037059153 0.02714878 -0.028792555
0.024044506 -0.010511411 -0.029158888 -0.004720476 0.0037564877 -0.026074784 0.028432809 -0.017972544
0.030228283 0.0153490435 -0.025966838 -0.04197688 0.029159307 0.011436186 -0.021881782 -0.01159975
-0.030855056 -0.006455356 -0.015585197 0.028633043 -0.037466243 0.02662288 -0.028265042 -0.028627997
-0.030271169 -0.04635904 -0.0423604 -0.0016503232 -0.0009866208 -0.01401433 -0.044390302 -0.032862455
-0.05027697 -0.051665805 -0.041992523 0.011545788 0.026203355 0.017559709 0.021226488 -0.026439138
0.0016404849 0.04005654 0.004750508 -0.008954968 -0.013579795 -0.047656484 -0.004204523 0.02125406
0.009286659 0.02823052 0.021743834 -0.0056342506 -0.0024608532 -0.022704415 -0.0068076993 -0.043530773
0.0030073724 0.005271437 0.008816977 -0.017812194 -0.02937182 -0.050363787 -0.026491959 0.019151755
-0.004855665 -0.0041321805 0.0036895187 0.0011090259 0.005441661 -0.060512923 0.019218633 0.016030638
-0.03366975 -0.037872817 -0.029206928 -0.03223879 0.025273472 -0.020526102 0.017040303 -0.010906777
-0.043309513 -0.03164468 -0.0087050805 0.0022347625 -0.007809035 0.012780157 -0.0518662 0.017619148
-0.031575598 -0.021513967 -0.031558678 0.011575934 0.0017793819 0.009920444 0.040121328 -0.0075177983
0.03490148 -0.03308718 0.02825995 -0.03265017 -0.0071809464 -0.04167741 0.011292308 -0.045305293
-0.03691229 -0.024092095 0.029004494 0.022897586 0.016551547 0.008964319 -0.044292737 -0.00719933
-0.02512789 -0.03599689 -0.013220334 0.0018981391 -0.008398195 -0.050051156 -0.021294251 -0.039578617
0.016959265 -0.051486555 -0.0083012935 -0.059889 0.002112448 -0.032947987 0.03560696 -0.0038603442
-0.0076400414 0.0019658355 -0.01306591 -0.0037540398 -0.022161366 0.0102236625 0.028255211 -0.047107283
-0.0196037 0.013313664 -0.038928587 -0.043023072 -0.026636537 -0.042870056 -0.021539396 -0.035265874
0.023730205 -0.04457249 -0.023810862 0.021314798 -0.040624015 -0.011670954 0.019164687 -0.04561849
-0.03139535 0.00027051487 0.006957705 0.008745935 0.024889063 -0.030221993 0.027595902 -0.040212017
0.020176802 0.0204983 0.0051930635 -0.019648721 -0.031363573 0.026958354 0.01937606 0.02889392
-0.045159087 -0.03440376 -0.03051745 -0.042209763 -0.010579984 0.020157445 0.013367347 0.027674166
0.031828534 0.019634768 -0.030294182 -0.019731741 0.016912432 0.008123833 0.018082231 -0.018958056
-0.037339132 0.007929494 -0.042777687 -0.016187798 0.023821346 -0.048198353 -0.028587064 0.0045557152
-0.003361291 0.0135948565 0.010733705 0.0151763465 -0.0311769 0.020914754 0.021300236 0.005073426
00000000: efd5 3fbd 52bb 0abe fe49 bdbd ede7 35bd
00000010: 877c 98bd c871 b7bd 1940 50bd aeb3 3dbd
00000020: 2d6f 94bd 8266 b5bc 93f7 aabc 19ec b13b
00000030: 529d f0bc a8a1 183d dbd5 243d 619c d33b
00000040: d767 b03b 8aa8 a03c 4cf8 c23c 0a50 00bd
00000050: a947 8d3c bb51 08bd effd b0bc 683b 163d
00000060: 9be4 df3c 63f2 3fbd 4fba afbb 73a3 723c
00000070: 64b7 8b3c 81e3 523d ebd9 8b3d e5d1 0dba
00000080: a426 6cbc 2b39 cf3c afab 4a3d 2e89 293c
00000090: 15c4 3bbd 2a06 c73c a663 87bc e5f6 033d
000000a0: 15c6 35bd c38a 1b3c b515 c2bc 3b8c 9bbb
000000b0: a154 98bc 8117 b8bc 0617 3cbd fdf0 033d
000000c0: 9c97 c93c 2bda 7fbb 2dbe 913c 307e d1ba
000000d0: 1605 fb3c f1de 72bb 1e67 de3c 5dde ebbc
000000e0: fcf8 c43c 0e38 2cbc 9fde eebc 39ae 9abb
000000f0: 682f 763b c99a d5bc eceb e83c 283b 93bc
00000100: 4ea1 f73c 8e7a 7b3c 68b8 d4bc f3ef 2bbd
00000110: 80df ee3c d75e 3b3c 6c41 b3bc e10c 3ebc
00000120: bec3 fcbc 7387 d3bb 0e59 7fbc d88f ea3c
00000130: 3476 19bd 3a18 da3c 178c e7bc 4385 eabc
00000140: 3efb f7bc fae2 3dbd 1982 2dbd a84f d8ba
00000150: 8051 81ba 5c9c 65bc 9bd2 35bd c89a 06bd
00000160: 39ef 4dbd 869f 53bd 5a00 2cbd 8b2a 3d3c
00000170: 6ba8 d63c 61d9 8f3c 2ce3 ad3c e496 d8bc
00000180: 8a05 d73a 5412 243d 26aa 9b3b dcb7 12bc
00000190: ca7d 5ebc 7233 43bd 18c6 89bb ff1c ae3c
000001a0: 1227 183c b143 e73c 2020 b23c 859f b8bb
000001b0: 4446 21bb 9cfe b9bc 1f13 dfbb 534d 32bd
000001c0: 5617 453b 05bc ac3b 1575 103c e1ea 91bc
000001d0: 2c9d f0bc 424a 4ebd aa05 d9bc 24e4 9c3c
000001e0: 451c 9fbb 3e67 87bb dacb 713b bc5c 913a
000001f0: f64f b23b 66dc 77bd 6570 9d3c af52 833c
00000200: 4be9 09bd 8720 1bbd 5e43 efbc d20c 04bd
00000210: 500a cf3c 5b26 a8bc 1b98 8b3c 57b2 32bc
00000220: 5165 31bd da9d 01bd c19f 0ebc 1875 123b
00000230: efe2 ffbb dd63 513c a771 54bd 0856 903c
00000240: 6a55 01bd 0f3e b0bc ac43 01bd fca8 3d3c
00000250: 263a e93a 5c89 223c 4356 243d dd57 f6bb
00000260: dbf4 0e3d 6c86 07bd 6981 e73c 2fbc 05bd
00000270: 254e ebbb efb5 2abd 5f03 393c 0b92 39bd
00000280: 5731 17bd c95c c5bc d59a ed3c b893 bb3c
00000290: 1c97 873c 14df 123c 4d6c 35bd 5be8 ebbb
000002a0: 01d9 cdbc 7a71 13bd 1a9a 58bc fbca f83a
000002b0: 9598 09bc 7102 4dbd 4871 aebc 301d 22bd
000002c0: 28ee 8a3c 91e3 52bd 2602 08bc 2b4e 75bd
000002d0: ff70 0a3b 78f4 06bd 9bd8 113d d4fd 7cbb
000002e0: 5059 fabb 3fd5 003b 6612 56bc 5606 76bb
000002f0: c18b b5bc 2681 273c 7977 e73c 91f3 40bd
00000300: f097 a0bc 8e21 5a3c 9573 1fbd f638 30bd
00000310: de34 dabc 8398 2fbd 6373 b0bc f372 10bd
00000320: d965 c23c a591 36bd ff0e c3bc 5f9c ae3c
00000330: 5e65 26bd 8737 3fbc 43ff 9c3c 74da 3abd
00000340: 6998 00bd e4d3 8d39 76fd e33b 1c4b 0f3c
00000350: 26e4 cb3c 1d94 f7bc cd10 e23c 5bb5 24bd
00000360: d249 a53c 0dec a73c 932a aa3b 5bf6 a0bc
00000370: 1777 00bd c4d7 dc3c 8bba 9e3c f1b2 ec3c
00000380: bcf8 38bd f5ea 0cbd bbff f9bc 25e4 2cbd
00000390: ab57 2dbc 3a21 a53c b802 5b3c efb4 e23c
000003a0: a35e 023d 18d9 a03c 812b f8bc 76a4 a1bc
000003b0: f18b 8a3c d319 053c 3021 943c ed4d 9bbc
000003c0: ebf0 18bd b5ea 013c a837 2fbd 469c 84bc
000003d0: fc24 c33c a36b 45bd 6b2f eabc 1c48 953b
000003e0: 1b49 5cbb f6bc 5e3c 6cdc 2f3c 36a6 783c
000003f0: b366 ffbc 6b55 ab3c d57d ae3c fb3e a63b

encoder.6.bias f4 [128]
0.017245188 -0.028948823 0.0077755535 0.0012487333 -0.035345934 -0.012217961 -0.00982545 0.00751199
0.0014390623 -0.018949777 -0.0023111166 -0.02266808 0.044261955 -0.04232541 0.0062508928 0.01003434
0.01137362 -0.0048738834 -0.021678982 -0.0015911361 0.023193145 -0.038312882 -0.0036506613 -0.022081606
-0.014543766 0.026126973 -0.008140571 -0.025100704 -0.0015977059 -0.023274567 -0.012391359 0.024773465
-0.006503353 -0.008928725 0.0012873212 0.016314035 -0.044253387 -0.01418231 -0.0046460386 0.010749915
-0.0007749652 -0.026751136 0.0111082215 -0.048329882 -0.02389768 0.018527644 0.0020665384 0.0038991098
0.01591599 0.027976135 -0.002161794 -0.043859564 -0.008812121 0.022013597 0.0049000853 0.0036564742
-0.017440649 -0.003113427 0.0056373985 -0.0029750594 0.029716427 0.0030568235 0.02167992 0.009027149
0.00787624 -0.0002906277 -0.001011244 0.005751275 -0.031123007 -0.011173797 -0.018186059 0.012440885
-0.013517464 -0.010818451 0.01093768 0.0062078447 -0.016690418 -0.01105932 -0.016762808 -0.03882012
-0.059427563 -0.032863587 -0.018199125 -0.0054347073 0.020407334 -0.043742206 -0.017686157 0.007912802
-0.016315311 -0.051608086 0.011112461 -0.028440425 0.005499705 0.013643999 0.0031319638 -0.017382415
0.015600215 -0.026822368 -0.016607387 -0.017833373 -0.048638985 -0.002585792 0.0019074047 -0.022240939
-0.0509806 0.0036016759 0.0057969633 -0.052748397 0.0031472798 0.0077135656 -0.013355495 -0.031512734
0.0060751303 0.0023665621 -0.043313336 0.01615556 -0.005614947 -0.062601715 0.021429235 -0.01365789
-0.0027540773 -0.047025837 -0.04727938 -0.0040645795 0.008786279 -0.03510934 -0.0007668462 0.01933173
00000000: c845 8d3c 1526 edbc 12ca fe3b 89ac a33a
00000010: e6c6 10bd d82d 48bc edfa 20bc 2427 f63b
00000020: eb9e bc3a 903c 9bbc 1a76 17bb 69b2 b9bc
00000030: 064c 353d 695d 2dbd 4ad4 cc3b 1367 243c
00000040: 6b58 3a3c 19b5 9fbb 1f98 b1bc ab8d d0ba
00000050: 8dff bd3c f8ed 1cbd ef3f 6fbb 7ce4 b4bc
00000060: fa48 6ebc 3c08 d63c 0860 05bc fe9f cdbc
00000070: 1d6a d1ba 4eaa bebc 2005 4bbc b9f1 ca3c
00000080: 141a d5bb c949 12bc 55bb a83a 03a5 853c
00000090: 0a43 35bd eb5c 68bc cc3d 98bb 6920 303c
000000a0: 0927 4bba 3325 dbbc 42ff 353c 8ef5 45bd
000000b0: 11c5 c3bc 49c7 973c c36e 073b 3588 7f3b
000000c0: 4062 823c 352e e53c e3ac 0dbb 16a6 33bd
000000d0: b760 10bc dc55 b43c e590 a03b 75a1 6f3b
000000e0: b1df 8ebc a30a 4cbb edb9 b83b 37f9 42bb
000000f0: dd6f f33c fd54 483b 169a b13c 9be6 133c
00000100: 580b 013c 645f 98b9 b88b 84ba 3175 bc3b
00000110: adf5 febc 4d12 37bc eefa 94bc dbd4 4b3c
00000120: 5a78 5dbc df3f 31bc f433 333c 2d6b cb3b
00000130: 58ba 88bc 2632 35bc 2852 89bc d901 1fbd
00000140: 516a 73bd f89b 06bd 5516 95bc a115 b2bb
00000150: 482d a73c 072b 33bd 8fe2 90bc b2a4 013c
00000160: b0a7 85bc 0063 53bd 0a11 363c e5fb e8bc
00000170: df36 b43b 148b 5f3c a241 4d3b 9165 8ebc
00000180: 0b98 7f3c 95ba dbbc 370c 88bc 4b17 92bc
00000190: ac39 47bd 6476 29bb e201 fa3a a132 b6bc
000001a0: 09d1 50bd 180a 6c3b 74f4 bd3b b40e 58bd
000001b0: 9842 4e3b 14c2 fc3b 02d1 5abc 7f13 01bd
000001c0: e311 c73b 5318 1b3b 5369 31bd aa58 843c
000001d0: 97fd b7bb 5435 80bd 5d8c af3c 58c5 5fbc
000001e0: c07d 34bb 2a9e 40bd 06a8 41bd 2a30 85bb
000001f0: 53f4 0f3c d0ce 0fbd 2d06 49ba 945d 9e3c

decoder.0.weight f4 [128, 64, 3, 3]
0.024145612 0.029904623 -0.03307734 0.021695415 -0.003218962 0.027961548 0.006705555 0.03336891
-0.008397008 -0.00021348993 0.0018073517 0.026523411 0.02756856 -0.0013344913 -0.038238473 0.033898007
0.03344398 0.019076584 0.029088328 0.035365604 0.007563429 -0.033030555 -0.027243583 -0.040563557
0.02293665 0.008361862 -0.011014505 -0.02757072 -0.045440868 -0.028320065 -0.0003751198 -0.020990064
0.0037898005 -0.043761358 0.0013020854 -0.017588647 0.004281923 -0.015269748 0.038434308 -0.011156689
0.017329564 0.023168333 0.010108293 0.0071936846 0.024313977 -0.03420736 -0.045934968 -0.037678577
0.0049104076 0.020942612 0.029397966 0.0346767 0.029742062 -0.02369302 -0.033841994 0.0040985923
0.012755986 -0.023269769 -0.004808464 0.017455153 0.028571427 -0.0004789098 -0.042948212 0.02127576
0.0071772723 -0.037506662 -0.03891438 0.027207108 0.017486041 0.025657924 0.014456295 0.0005747908
-0.03262197 -0.032846287 -0.03474408 0.027806265 0.0176429 0.01567418 0.017674856 0.017389126
0.021509657 0.001088589 -0.019979864 -0.0078093777 0.0022248996 0.030922621 -0.0003903626 -0.024037613
-0.009900916 0.0039035014 -0.022321472 -0.026821237 -0.0119020045 0.000441659 -0.052712977 -0.05091926
-0.023554856 -0.02474556 -0.031162992 -0.033340506 0.024312004 0.029557193 -0.017311791 -0.0046554958
0.03852584 0.01811406 -0.022366043 -0.024900626 -0.03651946 -0.03874712 0.038405303 -0.03097606
-0.013251819 0.039857864 -0.004293463 0.009571729 -0.008775757 -0.004265072 0.012714758 -0.041524615
-0.015964996 -0.015069959 -0.0078470595 -0.0420312 0.0018869509 0.007029515 -0.014308893 0.028174495
-0.007022845 0.01591775 0.00723015 0.017091207 -0.03537421 -0.008621074 0.0014028946 -0.005280603
-0.03835526 -0.040807936 -0.032757968 0.00052493345 0.022579258 -0.017982827 -0.0029125218 -0.0031491828
0.011612409 -0.040550783 0.02732435 -0.009897634 -0.045707755 -0.042191412 -0.011014949 -0.008985443
0.0015545603 0.029310768 -0.04241985 -0.022904202 0.027705256 -0.016121149 -0.011032742 -0.04503373
0.020909563 -0.022169158 -0.0030066443 0.024751317 -0.015632564 -0.0006796294 0.02521546 0.03431811
-0.02834222 0.0021056829 -0.013483022 0.01480549 0.026345806 0.018938886 -0.020497581 0.040840194
0.03866356 -0.010609229 0.022464583 -0.020329328 0.079758905 0.0982989 0.08942 0.079849206
0.070781045 0.07396369 0.044312824 0.050704453 0.123095885 0.03403321 -0.023454187 0.011772784
-0.037375923 -7.013212e-06 0.020293757 -0.030901685 -0.012942244 0.008864731 0.015640887 0.0327204
-0.014543395 0.016049044 0.0071436972 -0.004141079 0.039269295 -0.034725662 0.006184317 0.016826378
0.029116072 -0.023194803 -0.009228173 -0.037436787 -0.03657221 0.016833384 0.030680144 0.00650117
0.0041086315 -0.026339164 -0.012500059 0.00041452207 0.040930107 0.0049427133 -0.0340716 0.042672038
0.020581162 0.018409172 0.0035109816 0.028780168 0.022928182 -0.039979845 -0.029100724 -0.01654137
0.004199664 -0.0026738243 0.020663617 0.00019578656 0.03002453 -0.013353412 -0.029081259 -0.015126519
-0.045623288 0.031116301 -0.046608448 -0.007419296 -0.028661292 0.0236676 0.016850688 -0.029336102
0.019359767 0.03099197 -0.007462089 -0.025500646 0.0141523015 -0.017506244 -0.016492628 0.024050975
00000000: 05cd c53c 8afa f43c 1b7c 07bd 95ba b13c
00000010: 39f5 52bb 9e0f e53c 46ba db3b d7ad 083d
00000020: 9b93 09bc 44dc 5fb9 a9e4 ec3a a047 d93c
00000030: 76d7 e13c 19ea aeba f29f 1cbd a3d8 0a3d
00000040: 8efc 083d 7f46 9c3c a54a ee3c 86db 103d
00000050: a4d6 f73b 0c4b 07bd ef2d dfbc f925 26bd
00000060: a4e5 bb3c 3100 093c 2f76 34bc fedb e1bc
00000070: 3420 3abd 7bff e7bc baab c4b9 5bf3 abbc
00000080: 4d5e 783b 1c3f 33bd bcaa aa3a 1116 90bc
00000090: 604f 8c3b f72d 7abc 4b6d 1d3d 8cca 36bc
000000a0: bbf6 8d3c 84cb bd3c 419d 253c 00b9 eb3b
000000b0: 1b2e c73c 041d 0cbd 4e26 3cbd da54 1abd
000000c0: 7ce7 a03b d78f ab3c 01d4 f03c 2809 0e3d
000000d0: a0a5 f33c dd17 c2bc e79d 0abd 7c4d 863b
000000e0: 7cfe 503c 3ea0 bebc 5290 9dbb 1cfe 8e3c
000000f0: a00e ea3c 2f16 fbb9 77ea 2fbd 814a ae3c
00000100: 532f eb3b 96a0 19bd af64 1fbd 71e1 de3c
00000110: e33e 8f3c 9130 d23c 19da 6c3c 8fad 163a
00000120: 9d9e 05bd d489 06bd cf4f 0ebd f7c9 e33c
00000130: d887 903c 2367 803c dcca 903c a473 8e3c
00000140: 0535 b03c fcae 8e3a d0ac a3bc cfe5 ffbb
00000150: 9fcf 113b 7051 fd3c 95a9 ccb9 87ea c4bc
00000160: 7437 22bc e3d1 7f3b 85db b6bc 36b8 dbbc
00000170: a000 43bc 788e e739 90e9 57bd b790 50bd
00000180: 1df6 c0bc 33b7 cabc 8849 ffbc 0e90 08bd
00000190: f829 c73c ed21 f23c 75d1 8dbc 218d 98bb
000001a0: 45cd 1d3d f063 943c fe38 b7bc 66fc cbbc
000001b0: 6e95 15bd 4db5 1ebd e14e 1d3d 82c1 fdbc
000001c0: 281e 59bc 0042 233d 2eb0 8cbb bed2 1c3c
000001d0: 31c8 0fbc 04c2 8bbb 8f51 503c b715 2abd
000001e0: 06c9 82bc fde7 76bc f490 00bc e828 2cbd
000001f0: 9153 f73a d957 e63b d96f 6abc 33ce e63c
00000200: e51f e6bb f165 823c e5ea ec3b dc02 8c3c
00000210: 8ce4 10bd 683f 0dbc 55e1 b73a e908 adbb
00000220: 681a 1dbd 3926 27bd 382d 06bd b09b 093a
00000230: 23f8 b83c b950 93bc 02e0 3ebb 8562 4ebb
00000240: f941 3e3c 9418 26bd 51d7 df3c b029 22bc
00000250: 0e38 3bbd e7d0 2cbd 0b78 34bc ae37 13bc
00000260: 63c2 cb3a 231d f03c 70c0 2dbd 98a1 bbbc
00000270: 22f6 e23c 8010 84bc adc2 34bc 4a75 38bd
00000280: 884a ab3c 189c b5bc 1f0b 45bb 46c3 ca3c
00000290: dd0f 80bc 2829 32ba a790 ce3c 2691 0c3d
000002a0: f12d e8bc 7fff 093b e5e7 5cbc ba92 723c
000002b0: 29d3 d73c b925 9b3c 8bea a7bc 0c48 273d
000002c0: ae5d 1e3d 55d2 2dbc a507 b83c b189 a6bc
000002d0: a358 a33d ef50 c93d d521 b73d fb87 a33d
000002e0: a7f5 903d 467a 973d 5d81 353d 79af 4f3d
000002f0: b219 fc3d 6866 0b3d ff22 c0bc a3e2 403c
00000300: 7f17 19bd 0853 ebb6 183f a63c 8825 fdbc
00000310: b50b 54bc 603d 113c 5121 803c d305 063d
00000320: 6b47 6ebc 4979 833c ad15 ea3b e3b1 87bb
00000330: d7d8 203d 7f3c 0ebd d0a5 ca3b 79d7 893c
00000340: d484 ee3c 0703 bebc c331 17bc 5157 19bd
00000350: becc 15bd 2ae6 893c ed54 fb3c c407 d53b
00000360: b3a1 863b 3bc5 d7bc 0ccd 4cbc 3654 d939
00000370: 54a6 273d 7cf6 a13b a98e 0bbd e0c8 2e3d
00000380: d399 a83c d5ce 963c 7f18 663b 63c4 eb3c
00000390: e2d3 bb3c e8c1 23bd a464 eebc c481 87bc
000003a0: 569d 893b 543b 2fbb bf46 a93c 0e4c 4d39
000003b0: 01f6 f53c 45c8 5abc d23b eebc 38d5 77bc
000003c0: 7cdf 3abd 9de7 fe3c 80e8 3ebd 911d f3bb
000003d0: 16cb eabc 8ee2 c13c 740a 8a3c 4452 f0bc
000003e0: 6098 9e3c dfe2 fd3c 8a84 f4bb bbe6 d0bc
000003f0: 0edf 673c 4169 8fbc 8c1b 87bc 8d06 c53c

decoder.0.bias f4 [64]
0.011342459 -0.0074852193 0.051718187 0.009244918 0.022227403 -0.026940648 0.007485653 0.023031864
0.014652239 -0.04653744 0.012342667 -0.026477871 0.019210918 0.027331445 0.009122975 0.026215136
0.030350933 -0.0071337596 0.0291976 0.0018602678 0.04271867 0.0070812097 -0.008583264 0.01991031
-0.0062183887 -0.042412546 -0.005116156 0.001175653 0.015367703 0.027151745 -0.03466715 -0.0123015735
-0.013930305 0.004891521 -0.0011670373 -0.045732398 -0.008740681 0.0023863462 -0.0011675581 0.012099694
0.010992149 0.0028425476 0.0026659665 0.0033875238 0.0022860114 -0.003414752 -0.0007642589 -0.01178025
-0.044192977 0.013332796 0.02314711 0.022316372 0.010722313 -0.00341223 0.017723003 0.018661203
0.014744746 0.023939738 0.015210152 0.0046929116 0.026896412 -0.034765355 -0.011787546 0.029511468
00000000: b9d5 393c 9246 f5bb 73d6 533d ff77 173c
00000010: 3e16 b63c a2b2 dcbc 354a f53b 52ad bc3c
00000020: f20f 703c 0b9e 3ebd e638 4a3c 1fe8 d8bc
00000030: 3760 9d3c 32e6 df3c 8878 153c 20c1 d63c
00000040: 85a2 f83c 50c2 e9bb ce2f ef3c 3bd4 f33a
00000050: c6f9 2e3d 7e09 e83b d2a0 0cbc f21a a33c
00000060: a0c3 cbbb c7b8 2dbd 6da5 a7bb 5e18 9a3a
00000070: d1c8 7b3c 566d de3c 24ff 0dbd 8a8c 49bc
00000080: ef3b 64bc 0d49 a03b 46f7 98ba e551 3bbd
00000090: 1335 0fbc 3f64 1c3b c008 99ba cc3d 463c
000000a0: 6a18 343c 094a 3a3b 7fb7 2e3b 3801 5e3b
000000b0: e8d0 153b 08ca 5fbb 8c58 48ba f301 41bc
000000c0: b203 35bd cd71 5a3c 029f bd3c d3d0 b63c
000000d0: a4ac 2f3c b89f 5fbb d52f 913c 61df 983c
000000e0: f293 713c 451d c43c 0034 793c ffc6 993b
000000f0: dd55 dc3c 1e66 0ebd 8d20 41bc 09c2 f13c

decoder.3.weight f4 [64, 32, 3, 3]
-0.047301725 0.03947494 0.047852222 -0.038473222 0.0067592612 0.052442655 0.050531875 -0.019172074
0.042668078 -0.0148096075 0.014452786 0.0138646485 0.0102529675 0.05302919 0.022054482 -0.01253189
0.04904652 0.058065157 -0.032349657 -0.019687062 -0.03136761 -0.039813973 0.01320495 0.04370856
0.043181118 -0.047266576 0.044229794 0.004411258 -0.042216975 -0.01676098 -0.028006118 0.09399999
0.0141471075 -0.0109119825 0.06857711 -0.08105394 -0.11573126 0.11946361 -0.042255204 -0.2110922
0.18815435 -0.045348477 -0.13415174 0.24130741 -0.12617993 -0.035530675 0.012532529 0.041611765
0.01734629 -0.012260221 -0.028014764 -0.024335934 0.045637414 0.013270738 0.025219562 -0.048151597
0.04578556 0.05705661 0.06252686 -0.025773719 0.052203722 0.0096870735 -0.004514128 -0.053006563
-0.04149986 -0.05873495 0.047444943 -0.019331992 -0.014203732 -0.0014993412 -0.022543307 -0.0021370088
0.0048131356 -0.022653637 0.041952107 -0.023202855 -0.03588671 0.021909313 0.007620645 -0.003210857
-0.04345564 -0.0021614488 0.051076073 0.028625757 0.031715255 0.061936773 -0.028729884 -0.0014083436
0.046800435 -0.03619187 -0.0078054555 -0.045097988 0.028685097 0.042986207 -0.013747733 -0.062185995
-0.032444496 -0.042133387 -0.027849436 0.000920113 0.027043646 0.040954754 -0.01289951 -0.0011072642
0.04158321 -0.032657403 0.05073191 -0.046015274 0.031076739 0.012258093 0.04324378 -0.003630507
-0.018026736 0.012056405 -0.058681868 0.037522756 -0.060478423 -0.051919777 0.014367537 -0.042416766
-0.048077825 0.029729651 -0.06787397 -0.00967663 0.04759493 0.006751898 -0.049661614 0.06111597
-0.058169894 -0.120353095 0.045224115 -0.0011294573 -0.060016952 -0.08487059 0.101347886 -0.00034388373
0.03955413 0.025969785 -0.04268136 -0.035545588 -0.0464844 -0.015988946 -0.023807196 -0.020310221
-0.01185087 -0.031323735 0.061740372 -0.0448705 -0.025738757 0.040893912 -0.04951446 -0.043281138
-0.029355574 0.024992734 -0.016386041 0.017291343 -0.037787635 -0.034570146 0.034655996 0.00042537885
0.034828614 0.045359664 -0.01764895 0.051262 -0.024507614 0.027794572 -0.049797777 -0.05308274
-0.05927866 0.03758327 0.0032502124 -0.03844789 0.051728398 0.012171326 0.03619521 0.084913746
0.08001212 0.04925608 0.0069145877 -0.018238742 0.01823851 -0.0071912943 -0.02967642 -0.006447556
-0.014152458 -0.023731826 0.034723762 -0.049219053 0.014756084 0.023360988 0.05225852 0.033027798
0.023841755 0.049698792 0.0409694 0.036508374 0.025538262 0.018823372 0.006069767 -0.026855784
-0.0335726 -0.016218742 -0.048944384 -0.017025718 -0.06274846 0.013626182 -0.04714916 0.089705184
0.06539116 -0.002973121 0.1893092 -0.060485747 -0.0043475027 0.17122674 0.11395571 0.03077982
-0.113223806 0.1122681 0.09041194 -0.14831781 0.267521 0.13234372 -0.15898483 0.11882216
-0.08540633 -0.03347585 -0.017569974 0.04565198 -0.054269563 -0.05758143 -0.031043788 0.0203294
0.035343684 -0.0016093048 -0.005703108 -0.022691034 -0.022307493 0.020098364 0.009058796 -0.040725496
-0.049802035 0.016549794 0.0022673435 0.041224778 0.0007654719 0.028454915 0.048020575 0.041897133
0.012301104 -0.059086733 -0.02701737 -0.0016799782 0.05283061 0.29610345 0.30481663 0.11037466
00000000: 74bf 41bd 7ab0 213d b100 443d 1996 1dbd
00000010: cb7c dd3b 1cce 563d 83fa 4e3d c10e 9dbc
00000020: b9c4 2e3d ffa3 72bc 61cb 6c3c 8d28 633c
00000030: 10fc 273c 2335 593d 9aab b43c 8e52 4dbc
00000040: 01e5 483d bbd5 6d3d 1381 04bd c346 a1bc
00000050: 537b 00bd fa13 23bd 9359 583c bf07 333d
00000060: afde 303d 999a 41bd 4d2a 353d 508c 903b
00000070: b5eb 2cbd 534e 89bc 166d e5bc 1183 c03d
00000080: 45c9 673c 2cc8 32bc 2872 8c3d 9cff a5bd
00000090: 8304 edbd 56a9 f43d cb13 2dbd 8e28 58be
000000a0: 89ab 403e 53bf 39bd 135f 09be 4a19 773e
000000b0: 5035 01be 9d88 11bd 3d55 4d3c 1971 2a3d
000000c0: cf19 8e3c 18df 48bc 387f e5bc 275c c7bc
000000d0: 4cee 3a3d 826d 593c 4199 ce3c 9c3a 45bd
000000e0: a489 3b3d 31b4 693d 150e 803d 6823 d3bc
000000f0: 92d3 553d 88b6 1e3c 40eb 93bb 691d 59bd
00000100: c2fb 29bd 0f94 70bd a155 423d 205e 9ebc
00000110: c5b6 68bc 8b85 c4ba beac b8bc 0f0d 0cbb
00000120: 82b7 9d3b 1f94 b9bc f9d5 2b3d ea13 bebc
00000130: f1fd 12bd 297b b33c 9bb6 f93b 3e6d 52bb
00000140: 8bfe 31bd 18a7 0dbb 2535 513d 9080 ea3c
00000150: dbe7 013d 6ab1 7d3d ef5a ebbc 2b98 b8ba
00000160: d0b1 3f3d ed3d 14bd e8c4 ffbb abb8 38bd
00000170: 02fd ea3c 4e12 303d 2c3e 61bc beb6 7ebd
00000180: 85e4 04bd 0f94 2cbd 8024 e4bc bd33 713a
00000190: a38a dd3c 2cc0 273d 7758 53bc 9f21 91ba
000001a0: 2853 2a3d c5c3 05bd 43cc 4f3d 837a 3cbd
000001b0: a594 fe3c 2bd6 483c 6420 313d cded 6dbb
000001c0: ceac 93bc 3a88 453c 665c 70bd 76b1 193d
000001d0: 39b8 77bd d5a9 54bd d165 6b3c 34bd 2dbd
000001e0: 41ed 44bd 998b f33c 8201 8bbd ba8a 1ebc
000001f0: e7f2 423d 073f dd3b fa69 4bbd bd54 7a3d
00000200: 8e43 6ebd af7b f6bd ec3c 393d 4c0a 94ba
00000210: 56d4 75bd a2d0 adbd 7b8f cf3d 4b4b b4b9
00000220: 8303 223d 96be d43c a6d2 2ebd 4098 11bd
00000230: 6d66 3ebd 40fb 82bc 4f07 c3bc 9f61 a6bc
00000240: 272a 42bc 514d 00bd 79e3 7c3d 21ca 37bd
00000250: 16da d2bc 6080 273d adcf 4abd 9047 31bd
00000260: 1a7b f0bc 90bd cc3c 053c 86bc 93a6 8d3c
00000270: 35c7 1abd 6d99 0dbd 72f3 0d3d 6205 df39
00000280: 73a8 0e3d 0ecb 393d 8894 90bc 1af8 513d
00000290: 31c4 c8bc 71b1 e33c c1f8 4bbd 4a6d 59bd
000002a0: 2ece 72bd eaf0 193d 8401 553b 897b 1dbd
000002b0: 28e1 533d 3e6a 473c 6e41 143d 42e7 ad3d
000002c0: 65dd a33d bec0 493d c493 e23b 6a69 95bc
000002d0: ed68 953c f3a4 ebbb f71b f3bc 0546 d3bb
000002e0: b6df 67bc 3f69 c2bc 813a 0e3d eb99 49bd
000002f0: 81c3 713c 8b5f bf3c 080d 563d 2848 073d
00000300: c94f c33c f690 4b3d 88cf 273d ce89 153d
00000310: 9e35 d13c 7933 9a3c e5e4 c63b a900 dcbc
00000320: 6c83 09bd 2bdd 84bc e879 48bd 8579 8bbc
00000330: 4482 80bd 5a40 5f3c 7a1f 41bd 5ab7 b73d
00000340: cdeb 853d b1d8 42bb 45da 413e e7bf 77bd
00000350: 7f75 8ebb 1056 2f3e 9c61 e93d f625 fc3c
00000360: e2e1 e7bd d1ec e53d e529 b93d a0e0 17be
00000370: 83f8 883e 1d85 073e ebcc 22be 0859 f33d
00000380: 84e9 aebd f91d 09bd e8ee 8fbc 92fd 3a3d
00000390: c349 5ebd 81da 6bbd 8b4f febc d889 a63c
000003a0: 8ac4 103d 4fef d2ba 23e1 babb 8ce2 b9bc
000003b0: 34be b6bc 53a5 a43c 586b 143c c7cf 26bd
000003c0: 38fd 4bbd 6f93 873c b697 143b 50db 283d
000003d0: f3a9 483a 481a e93c 39b1 443d 549c 2b3d
000003e0: 928a 493c ee04 72bd 8853 ddbc b732 dcba
000003f0: e964 583d df9a 973e ed10 9c3e 1c0c e23d

decoder.3.bias f4 [32]
0.033727866 0.026630599 0.0312934 0.050195623 0.05515341 0.06354025 0.042681716 -0.03331246
0.036482766 0.015614402 0.060036935 0.034011148 0.050933994 0.0065532513 0.026926331 0.053869367
0.036425486 0.032770436 0.02801839 0.04499817 0.054696426 0.072853476 0.031312063 0.07839442
0.033769596 0.04490442 0.04200556 -0.026619101 0.056356348 -0.010760108 0.04141686 0.07194884
00000000: 3b26 0a3d 6a28 da3c 822d 003d ed99 4d3d
00000010: 8be8 613d 6421 823d 06d3 2e3d a572 08bd
00000020: f46e 153d 8cd3 7f3c 4ae9 753d 464f 0b3d
00000030: 2aa0 503d a8bc d63b 9c94 dc3c 20a6 5c3d
00000040: e432 153d 4b3a 063d d386 e53c 0050 383d
00000050: 5c09 603d 3434 953d 1441 003d 418d a03d
00000060: fd51 0a3d b2ed 373d 060e 2c3d 4d10 dabc
00000070: ead5 663d 2a4b 30bc baa4 293d ea59 933d

decoder.6.weight f4 [32, 3, 3, 3]
-0.0053117773 0.012602053 0.076739416 0.07342454 0.08664046 -0.038508415 0.0937471 -0.112016894
-0.15463273 -0.07189834 -0.11135409 -0.067975976 0.13167803 -0.093612604 0.22134584 0.14804879
-0.05350691 0.060313996 0.012734254 -0.057984456 -0.049353056 -0.10725507 0.2261733 0.12424028
0.23047817 0.08834389 0.058880094 0.104829885 0.11771346 0.16115804 0.16174443 0.17794022
0.11249722 -0.058186192 -0.091644 -0.10436418 0.13708584 0.0545647 0.19007204 -0.15111789
0.18498515 -0.045983974 0.051592488 -0.025634455 -0.111467876 0.11999475 -0.16215682 0.14869042
0.008861957 -0.110742696 -0.058330677 0.049991988 0.16641818 -0.01834273 -0.15436229 0.022911211
0.0025431719 0.11722056 0.04844366 -0.047964837 0.03807256 0.1751163 0.18030526 -0.16242948
0.16015492 -0.070050344 0.08438252 -0.045801997 0.19714713 0.1699685 -0.044546142 0.07060409
-0.07032578 -0.17163262 0.10521174 0.012434361 -0.052315604 0.18302833 0.0064212186 0.16917709
0.023838803 -0.07882603 0.14756238 0.017347515 -0.12332114 -0.02953495 0.05726194 0.062171176
-0.062760234 0.10057291 0.101080924 0.13721168 0.03654413 -0.10289687 0.20103349 -0.13180912
0.037901934 -0.10435153 0.040697306 0.17580695 0.10511617 0.13153586 -0.06656219 -0.034161568
-0.049401887 0.15527192 0.07836767 -0.054520264 -0.036112923 0.17001118 -0.014959579 -0.13756934
0.16147879 0.1992115 0.031960543 0.15923181 -0.06705321 -0.069487795 0.122435905 0.03836071
0.009826745 -0.023926921 -0.072550856 -0.05045989 0.20351057 0.21122813 -0.117663026 0.21286309
-0.15157121 0.083870225 0.08598605 0.10460381 0.048587877 -0.065418 0.11618861 -0.043794528
-0.0100904945 0.16292986 -0.07026419 0.022224275 -0.10343961 0.14446247 -0.097583644 0.16921575
-0.080988735 0.19973369 0.04848898 -0.079075195 -0.06613845 0.086815 -0.085542366 0.07163263
0.17212237 -0.008153239 0.0053591817 0.1615145 0.06118614 0.15767498 0.090964094 -0.008871107
-0.13825455 0.04619683 -0.13849553 0.12725255 -0.028883966 0.09913536 0.02197371 0.09358234
-0.0624824 0.18450171 0.08932995 0.17540379 -0.05661676 0.05140979 0.1057037 -0.08223385
0.12788281 -0.023008442 0.14749952 -0.113037825 -0.022289777 0.007944912 0.17109802 0.13264832
0.042241845 0.06250177 -0.037502155 -0.010489726 0.07345256 0.038754486 -0.07499224 -0.10347245
0.10122908 -0.05723416 -0.088383876 -0.17674893 -0.09043137 -0.15902017 0.14266494 0.058130264
-0.076537535 -0.0694284 0.066944055 0.015697183 0.0824753 -0.13004747 -0.049567986 0.12205197
-0.09730425 0.15503559 0.015355115 -0.14503515 -0.120772064 0.12876005 0.027878806 0.1441688
-0.022042468 -0.013526142 0.057770588 0.23004054 -0.12637247 -0.019959463 -0.09798056 0.038820796
-0.019124355 -0.030818092 0.12806448 -0.05157175 0.16958123 -0.03837554 -0.0657141 -0.062391374
0.123670466 -0.025543805 -0.013763444 -0.103420354 0.07514179 0.0810823 0.21252356 0.04467172
0.14825806 0.17455772 -0.18417953 0.11499023 -0.12026913 0.059541732 -0.15320364 0.0182369
-0.0077036554 0.003360738 -0.0054534264 -0.039188344 0.10406427 0.17364283 0.14358418 -0.008337265
00000000: 6b0e aebb d778 4e3c 8e29 9d3d 9b5f 963d
00000010: 8e70 b13d 00bb 1dbd 7bfe bf3d 1d69 e5bd
00000020: 0b58 1ebe 703f 93bd 9d0d e4bd fd36 8bbd
00000030: 9bd6 063e f7b7 bfbd 7ca8 623e 1a9a 173e
00000040: 102a 5bbd cf0b 773d 55a3 503c 1c81 6dbd
00000050: 6e26 4abd 8ca8 dbbd f999 673e b071 fe3d
00000060: 7802 6c3e a4ed b43d 412c 713d 0db1 d63d
00000070: c113 f13d 9d06 253e 55a0 253e f635 363e
00000080: f164 e63d a554 6ebd d9af bbbd e3bc d5bd
00000090: 3b60 0c3e 3c7f 5f3d 3fa2 423e a6be 1abe
000000a0: bf6c 3d3e b159 3cbd a552 533d 59ff d1bc
000000b0: 4549 e4bd cfbf f53d 700c 26be 4d42 183e
000000c0: be31 113c 11cd e2bd 26ec 6ebd 66c4 4c3d
000000d0: 8769 2a3e 7e43 96bc 2611 1ebe 4bb0 bb3c
000000e0: 58ab 263b 5511 f03d dc6c 463d c776 44bd
000000f0: f9f1 1b3d b051 333e f1a1 383e ea53 26be
00000100: a7ff 233e 8e76 8fbd bed0 ac3d e09a 3bbd
00000110: f0e0 493e 390c 2e3e 0476 36bd e198 903d
00000120: f606 90bd 76c0 2fbe 4179 d73d 7db9 4b3c
00000130: e348 56bd c76b 3b3e 1669 d23b c23c 2d3e
00000140: 9849 c33c 8b6f a1bd 981a 173e 601c 8e3c
00000150: cb8f fcbd 48f3 f1bc 7f8b 6a3d 34a7 7e3d
00000160: 7088 80bd 2bf9 cd3d 8403 cf3d 3881 0c3e
00000170: 4caf 153d 98bb d2bd b9db 4d3e f8f8 06be
00000180: 0f3f 1b3d 41b6 d5bd 38b2 263d bd06 343e
00000190: 2647 d73d 56b1 063e c251 88bd 00ed 0bbd
000001a0: a259 4abd 9aff 1e3e 3b7f a03d a450 5fbd
000001b0: 25eb 13bd 6917 2e3e 0619 75bc fade 0cbe
000001c0: b25a 253e 19fe 4b3e 0fe9 023d aa0d 233e
000001d0: 3253 89bd 9e4f 8ebd adbf fa3d 1f20 1d3d
000001e0: 5b00 213c 6402 c4bc 8b95 94bd 08af 4ebd
000001f0: 1365 503e 304c 583e 50f9 f0bd c8f8 593e
00000200: 7c35 1bbe 27c4 ab3d 7419 b03d 863a d63d
00000210: 1504 473d dff9 85bd 4bf4 ed3d e461 33bd
00000220: 9a52 25bc 16d7 263e ace6 8fbd af0f b63c
00000230: 25d8 d3bd f8ed 133e efd9 c7bd e546 2d3e
00000240: 6cdd a5bd fd86 4c3e 619c 463d 2df2 a1bd
00000250: 9873 87bd 10cc b13d d630 afbd 21b4 923d
00000260: d940 303e 2a95 05bc 139c af3b 0f64 253e
00000270: 519e 7a3d 8d75 213e 624b ba3d 1f58 11bc
00000280: 9a92 0dbe e338 3d3d c6d1 0dbe 7e4e 023e
00000290: 119e ecbc 7b07 cb3d 3602 b43c 19a8 bf3d
000002a0: 8ced 7fbd 04ee 3c3e 9ff2 b63d 0d9d 333e
000002b0: fae6 67bd 1293 523d 2e7b d83d 396a a8bd
000002c0: b6f3 023e 337c bcbc 1d0a 173e 6080 e7bd
000002d0: 0d99 b6bc 602b 023c 5234 2f3e f6d4 073e
000002e0: c905 2d3d ee00 803d dc9b 19bd 1add 2bbc
000002f0: 4c6e 963d 06bd 1e3d 8895 99bd 5de9 d3bd
00000300: 3151 cf3d 5e6e 6abd 9b02 b5bd acfd 34be
00000310: 1534 b9bd 2fd6 22be c216 123e 001a 6e3d
00000320: b6bf 9cbd 7a30 8ebd f719 893d 6197 803c
00000330: cfe8 a83d 2a2b 05be cd07 4bbd 62f6 f93d
00000340: 7347 c7bd a6c1 1e3e 0594 7b3c 1884 14be
00000350: 5857 f7bd add9 033e 1862 e43c fca0 133e
00000360: 6892 b4bc c09c 5dbc daa0 6c3d bf8f 6b3e
00000370: c967 01be 0782 a3bc 08aa c8bd 8e02 1f3d
00000380: aeaa 9cbc 3976 fcbc 5623 033e e63c 53bd
00000390: b4a6 2d3e ac2f 1dbd 1d95 86bd 198e 7fbd
000003a0: f146 fd3d 3e41 d1bc 1180 61bc 0dce d3bd
000003b0: f0e3 993d 7a0e a63d c79f 593e b2f9 363d
000003c0: f6d0 173e 42bf 323e 8f99 3cbe ff7f eb3d
000003d0: a94f f6bd 08e2 733d 6ae1 1cbe 8d65 953c
000003e0: f26e fcbb d43f 5c3b a8b2 b2bb f583 20bd
000003f0: a61f d53d 6dcf 313e bb07 133e 0699 08bc

decoder.6.bias f4 [3]
0.18540138 0.18899968 0.12324036
00000000: dcd9 3d3e 2289 413e 7165 fc3d
