Weights/p1/AutoEncoder_CNN_denoising_PA3_24100238.pth (torch, 117538 bytes, 11 tensors)

encoder.0.weight f4 [8, 1, 3, 3]
0	0x3e936ad5	0.28792444
1	0x3f0f9021	0.560793
2	0x3ea02eeb	0.31285796
3	0x3ef78efb	0.48351273
4	0x3f0f81c7	0.560574
5	0x3e7f12c8	0.24909508
6	0xbd64140d	-0.055683184
7	0x3e17934e	0.14802286
8	0x3e00b7a4	0.12570053
9	0x3e844a8a	0.2583812
10	0x3e5e60b1	0.21716572
11	0xbe277b4e	-0.16355631
12	0x3ec26d1a	0.37973863
13	0x3f0698e9	0.5257707
14	0xbe1dda3a	-0.15415278
15	0x3e99e164	0.30054772
16	0x3efd1bbb	0.4943522
17	0x3ea8e81d	0.32989588
18	0x3ebf096e	0.37311882
19	0x3e283e9a	0.1643013
20	0xbcb0d7f3	-0.021587348
21	0x3e8f0906	0.27936572
22	0x3f13d936	0.5775331
23	0x3ebd8234	0.370134
24	0x3df908a3	0.121598504
25	0xbdf8896f	-0.121355884
26	0x3e372257	0.17884193
27	0x3e8ae268	0.2712586
28	0x3cc50a2d	0.024052704
29	0xbd70f6f7	-0.058829274
30	0x3de63bef	0.112419
31	0x3f2b0a9c	0.66813064
32	0x3e819f05	0.25316635
33	0x3ebded9a	0.37095338
34	0x3ed3f577	0.41398212
35	0x3ef09e02	0.4699555
36	0x3c98b34b	0.018640181
37	0xbd561322	-0.05226434
38	0xbea08ab4	-0.31355822
39	0x3da6eed9	0.08151025
40	0xbe82d6da	-0.25554544
41	0x3daa9887	0.083298735
42	0x3e0864b0	0.13319659
43	0xbe62c825	-0.22146662
44	0xbe96de7c	-0.29466617
45	0x3a50bd5b	0.00079627865
46	0xbe4e342b	-0.20137088
47	0x3d8fdd2e	0.070246086
48	0x3e1fac87	0.15593158
49	0xbc0f5d73	-0.008750307
50	0xbe27569c	-0.16341633
51	0xbe516103	-0.20447163
52	0x3eace95b	0.33771786
53	0xbe778dfd	-0.24175258
54	0xbe0c64a3	-0.13710265
55	0x3d833b98	0.06407851
56	0x3d651a0c	0.055933043
57	0x3eddaf83	0.43297967
58	0x3ebc3e6e	0.3676638
59	0x3ed445ec	0.41459596
60	0x3e173ce4	0.14769322
61	0x3f01258f	0.50447935
62	0x3edd32db	0.43202862
63	0x3d35c33f	0.044375654
64	0x3eae13ea	0.33999568
65	0xbd3ce622	-0.04611791
66	0xbd841d8c	-0.06450948
67	0x3ec40ed7	0.38292572
68	0x3f1db815	0.6160901
69	0x3e281607	0.16414653
70	0x3f0ede3d	0.5580786
71	0x3e2a303c	0.16619962

encoder.0.bias f4 [8]
0	0x3ebb5762	0.36590105
1	0x37770c0e	1.4725154e-05
2	0x3ed07e7a	0.40721494
3	0x3d960000	0.07324219
4	0x3e5ae096	0.21374735
5	0x3e8ff808	0.2811892
6	0x3d03b0d3	0.032151055
7	0x3844422b	4.6791665e-05

encoder.2.weight f4 [16, 8, 3, 3]
0	0x3cd8faf8	0.026486859
1	0x3e095ebb	0.13415043
2	0xbdd55180	-0.104159355
3	0x3e991dcb	0.29905543
4	0x3e2cd5f2	0.16878489
5	0x3dd50014	0.104004055
6	0x3e0da2c8	0.13831627
7	0x3ca51392	0.020150933
8	0xbe1fbe80	-0.15600014
9	0x3df642a5	0.1202443
10	0x3e35702a	0.17718568
11	0xbc68b541	-0.014203371
12	0x3deb307a	0.114838555
13	0x3ea2bafb	0.3178328
14	0xbd84f904	-0.064928085
15	0xbe12c37d	-0.14332385
16	0x3d88ab22	0.06673266
17	0xbddc3802	-0.1075287
18	0xbd7e5048	-0.06208828
19	0x3d10bd02	0.035336502
20	0x3c84d314	0.016213931
21	0x3e2fa099	0.17151107
22	0x3e938234	0.28810275
23	0xbd61e63d	-0.055151213
24	0x3d4c73bc	0.04991506
25	0xbc57fb44	-0.013182465
26	0xbd0ab691	-0.033865515
27	0x3dea6496	0.114449665
28	0x3e2e6d26	0.17033824
29	0xbe1167ac	-0.14199704
30	0x3ea69986	0.32539004
31	0x3e6f49a1	0.23367931
32	0xbe0ea91e	-0.139317
33	0xbd80d9c6	-0.06291537
34	0xbd69f55d	-0.057118762
35	0xbdb3cbbf	-0.08779096
36	0x3d81cd81	0.06338025
37	0x3d65f82c	0.05614488
38	0x3d62eec4	0.055403486
39	0x3d0f1399	0.0349308
40	0x3d0c466c	0.034246847
41	0x3e2578bf	0.16159342
42	0x3d3471f9	0.044054005
43	0x3da95a31	0.08269156
44	0x3e811609	0.25212124
45	0x3dcd51ae	0.10025345
46	0x3e544bf4	0.20732099
47	0x3d744857	0.0596393
48	0x3dd12630	0.10212362
49	0x3e5d926a	0.21637884
50	0x3e6b59b5	0.2298344
51	0x3e62b70c	0.2214014
52	0x3dca8ec6	0.09890513
53	0x3de0d1a5	0.109774865
54	0x3e475812	0.1946719
55	0x3dc97ba4	0.09838036
56	0x3cf88d16	0.030340713
57	0x3e94d3b6	0.29067773
58	0x3ddc20aa	0.10748418
59	0xbde96799	-0.11396713
60	0xbd2d9ae8	-0.04238406
61	0xbd63eb35	-0.055644233
62	0xbe052a67	-0.13004456
63	0x3e6519a7	0.22373067
64	0xbc7c7429	-0.015408554
65	0xbc34fbf4	-0.011046398
66	0x3ea69f71	0.3254352
67	0x3da88e26	0.08230238
68	0xbe12d6d4	-0.14339763
69	0x3cd2dd33	0.025740242
70	0xbddc2fc0	-0.10751295
71	0xbdd76cf0	-0.10518825
72	0x3c92becc	0.017913245
73	0x3dadfdee	0.08495699
74	0xbd7c1d84	-0.061551586
75	0x3dde75e3	0.10862329
76	0x3c85b5bf	0.016322015
77	0xbe44b6ad	-0.1921031
78	0x3e10de5d	0.14147325
79	0x3df5603f	0.11981248
80	0xbdde301f	-0.10849022
81	0xbd73f183	-0.059556495
82	0x3dc636c2	0.09678413
83	0xbe77f019	-0.24212684
84	0x3db3d8c3	0.087815784
85	0x3e285a40	0.16440678
86	0xbe34d098	-0.17657697
87	0x3d34cd05	0.044140834
88	0x3e2a85b1	0.16652562
89	0x3cfb7e10	0.03069976
90	0x3db3184a	0.08744867
91	0x3d9ee7a2	0.07759024
92	0x3d9d1b9f	0.07671284
93	0x3d8747e0	0.06605506
94	0x3e11ae66	0.14226684
95	0xbe2c3a5c	-0.16819137
96	0xbc87a6c7	-0.016559018
97	0x3da1943c	0.078896016
98	0x3af7c122	0.0018902163
99	0xbd8ceaf4	-0.06880751
100	0x3c8f81d2	0.017517958
101	0xbd278ad7	-0.040903892
102	0x3e4e6040	0.20153904
103	0x3d373286	0.044725917
104	0xbe78f2c6	-0.2431136
105	0x3d62926e	0.055315427
106	0x3e023449	0.12715258
107	0xbd3e37be	-0.04643988
108	0xbd7b1252	-0.06129677
109	0x3e16bc8c	0.14720362
110	0x3e667bde	0.22508189
111	0xbcf889fd	-0.030339235
112	0x3c4acb96	0.01237764
113	0x3e6c702d	0.23089667
114	0xbdbe1863	-0.09281995
115	0x3e65c3f4	0.22438031
116	0x3e81cf08	0.25353265
117	0x3ded0dc1	0.11574889
118	0x3d6165f1	0.05502886
119	0x3e3f84dd	0.18703027
120	0x3dee2923	0.1162894
121	0x3e485f9d	0.19567724
122	0x3e56bbbc	0.20970052
123	0x3ccb3458	0.024805233
124	0x3def03f4	0.11670676
125	0x3de15afd	0.11003683
126	0xbd9502d9	-0.07275934
127	0x3d502a7c	0.050821766
128	0xbe8423a6	-0.25808448
129	0x3d79d4ba	0.060993887
130	0x3e34d342	0.17658713
131	0xbe10123c	-0.14069456
132	0xbc643354	-0.013928253
133	0xbd02d8dc	-0.031945094
134	0x3d4eef75	0.050521333
135	0xbc655544	-0.01399738
136	0x3dd7951f	0.105264895
137	0xbe945e21	-0.28978065
138	0x3e471158	0.1944021
139	0xbd0a4b88	-0.03376344
140	0xbe3b1782	-0.18270686
141	0x3e30916c	0.17242974
142	0x3dfe99b9	0.12431664
143	0xbe643771	-0.22286774
144	0xbd27867f	-0.04089975
145	0x3d139c7a	0.0360379
146	0xbd14eba1	-0.036357526
147	0x3d4737b4	0.048637107
148	0x3e5088d7	0.203647
149	0xbd1c3c57	-0.038143482
150	0x3df3cb06	0.11903958
151	0x3e1377b8	0.14401138
152	0xbda84a88	-0.08217341
153	0xbc897cfb	-0.016783228
154	0xbcfdd2ed	-0.030984366
155	0x3d00b0fd	0.03141879
156	0x3e3ebcb8	0.18626678
157	0x3e44406e	0.19165203
158	0xbd168580	-0.03674841
159	0x3e1124a2	0.1417413
160	0x3de44dc1	0.11147643
161	0xbdb6ed16	-0.08931939
162	0x3dec7dee	0.11547457
163	0x3c8d23dd	0.017229015
164	0xbd69944a	-0.057026185
165	0x3c7f025f	0.01556453
166	0x3e263d02	0.1623421
167	0xbd1e8ee7	-0.0387105
168	0x3df77191	0.12082208
169	0x3e28a45e	0.16468951
170	0x3cf0ecbf	0.029409764
171	0x3d97be70	0.0740937
172	0x3e5f56a9	0.21810402
173	0xbcc77093	-0.024345672
174	0x3e7ce67a	0.24697295
175	0x3ebdf9a9	0.37104538
176	0x3d6cbcab	0.057797115
177	0x3d05c430	0.032657802
178	0x3dcb5a66	0.099293515
179	0xbd76a895	-0.060219366
180	0xbd07e62c	-0.033178493
181	0x3cd7c722	0.026340071
182	0x3d55ca85	0.05219509
183	0xbd3a9ec9	-0.045561586
184	0x3cb692bf	0.02228677
185	0x37cec704	2.4649788e-05
186	0xbe4af14a	-0.19818607
187	0xbd3a5d68	-0.045499235
188	0x3c9d156a	0.01917525
189	0x3d262a06	0.04056742
190	0xbd9760e1	-0.07391525
191	0xbc88f8b1	-0.016720148
192	0xbddbf699	-0.10740394
193	0x3d9de4b0	0.07709634
194	0xbd10a441	-0.035312895
195	0x3cbc440c	0.022981666
196	0xbdcbb596	-0.09946744
197	0x3c636712	0.013879554
198	0x3e161b7c	0.14658922
199	0x3e0587bd	0.13040061
200	0xbd857d05	-0.06517986
201	0x3e8a6659	0.2703121
202	0x3eb19b8c	0.34688985
203	0xbc9bf854	-0.01903931
204	0x3e8a7feb	0.2705072
205	0x3e63426c	0.22193307
206	0xbe289e91	-0.16466738
207	0x3de6fae5	0.11278323
208	0x3e4b1679	0.19832791
209	0xbdfd726f	-0.12375342
210	0x3e863093	0.26208934
211	0x3e746563	0.23866801
212	0xbd4e2ad4	-0.050333813
213	0x3e568e04	0.20952612
214	0x3db84934	0.089983374
215	0xbd7ed22e	-0.06221216
216	0xbda518f5	-0.08061401
217	0xbd641a76	-0.055689298
218	0x3c58f724	0.013242517
219	0x3c786a69	0.015162089
220	0x3daadcfc	0.08342931
221	0x3dfd84f1	0.12378872
222	0x3cea10be	0.028572436
223	0x3d8ed13d	0.06973503
224	0x3d8f7117	0.07003992
225	0xbdbf39a7	-0.09337168
226	0x3cfe4f52	0.031043682
227	0x3cd31797	0.025768084
228	0xbe1fc443	-0.15602212
229	0x3c9733ce	0.01845732
230	0x3dcb4691	0.09925569
231	0xbd8b1b7f	-0.06792354
232	0xbe4bb2c5	-0.19892414
233	0xbcecfdfc	-0.028929703
234	0xbd75c53d	-0.060002554
235	0x3d5de310	0.05417162
236	0x3cd11794	0.025523938
237	0x3d826b19	0.063680835
238	0x3e0b08fa	0.13577643
239	0x3e36286c	0.17788857
240	0xbd50c2b8	-0.05096695
241	0x3bd3b130	0.0064603314
242	0x3c4d09b7	0.012514523
243	0x3d287df4	0.041135743
244	0xbd079242	-0.033098467
245	0x3e15efdd	0.14642282
246	0xbcfd9c4b	-0.030958315
247	0xbd24f204	-0.040269867
248	0xbcf905cc	-0.030398272
249	0xbe101963	-0.14072184
250	0xbe310649	-0.17287554
251	0xbe1fa365	-0.15589674
252	0x3e80becb	0.25145563
253	0x3d06bb7c	0.032893643
254	0x3da62dea	0.08114226
255	0x3e6a8e6b	0.2290589

encoder.2.bias f4 [16]
0	0x3e1f5cfa	0.15562811
1	0x3ceec504	0.029146679
2	0xbd4cf0a7	-0.05003419
3	0x3e232759	0.15932979
4	0x3e3f01a5	0.18652971
5	0x3dcc56e2	0.09977509
6	0x3e123475	0.14277823
7	0x3c028960	0.007967323
8	0x3dbf336e	0.09335981
9	0x3d9673f0	0.07346332
10	0x3d2e3835	0.042534072
11	0x397e319e	0.00024241811
12	0x3db40700	0.08790398
13	0xbda3c05b	-0.07995673
14	0x3e5e5ae9	0.21714367
15	0x3cec9019	0.028877305

encoder.4.weight f4 [32, 16, 5, 5]
0	0xbc6c775f	-0.014432757
1	0x3ca482ec	0.02008196
2	0xbdd1b599	-0.10239715
3	0x3d3eeb56	0.046611153
4	0xbd7aa835	-0.06119557
5	0x3b1a2805	0.0023522389
6	0xbd45d094	-0.04829462
7	0x3e7b7ed2	0.24560097
8	0x3d829ec5	0.06377939
9	0xbd506575	-0.050878007
10	0x3d9a164e	0.075237855
11	0xbd96f182	-0.07370283
12	0x3e2e9983	0.17050748
13	0xbde37679	-0.11106581
14	0xbd80a625	-0.062816896
15	0xbe21bfc1	-0.15795805
16	0xbd8152f2	-0.06314649
17	0x3dd3c63e	0.10340546
18	0xbded48ce	-0.11586152
19	0x3d084eec	0.03327839
20	0x3c9965c8	0.01872529
21	0xbb8c0e19	-0.0042741415
22	0xbc4e2124	-0.0125811435
23	0xbcbc7fb1	-0.023010107
24	0xbcc6e45a	-0.024278808
25	0x3db4595f	0.08806109
26	0xbcd48f34	-0.02594719
27	0xbd9db406	-0.07700352
28	0x3da68999	0.081317134
29	0xbd8b278f	-0.067946546
30	0x3c7dce8b	0.015491138
31	0xbce344ef	-0.027742831
32	0x3e1b1419	0.15144385
33	0xbbe16d7e	-0.0068795076
34	0xbcc46259	-0.023972677
35	0x3d87611f	0.06610321
36	0xbd74dba7	-0.05977979
37	0x3e02849b	0.12745897
38	0xbd894989	-0.06703479
39	0xbda73511	-0.081644185
40	0xbd847cec	-0.064691395
41	0xbd3364a2	-0.043797143
42	0x3be93b7c	0.007117687
43	0xbcb8eb3e	-0.02257311
44	0xbce2faca	-0.027707476
45	0xbc9212a3	-0.017831152
46	0xbc8186f2	-0.015811417
47	0x3cd4199b	0.025891116
48	0xbd326460	-0.043552756
49	0xbd1f8d2f	-0.038953003
50	0xbc0ec163	-0.008713099
51	0x3bd175a5	0.006392198
52	0xbd9d9b3a	-0.07695623
53	0x3c2cdfdd	0.01055142
54	0xbdab1e1d	-0.08355353
55	0xbce24250	-0.02761951
56	0x3d72815d	0.0592054
57	0x3e29828b	0.16553704
58	0xbd813698	-0.06309241
59	0xbdd6d1ac	-0.104892105
60	0xbd025242	-0.03181673
61	0xbd91516b	-0.07095607
62	0x3dc1bd82	0.09459974
63	0xbe0b1a9e	-0.13584372
64	0x3c0ce329	0.008599081
65	0xbde5a02e	-0.112121925
66	0x3cd0fa4a	0.025509972
67	0x3d178e40	0.037000895
68	0xbdcac01c	-0.09899923
69	0x3b4c0320	0.0031129792
70	0x3d48bfc7	0.049011018
71	0xbcfee6db	-0.03111594
72	0xbcae0328	-0.02124174
73	0x3c440950	0.011965111
74	0x3ac980fe	0.0015373526
75	0xbd66e3fc	-0.056369767
76	0x3d58339a	0.052783586
77	0x3d7793ed	0.060443807
78	0x3d052b1b	0.03251181
79	0x3d2db704	0.042410865
80	0x3c5daeb1	0.013530419
81	0x3d80667f	0.062695496
82	0x3e532729	0.20620407
83	0x3df9af8a	0.121916845
84	0x3d501545	0.050801534
85	0xbc1b3cee	-0.009474976
86	0xbc4681ef	-0.0121159395
87	0x3ca2a2e0	0.019853055
88	0x3d98f744	0.07469037
89	0x3e078526	0.13234386
90	0xbe319d1a	-0.17345086
91	0x3d27897a	0.040902592
92	0xbcf8fb0e	-0.03039315
93	0xbd538707	-0.051642444
94	0xbd074ea8	-0.033033997
95	0xbda5b629	-0.08091385
96	0xbd180f67	-0.037124064
97	0xbd189123	-0.03724779
98	0xbc036537	-0.008019737
99	0x3c85ca5e	0.016331848
100	0x3d8a7b77	0.0676183
101	0x3dc4fb51	0.09618247
102	0x3e14325d	0.14472337
103	0x3e09fb57	0.13474785
104	0x3d8659ca	0.06560095
105	0x3d1050f5	0.035233457
106	0x3d3a002b	0.045410316
107	0x3ddce7d9	0.10786409
108	0x3e2d8fee	0.16949436
109	0x3dbb7f04	0.09155086
110	0x3d707d50	0.058713257
111	0x3db760fd	0.08954046
112	0x3cd94baa	0.026525337
113	0x3e5d01fc	0.21582788
114	0x3c44a657	0.012002549
115	0xbbcaa702	-0.0061844597
116	0x3d874c18	0.066063106
117	0x3d1e8346	0.03869941
118	0x3daa8118	0.08325404
119	0x3cd91f27	0.026504112
120	0xbc34f0ea	-0.0110437665
121	0x3d99ba62	0.07506253
122	0x3d710f08	0.058852226
123	0xbd3f7fe1	-0.046752814
124	0x3db6c766	0.08924751
125	0xbc2bf629	-0.010495701
126	0x3d58b029	0.052902374
127	0x3c115a90	0.008871689
128	0x3dcfffdf	0.101562254
129	0xbc89c174	-0.016815878
130	0x3d347d9b	0.0440651
131	0xbdd7793d	-0.10521171
132	0x3e1c2222	0.15247396
133	0x3e08c6dc	0.13357109
134	0xbdbb9f27	-0.09161215
135	0x3dd3b79d	0.10337756
136	0x3d2b7e08	0.04186824
137	0x3e0bbf05	0.13647087
138	0x3d79a7ca	0.06095103
139	0xbcdece72	-0.02719805
140	0xbd59548e	-0.053059153
141	0x3c5eddb2	0.013602661
142	0xbb5fe7ae	-0.0034165191
143	0xbcf804f3	-0.030275797
144	0x3cc704ac	0.02429422
145	0xbba76a8b	-0.0051091365
146	0xbbe34f9a	-0.0069369795
147	0xbbafab01	-0.0053609614
148	0x38fc69c4	0.00012035997
149	0xbd40309e	-0.046921365
150	0x3d56edcf	0.052472886
151	0xbc9bbc3b	-0.019010654
152	0xbd063614	-0.032766417
153	0xbcf06955	-0.029347101
154	0x3c844925	0.01614816
155	0x3d19e8a9	0.037575398
156	0x3d632fba	0.055465437
157	0x3e1345a5	0.14382036
158	0x3d939824	0.07206753
159	0xbc848dd8	-0.016180918
160	0x3c85f3e6	0.016351651
161	0xbd8f099f	-0.06984257
162	0x3d96a356	0.073553726
163	0xbd8a339e	-0.067481264
164	0xbddc3203	-0.107517265
165	0xbe0baf97	-0.13641201
166	0xbdede2f7	-0.11615556
167	0x3d4023a4	0.04690899
168	0xbddc2a99	-0.10750312
169	0xbd0d3bd4	-0.034480885
170	0xbb162495	-0.0022909988
171	0xbc24b47a	-0.010052795
172	0xbd373b32	-0.044734187
173	0xbd211ef1	-0.03933615
174	0xbc916456	-0.01774804
175	0xbc2436a8	-0.010022797
176	0xbdb310a3	-0.087434076
177	0xbca5c2b8	-0.02023445
178	0x3b2e5107	0.002659859
179	0xbdb631dc	-0.08896229
180	0xbd494957	-0.049142208
181	0x3dd01462	0.10160138
182	0x3d959770	0.07304275
183	0xbe29ffa3	-0.16601424
184	0xbb807824	-0.003920572
185	0xbd3c5514	-0.045979574
186	0xbdaacf59	-0.0834033
187	0x3dd04944	0.10170224
188	0xbdffdaa4	-0.12492874
189	0x3cf70f4e	0.030158665
190	0xbc55051c	-0.013001706
191	0xbd31d8af	-0.043419536
192	0x3d62a6e5	0.055334944
193	0xbd3a96a2	-0.04555381
194	0x3cf11601	0.029429438
195	0x3d529030	0.05140704
196	0x3d683ac4	0.05669667
197	0xbb7ca579	-0.0038550778
198	0xbcce8812	-0.025211368
199	0xbb0d930e	-0.0021602544
200	0xbc0c99df	-0.008581608
201	0xbd53355a	-0.051564552
202	0x3d015fc4	0.03158547
203	0xbd385f09	-0.045012508
204	0xbd35ea1e	-0.044412725
205	0x3d301ebe	0.042998068
206	0x3e22784d	0.15866204
207	0x3da2e040	0.079529285
208	0xbe14ca06	-0.14530191
209	0x3c9c423a	0.019074548
210	0xbd62561a	-0.055257894
211	0xbbb85d58	-0.005626362
212	0xbccc84bd	-0.024965638
213	0xbdc80bfd	-0.097679116
214	0x3cec5596	0.028849404
215	0xbdf2c4e5	-0.11853961
216	0xba293760	-0.000645509
217	0xbd0583c7	-0.032596376
218	0xbdc0c659	-0.09412832
219	0x3bff3beb	0.007789125
220	0x3c945828	0.018108442
221	0x3c137886	0.009000903
222	0x3d0ce788	0.034400493
223	0x3d05005c	0.032471046
224	0x3d0baf55	0.034102757
225	0x3b8bc484	0.00426537
226	0xbcdaffeb	-0.02673336
227	0x3c8c8ce0	0.017157018
228	0x3d2be614	0.041967466
229	0xbd59e277	-0.05319449
230	0xb98f27c3	-0.0002730471
231	0x3d662e2e	0.056196384
232	0x3e2112d7	0.15729843
233	0xbcad701b	-0.02117162
234	0x3d70d4fe	0.058796875
235	0xbd1ccbd2	-0.038280316
236	0x3d443c17	0.04790887
237	0xbd011d0f	-0.031521853
238	0xbe2ac9b6	-0.16678509
239	0x3dd20bb5	0.10256139
240	0xbe296c0d	-0.16545124
241	0x3d345eff	0.044035908
242	0x3cbf26f4	0.023334004
243	0xbe039124	-0.12848336
244	0xbcda608d	-0.026657367
245	0x3cc18cf7	0.023626788
246	0xbd0dcbcd	-0.034618188
247	0xbc5e8eba	-0.013583833
248	0x3b7f6672	0.0038970974
249	0xbbe5e9e5	-0.007016408
250	0x3d233f47	0.039855268
251	0x3e190ae5	0.14945562
252	0x3bc9e61d	0.006161465
253	0x3d7921bf	0.0608232
254	0x3d77b48e	0.060474925
255	0x3c0acce2	0.008471699

encoder.4.bias f4 [32]
0	0x3d550fff	0.05201721
1	0xbd8e33b0	-0.06943452
2	0x3b29e1af	0.0025921871
3	0xbc1021da	-0.008797133
4	0x3d858ede	0.065213904
5	0x3b85e151	0.0040856977
6	0xbcd67ff7	-0.026184065
7	0x3cf37e51	0.029723318
8	0xbd7771a9	-0.06041113
9	0xbd38a1c1	-0.045076136
10	0x3d3fca2e	0.046823673
11	0xbaa4772c	-0.0012547723
12	0x3d725595	0.05916365
13	0x3d2cd374	0.042193845
14	0x3cfd4058	0.03091447
15	0x3d94d763	0.07267644
16	0x3d1416e2	0.036154635
17	0x3d6a810e	0.057251982
18	0x3d484508	0.04889396
19	0xbd2aecb5	-0.041729648
20	0xbcf961ae	-0.030442085
21	0x3dea0fb2	0.11428775
22	0x3d6ea84b	0.058265965
23	0xbdaa9962	-0.08330037
24	0xbd62ca78	-0.05536887
25	0xbb0def28	-0.002165744
26	0xba98a038	-0.0011644429
27	0xbd128e8f	-0.035780486
28	0xbcccb7c0	-0.024989963
29	0x3d6f118a	0.058366336
30	0xbd2730a3	-0.040817868
31	0x3da1df75	0.07903949

decoder.0.weight f4 [32, 16, 5, 5]
0	0x3d01095e	0.031503074
1	0x3cf5ace8	0.029989675
2	0x3cc2e40c	0.023790382
3	0xbb4c41e5	-0.0031167206
4	0x3d57fa8e	0.052729182
5	0x39a48dd2	0.00031386182
6	0xbcf136d6	-0.029445093
7	0xbcf8b0ef	-0.030357806
8	0x3d2bf6a5	0.041983265
9	0x3b9cd961	0.004786656
10	0x3ac1aeba	0.0014776804
11	0x3cdfd012	0.027320895
12	0x3ccc8dce	0.024969961
13	0x3d7bf4ab	0.06151263
14	0x3c197a96	0.009367606
15	0x3ce059b7	0.02738653
16	0x3d98752e	0.07444225
17	0xbc95ffdd	-0.018310482
18	0x3dc09cb6	0.0940489
19	0xbc07114c	-0.00824387
20	0x3af8ca06	0.0018981106
21	0xba9e5de6	-0.0012082427
22	0xbd37ba28	-0.044855267
23	0x3b35a7f8	0.0027718525
24	0x3cc56e8b	0.024100563
25	0x3ca83ef2	0.020537827
26	0xbd2e40b6	-0.042542182
27	0x3b4bc50f	0.0031092798
28	0x3d8a64f6	0.06757538
29	0x3d2dddbe	0.042447798
30	0xbd080d72	-0.033215947
31	0xbc0257c8	-0.007955499
32	0xbca520ff	-0.020157335
33	0xbd4917cc	-0.04909496
34	0x3ce0ac3a	0.027425874
35	0x3cbce223	0.02305705
36	0x3cab64bc	0.020922057
37	0x3d89bc33	0.06725349
38	0x3dcd0610	0.10010922
39	0x3cd3f2cb	0.025872609
40	0xbd61f4ea	-0.05516521
41	0xb780ef9e	-1.537037e-05
42	0x3d54babb	0.051935893
43	0xbae7ee1f	-0.0017694867
44	0x3d485379	0.04890773
45	0xbda2b943	-0.07945492
46	0xbc3ed873	-0.011648285
47	0x3c90ec6b	0.017690858
48	0x3d02e6ff	0.031958576
49	0xbad4f970	-0.0016248655
50	0xbca6bedc	-0.02035468
51	0x3d6fb735	0.05852433
52	0xbc5cdf0a	-0.013480911
53	0x3d882d06	0.066492125
54	0x3c92c228	0.017914847
55	0x3d57f7fe	0.05272674
56	0xbd3bf3ff	-0.04588699
57	0x3d26b6b7	0.040701594
58	0x3deefc86	0.11669259
59	0x3bfe686c	0.007763913
60	0x3d7d0a0f	0.06177717
61	0xbd1701ab	-0.036866825
62	0x3d1d5324	0.038409367
63	0x3c9c3010	0.019065887
64	0x3b972aa9	0.00461324
65	0xbc80a0dd	-0.015701706
66	0xbc9e1f31	-0.019301983
67	0x3d2846d6	0.04108318
68	0xbd10937a	-0.035296895
69	0x3d95df86	0.07318024
70	0x3d08fbe4	0.033443347
71	0x3b227291	0.0024787525
72	0x3d60e567	0.054906275
73	0x3da4dd07	0.0804997
74	0x3d86c481	0.06580449
75	0x3d19b9be	0.037530653
76	0x3d4de049	0.050262723
77	0x3cf391da	0.029732633
78	0x3d7fbb66	0.062434576
79	0xbd0a4c64	-0.033764258
80	0xb9e09bbb	-0.00042840638
81	0x3d9e6e71	0.07735909
82	0xbc91bfbe	-0.017791625
83	0xbcd2b49b	-0.025720885
84	0x3d6df0dc	0.05809103
85	0x3be8facf	0.007109977
86	0xbd0ad9f3	-0.03389926
87	0xbcf3f0bc	-0.029777877
88	0xbc7207a2	-0.014772328
89	0x3d1fa4b2	0.038975425
90	0x3c5c2d8f	0.013438596
91	0x3c25c6c2	0.010118188
92	0x3c53efb5	0.012935569
93	0x3d43d853	0.047813725
94	0xba9f0c88	-0.0012134472
95	0x3d8505f4	0.06495276
96	0x3d133eed	0.035948683
97	0x3d96899e	0.07350467
98	0x3c1ce232	0.009575414
99	0x3d6398eb	0.055565756
100	0xbd3a853b	-0.045537215
101	0xbcdf0155	-0.027222315
102	0xbd1a405c	-0.037659034
103	0x3bf97768	0.0076131113
104	0xbd03f14c	-0.03221254
105	0x3d1ec1dc	0.038759097
106	0x3bc1468d	0.005898303
107	0x3cd00d10	0.025396854
108	0xbcdeb88c	-0.027187608
109	0x3cfb8849	0.030704634
110	0x3d3d96ae	0.046286277
111	0x3d0b9770	0.03407997
112	0xbd416d24	-0.047223225
113	0xbdc41308	-0.095739424
114	0xbca058e6	-0.01957364
115	0xbd4962e9	-0.049166594
116	0x3c8e9024	0.017402716
117	0xbb9c93e7	-0.0047783735
118	0x3ccae681	0.024768116
119	0x3c3cf87a	0.011533851
120	0xbd16c8a5	-0.036812443
121	0xbcbec178	-0.023285612
122	0x3c1e82db	0.009674753
123	0x3c5a8cef	0.013339265
124	0x3ada9933	0.0016677737
125	0xbc56753b	-0.013089473
126	0x3baf9f18	0.0053595416
127	0xbce7af57	-0.02828185
128	0x3ca82ccb	0.020529171
129	0x3d6b5100	0.057450294
130	0xbc6328b5	-0.013864686
131	0xbbe664fe	-0.007031082
132	0xbcf84ba7	-0.030309511
133	0x3d046657	0.03232416
134	0x3c4f1fd3	0.012641865
135	0x3c3f6180	0.011680961
136	0xbc14c24f	-0.00907953
137	0x3cf9bba0	0.030484974
138	0x3b5723c3	0.0032827712
139	0xbc0e5cc0	-0.0086891055
140	0xbd975497	-0.07389181
141	0x3d21e9b7	0.03952953
142	0xbc92d359	-0.017923044
143	0xbb725bdc	-0.0036981022
144	0x3dba0b40	0.09084177
145	0x3cfe4ad6	0.031041544
146	0x3ce54674	0.027987696
147	0x3d5b0867	0.05347481
148	0x3cbfadd8	0.023398325
149	0x3d14e25d	0.03634869
150	0x3c7bca2c	0.015368026
151	0xbb64fad9	-0.0034939556
152	0x3d39cb1a	0.04535971
153	0xbbfe1781	-0.0077542667
154	0x3db7c5d8	0.089732826
155	0x3ce50cfe	0.027960297
156	0xbc905bba	-0.017621864
157	0xbd08707b	-0.033310395
158	0x3d1e2ec3	0.038618814
159	0x3d81583c	0.063156575
160	0x3cadedcd	0.021231556
161	0x3cb8fd9c	0.022581868
162	0xbc416eec	-0.011806231
163	0x3c7467af	0.014917298
164	0xbce028c5	-0.02736319
165	0x3d81de56	0.06341235
166	0xbc213d44	-0.009841267
167	0xbca2a901	-0.019855978
168	0x3d9d6be4	0.07686594
169	0x3d492f8c	0.04911761
170	0xbcb81d31	-0.022474857
171	0x3cb9b892	0.022671018
172	0xbb85a939	-0.004079011
173	0x3d201344	0.039080873
174	0x3d0a6547	0.03378799
175	0x3c33c0e6	0.010971284
176	0xbc92a675	-0.017901639
177	0x3b08c887	0.0020871477
178	0x3cdecbfc	0.027196877
179	0x3c8fcf82	0.017555002
180	0xbc29304f	-0.010326459
181	0x3d49018a	0.049073733
182	0xbc4ec49a	-0.012620116
183	0x3c8bb67c	0.017054789
184	0xbb83f35c	-0.0040268134
185	0x3cbf847f	0.023378609
186	0x3c979adf	0.018506465
187	0x3c38cfa2	0.011279972
188	0xbc58df73	-0.013236868
189	0xbd4ec7ba	-0.050483443
190	0x3cc10bf0	0.023565263
191	0x3d5adee5	0.053435225
192	0x3d222b41	0.03959203
193	0xbc91781c	-0.017757468
194	0x3d544feb	0.05183403
195	0x3d6a9be7	0.057277586
196	0xbd9dc2ed	-0.07703195
197	0x39764695	0.00023486682
198	0x3ba54bf5	0.005044455
199	0x3d0bc33c	0.034121737
200	0x3ca8c37c	0.020601027
201	0x3d50043d	0.050785292
202	0xbc7d7318	-0.015469335
203	0x3d483a8a	0.048883952
204	0x3c8ede78	0.017440066
205	0x3ca58fc1	0.020210149
206	0xbc2da923	-0.010599407
207	0xbcd9b904	-0.02657748
208	0xbc5d6399	-0.013512515
209	0xbcb07ccc	-0.021543883
210	0xbd2d65ca	-0.0423334
211	0xba1aacd2	-0.0005900386
212	0xbd0670e9	-0.032822523
213	0xbc473b07	-0.012160069
214	0xbd121bd1	-0.03567106
215	0x3d348ff2	0.04408259
216	0x3c471fcc	0.012153577
217	0xbd814702	-0.06312372
218	0x3d65e68b	0.056128066
219	0xbcb477c6	-0.022029769
220	0xbc10734a	-0.00881655
221	0xbc12e883	-0.008966568
222	0x3cb344cd	0.021883393
223	0xbc9cd65b	-0.019145181
224	0xbd31b49b	-0.04338513
225	0x3c90ed90	0.017691404
226	0x3cae5129	0.021278935
227	0x3c1760d3	0.009239393
228	0xbc9a7838	-0.018856153
229	0x3dbb763d	0.091534115
230	0x3d813e94	0.06310764
231	0xbd8f0526	-0.06983404
232	0x3ba9fbbf	0.005187481
233	0xbb342101	-0.0027485492
234	0x3b977ba2	0.0046228925
235	0x3cbb6765	0.02287645
236	0xb99d3a03	-0.00029988596
237	0xbda0b252	-0.07846512
238	0x3d3d9c19	0.046291444
239	0x3d1c2aa0	0.038126588
240	0x3c9aff86	0.018920671
241	0xbd3f585a	-0.046715118
242	0xbd234cb4	-0.03986807
243	0x3d874f7b	0.066069566
244	0xbbe89e21	-0.0070989286
245	0x3d9809d9	0.07423753
246	0xbb82d5ee	-0.0039927876
247	0xbc3bcdea	-0.011462668
248	0x3d1716f4	0.036887124
249	0x3d77cb5a	0.060496666
250	0xbce0ec65	-0.027456472
251	0xbc576274	-0.013146032
252	0xbb20e129	-0.0024548268
253	0x3c55264e	0.013009621
254	0x3d329bfb	0.043605786
255	0x3cf576cf	0.029963879

decoder.0.bias f4 [16]
0	0x3e30004e	0.17187616
1	0x3e10fab5	0.14158137
2	0x3d3f0d9d	0.046643842
3	0xbdd030bb	-0.101655446
4	0x3d9b0682	0.07569601
5	0x3e29c253	0.16578035
6	0x3e4e7769	0.20162739
7	0xbd96b359	-0.073584266
8	0x3d9f5a63	0.07780912
9	0x3e3a9f43	0.18224816
10	0x3e5c2ff7	0.21502672
11	0x3e4fc00e	0.20288107
12	0x3e474c8d	0.19462796
13	0x3dbe4814	0.092910916
14	0xbac9b0c3	-0.0015387762
15	0x3e0a2891	0.13492037

decoder.2.weight f4 [16, 8, 3, 3]
0	0x3c4ca2d2	0.012489991
1	0xbdd4a175	-0.10382358
2	0x3a9d066a	0.0011980061
3	0xbd51c3fd	-0.0512123
4	0x3e3fc1ca	0.18726268
5	0x3e3e0e4e	0.18560144
6	0x3d31c325	0.043398995
7	0xbdc6c080	-0.09704685
8	0xbb82d941	-0.003993184
9	0xbcd8ea12	-0.0264788
10	0x3dda4542	0.10657741
11	0x3e50f8a7	0.20407353
12	0x3d981c76	0.074273035
13	0x3d00ac7a	0.031414486
14	0x3dcb4ce4	0.09926775
15	0xbd7c0dea	-0.061536707
16	0xbd882c46	-0.066490695
17	0x3d931a70	0.07182777
18	0xbd514042	-0.05108667
19	0x3dbd7cf6	0.0925235
20	0x3cdcd470	0.026956767
21	0xbcb4c2bb	-0.022065511
22	0xbd8f42be	-0.06995152
23	0x3d4c3768	0.049857527
24	0xbe08f257	-0.13373695
25	0xbd7a4dca	-0.06110934
26	0x3d59dd31	0.05318946
27	0xbd5fabe2	-0.05460728
28	0x3a9fc3b6	0.0012189064
29	0xbdb4d8dc	-0.08830425
30	0x3cb9931e	0.022653159
31	0xbc1262fb	-0.008934732
32	0x3d3008ed	0.042977262
33	0xbd18619b	-0.03720246
34	0x3d1f0934	0.038827136
35	0x3d3c9eaf	0.04604977
36	0x3e0e4be4	0.13896137
37	0x3ea51f64	0.32250512
38	0x3e86926d	0.2628359
39	0x3d301176	0.042985402
40	0x3d316c78	0.043316334
41	0x3e141571	0.14461304
42	0xbe003ddb	-0.12523596
43	0xbd8f4ba3	-0.069968484
44	0x3c14d0c5	0.009082978
45	0x3cbad71c	0.02280765
46	0xbdc96f86	-0.098357245
47	0xbe1519ae	-0.14560577
48	0xbc831265	-0.015999982
49	0xbe247e5a	-0.16063824
50	0xbd990d0a	-0.0747319
51	0x3d16aa72	0.036783643
52	0x3d9b6127	0.0758689
53	0x3caa1195	0.020760337
54	0xbd451b77	-0.048121896
55	0xbd97031c	-0.0737364
56	0x3d1ab876	0.037773572
57	0xbd0c66f7	-0.034277882
58	0xbdbee491	-0.09320939
59	0xbcefac10	-0.02925685
60	0x3d7cfe6c	0.061766073
61	0xbd1de4c8	-0.03854826
62	0x3d4e13e9	0.050311957
63	0x3a038a2f	0.00050178444
64	0x3db1e5de	0.08686422
65	0x3d52ef63	0.05149783
66	0x3dd145d8	0.102184
67	0x3e787959	0.2426504
68	0x3e40b23d	0.18817993
69	0xbc4caacd	-0.012491894
70	0x3c8ad68e	0.01694801
71	0x3ddde764	0.1083515
72	0xbcf61308	-0.030038372
73	0xbd1a71ce	-0.03770619
74	0xbce6e783	-0.028186565
75	0xbb8187c2	-0.003952951
76	0x3de4fc67	0.111809544
77	0x3e2da925	0.16959055
78	0xbd197fa6	-0.03747525
79	0xbdeae215	-0.11468903
80	0xbbadd9f1	-0.0053055217
81	0x3bbb256f	0.0057112495
82	0x3e12dbb6	0.14341626
83	0x3ba03393	0.0048889606
84	0x3d7945cd	0.060857583
85	0x3ddcea93	0.10786929
86	0x3dcf2d52	0.10116066
87	0xbd1d9d24	-0.03847994
88	0xb97f12ef	-0.00024325748
89	0x3e533a9c	0.20627826
90	0xbd13cee3	-0.036085974
91	0x3d90f111	0.0707723
92	0x3d78d98d	0.060754348
93	0xbdf0192f	-0.117235534
94	0x3c3dd8a4	0.011587296
95	0xbdc3d0f4	-0.09561339
96	0xbd3eed62	-0.046613105
97	0xbd6ae4e8	-0.05734721
98	0x3cc90845	0.024540076
99	0xbd38fbaf	-0.0451619
100	0x3dc79ec9	0.09747083
101	0xbdad6bfd	-0.08467863
102	0x3d99c7b9	0.07508797
103	0x3bcfdc70	0.006343417
104	0xbe22693a	-0.15860453
105	0x3c3aaf4b	0.011394332
106	0x3d916ca5	0.071008004
107	0x3d2a19d6	0.041528545
108	0x3def7c16	0.116935894
109	0x3da18b3c	0.07887885
110	0x3dedbd06	0.11608319
111	0xbdb312fe	-0.08743857
112	0xbc357194	-0.011074442
113	0x3e24f37d	0.16108508
114	0xbddb2f17	-0.10702341
115	0xbdcca9a0	-0.09993291
116	0x3e0b550b	0.1360666
117	0xbcf6e92d	-0.030140484
118	0x3d3f5a46	0.04671695
119	0xbd85c0d8	-0.06530923
120	0x3bb7deb3	0.0056112646
121	0x3debb34b	0.11508807
122	0xbd12f34e	-0.035876565
123	0xbd83e0b4	-0.06439343
124	0x3e16b875	0.14718802
125	0xbdafdf5d	-0.08587525
126	0xbd4b120a	-0.04957775
127	0xbce3ba9f	-0.027798949
128	0xbd1115e3	-0.035421263
129	0xbc792ff9	-0.0152091915
130	0x3dc11840	0.094284534
131	0xbd86865c	-0.06568596
132	0xbd9d3781	-0.07676602
133	0x3c5f0b56	0.013613543
134	0x3c13b544	0.009015385
135	0x3d7fc8fe	0.06244754
136	0x3d86a225	0.06573895
137	0x3e3d9a6b	0.18515937
138	0x3dbaed11	0.09127248
139	0x3df6b0c7	0.12045436
140	0x3db77d4c	0.08959445
141	0xbd73cbf0	-0.05952066
142	0x3d94849b	0.07251855
143	0x3e2cb6b7	0.16866575
144	0x3d3d64ef	0.046238836
145	0xbe085140	-0.13312244
146	0xbd0a3e80	-0.03375101
147	0xbe09d947	-0.13461791
148	0xbde80a26	-0.11330061
149	0xbd3640a6	-0.044495247
150	0xbb89a1b8	-0.0042001866
151	0xbe163e0f	-0.14672111
152	0xbdb0353b	-0.08603903
153	0x387fb346	6.09637e-05
154	0xbe1210d3	-0.1426423
155	0xbdc089df	-0.09401297
156	0x3be876e7	0.0070942524
157	0xbe089bf7	-0.13340746
158	0x3d5f051a	0.054448225
159	0xbc14789b	-0.009061958
160	0xbce75657	-0.028239412
161	0x3ddd9fef	0.108215205
162	0x3daf91b4	0.085727125
163	0x3c27f551	0.010251359
164	0xbdaaab76	-0.08333485
165	0x3cd2ee1f	0.02574831
166	0x3c7da7b3	0.015481877
167	0xbdd5a0fb	-0.10431095
168	0x3c2380a9	0.009979405
169	0xbd21072b	-0.039313477
170	0x3d0d9eef	0.0345754
171	0x3d6b613a	0.05746577
172	0x3d79a0e0	0.060944438
173	0x3d6bafde	0.057540767
174	0xbd585b03	-0.05282117
175	0x3cd6cd01	0.0262208
176	0x3d9f5004	0.07778934
177	0xbd5d46b7	-0.054022517
178	0xbd55ee6d	-0.052229334
179	0xbda89bcf	-0.08232843
180	0x3d53c715	0.05170353
181	0xbd786e0b	-0.06065182
182	0x3cc77668	0.024348453
183	0xbd6fa5ab	-0.058507603
184	0xbd15727a	-0.036486126
185	0x3db680e5	0.089113034
186	0x3dcebc45	0.10094503
187	0x3e260e39	0.16216363
188	0x3e3c4fdd	0.1838984
189	0x3d64b721	0.055838708
190	0x3d92d104	0.07168773
191	0x3d49d390	0.049274027
192	0x3d49e1aa	0.049287476
193	0x3e03bd3a	0.12865153
194	0x3ca05001	0.019569399
195	0x3dd56519	0.104196735
196	0x3d35fc7a	0.044430234
197	0xbde712ce	-0.112828836
198	0xbbc9a2ec	-0.006153455
199	0x3cc177b3	0.023616647
200	0xbda38150	-0.07983649
201	0x3df3a87c	0.1189737
202	0x3e152ea1	0.14568569
203	0x3cbf19f5	0.023327807
204	0xbcdebec1	-0.027190568
205	0x3d28bf20	0.041197896
206	0xbc0c4bea	-0.008563021
207	0xbca32368	-0.019914344
208	0xbd5ba9d2	-0.05362875
209	0xbd9bdab3	-0.07610073
210	0x3d58b746	0.05290916
211	0xbdd5706d	-0.10421834
212	0xbe07dd9d	-0.13268133
213	0xbdd4472f	-0.1036514
214	0xbbf01baa	-0.0073275166
215	0x3d25773b	0.04039691
216	0x3dc21fd3	0.09478726
217	0xbd633699	-0.05547199
218	0x3d266e7a	0.040632702
219	0x3d82023c	0.063480824
220	0x3ca32b30	0.019918054
221	0xbe0235f6	-0.12715897
222	0x3d70b837	0.05876943
223	0xbcabd7dc	-0.020976953
224	0xbd9af26c	-0.075657696
225	0x3d8b1817	0.06791704
226	0xbd8bdd7e	-0.06829356
227	0xbc4299db	-0.011877502
228	0x3b15cd0c	0.0022857813
229	0x3c8271c5	0.01592339
230	0xbe12980a	-0.14315811
231	0x3dab3275	0.08359233
232	0x3bc54763	0.006020473
233	0xbe0198b2	-0.12655905
234	0xbacd67b0	-0.001567116
235	0x3de64f31	0.11245573
236	0x3db4a904	0.088213
237	0xbd8989bf	-0.06715726
238	0xbe0bef17	-0.13665424
239	0xbd3ed1b8	-0.046586722
240	0xbd11b3f6	-0.035572015
241	0x3cc4503a	0.023964036
242	0xbd43ce8d	-0.047804404
243	0xbb6746af	-0.0035289933
244	0xbd903d66	-0.07042961
245	0x3cfde68c	0.030993722
246	0xbdd45110	-0.10367024
247	0xbc4bb71a	-0.0124337915
248	0xbdca2143	-0.098696254
249	0x3d6d4888	0.0579305
250	0x3d156077	0.03646895
251	0x3d19951a	0.03749571
252	0x3d50d9bb	0.050988894
253	0x3cd7d255	0.026345411
254	0xbdd83987	-0.105578475
255	0x3cb5a8bb	0.022175184

decoder.2.bias f4 [8]
0	0x3dee0301	0.11621667
1	0x3e1f2470	0.15541244
2	0x3e317619	0.17330207
3	0xbc939abd	-0.01801812
4	0x3e71fdce	0.23631975
5	0xbb1b3fa7	-0.0023689063
6	0x3dbab693	0.091168545
7	0x3deb4f29	0.11489708

decoder.4.weight f4 [8, 1, 3, 3]
0	0xbe1cb5d7	-0.15303741
1	0xbe1faabc	-0.15592474
2	0xbe3ee7e5	-0.18643148
3	0xbe87ba1d	-0.2650918
4	0xbf1080d9	-0.56446606
5	0xbea39ba7	-0.3195469
6	0xbd188a7e	-0.03724145
7	0xbe36d0a1	-0.17853023
8	0x3c1dc1c6	0.009628719
9	0xbeb2be70	-0.34910917
10	0xbe416a37	-0.18888174
11	0xbeaf0810	-0.3418584
12	0xbef4a472	-0.47781712
13	0xbed2ee5a	-0.41197473
14	0xbe9c2f0b	-0.3050464
15	0xbeede040	-0.46460152
16	0xbe2b38b1	-0.16720845
17	0xbea08d53	-0.31357822
18	0xbeb0bc77	-0.34518787
19	0xbeb0fd04	-0.34568036
20	0xbb3817a6	-0.0028090267
21	0xbe5d37c1	-0.216033
22	0xbe000daa	-0.12505212
23	0x3e170917	0.14749561
24	0xbe08d260	-0.13361502
25	0xbe3698d8	-0.17831743
26	0x3df18cab	0.117944084
27	0xbdbf160a	-0.093303755
28	0x3e1265c8	0.14296639
29	0x3d49851a	0.0491992
30	0xbd3234df	-0.043507453
31	0x3dd3b9d2	0.10338177
32	0x3d59e2e3	0.05319489
33	0x3e0be74e	0.13662454
34	0x3ea08e38	0.31358504
35	0x3e576586	0.21034822
36	0xbe0de9b0	-0.13858676
37	0xbe280802	-0.16409305
38	0x3d86e222	0.065861
39	0xbe551d01	-0.20811845
40	0xbef944eb	-0.48685393
41	0xbe64c305	-0.22340019
42	0xbdf81c85	-0.12114815
43	0xbedd592a	-0.4323209
44	0xbdec2714	-0.11530891
45	0x3e2cee94	0.16887885
46	0x3c5336e1	0.012891502
47	0x3e4fa7f5	0.20278914
48	0x3e703888	0.23459065
49	0x3ebb76b1	0.36613992
50	0x3e8bc488	0.2729838
51	0x3d9cad85	0.07650284
52	0x3d650097	0.055908766
53	0x3c209c0a	0.009802828
54	0xbd99cb78	-0.07509512
55	0x3ece9b10	0.40352678
56	0x3e8ae43a	0.27127248
57	0x3d489a81	0.04897547
58	0x3e6b1830	0.22958446
59	0x3e67e3f7	0.22645555
60	0x3bbf287a	0.0058336826
61	0x3ebed40c	0.37271154
62	0x3e75dba9	0.24009575
63	0x3d9014cb	0.07035216
64	0xbf03c4eb	-0.5147235
65	0xbe0d214d	-0.13782234
66	0xbe0f9810	-0.14022851
67	0xbf06cfb4	-0.5266068
68	0xbe80b0e4	-0.25134957
69	0x3d0f7c66	0.035030745
70	0xbc9d8dc0	-0.01923263
71	0xbdbfc6da	-0.093641
