Weights/p1/AutoEncoder_CNN_PA3_24100238.pth (torch, 117378 bytes, 11 tensors)

encoder.0.weight f4 [8, 1, 3, 3]
-0.054585733 -0.60181797 -0.051500812 -0.47904006 -0.61974853 -0.35777467 0.14382073 -0.37619063
0.086147755 -0.040048465 -0.05309491 -0.42267635 -0.44103032 -0.5235269 -0.23909111 -0.22108075
-0.60720044 -0.5485471 0.22790669 0.43885598 0.38424188 0.5273618 0.13441952 0.5095891
-0.17604747 0.36242023 0.48697796 -0.36860606 0.04723156 -0.13063948 -0.14534919 -0.20282127
0.053253148 -0.50587714 -0.06551623 0.34964055 0.4977025 0.27854815 0.19911599 0.2988901
0.50683343 0.44248712 -0.1678965 0.2282829 0.1711931 -0.16016598 -0.5599506 -0.11267181
0.00020816375 -0.43274352 -0.2801084 -0.14376874 -0.46767753 -0.05697611 0.2405545 -0.29044485
-0.2747023 0.31301785 0.4413581 -0.11239045 0.3987714 0.06959803 -0.15719242 0.42993137
0.13546002 -0.22282954 0.024961552 0.1755942 -0.01812029 0.062414818 -0.43394822 -0.17966168
00000000: 4a95 5fbd be10 1abf 84f2 52bd bd44 f5be
00000010: d7a7 1ebf 3e2e b7be be45 133e 0f9c c0be
00000020: 3c6e b03d dc09 24bd 0c7a 59bd 0969 d8be
00000030: bace e1be dc05 06bf 4dd4 74be fe62 62be
00000040: 7d71 1bbf 956d 0cbf 5f60 693e bbb1 e03e
00000050: 5abb c43e 2f01 073f 45a5 093e 6e74 023f
00000060: ca45 34be 258f b93e 2d55 f93e efb9 bcbe
00000070: e175 413d 5bc6 05be 6bd6 14be 61b0 4fbe
00000080: f91f 5a3d 2a81 01bf 602d 86bd 1604 b33e
00000090: ddd2 fe3e dd9d 8e3e 10e5 4b3e 2008 993e
000000a0: d6bf 013f ac8d e23e 0fed 2bbe fec2 693e
000000b0: 3e4d 2f3e 8d02 24be ec58 0fbf 7ac0 e6bd
000000c0: 8846 5a39 8f90 ddbe 5e6a 8fbe 1d38 13be
000000d0: 6e73 efbe c85f 69bd eb53 763e 30b5 94be
000000e0: c8a5 8cbe e043 a03e b0f9 e13e f72c e6bd
000000f0: c42b cc3e 6989 8e3d 0df7 20be f71f dc3e
00000100: 08b6 0a3e 6d2d 64be 2b7c cc3c f7ce 333e
00000110: 0171 94bc aea6 7f3d 762e debe 3bf9 37be

encoder.0.bias f4 [8]
0.43014747 0.27318835 0.12580986 -0.0994697 -0.014671276 0.3116933 0.6285776 -0.026280668
00000000: 4a3c dc3e 58df 8b3e 4dd4 003e c5b6 cbbd
00000010: cb5f 70bc 4496 9f3e 76ea 203f 8e4a d7bc

encoder.2.weight f4 [16, 8, 3, 3]
-0.2801495 0.015014055 0.05281657 -0.15152058 0.12325536 0.12699689 -0.033310726 0.115652636
0.01709902 -0.24365775 0.15268908 0.20757484 -0.017587977 0.13483372 0.06435901 -0.13347195
0.06629843 0.15389165 0.31141317 -0.0032125625 -0.09828107 0.28952232 -0.16736242 -0.10822108
0.121410556 0.06990077 0.013175169 0.12313512 -0.24907 -0.07971708 -0.19538336 -0.063354485
-0.007694033 -0.12300924 -0.1061513 -0.115789786 0.119502865 0.098263316 0.050633762 0.1506281
-0.17599566 -0.117699504 0.18145026 -0.09386808 0.080774814 -0.25493255 -0.009495619 0.12098059
-0.10197675 0.1598946 0.069132976 -0.08580183 0.16678838 0.13345163 0.3195364 0.25510052
-0.08329994 0.29239208 0.1252127 -0.26105675 0.18082134 -0.05391596 -0.094885975 0.17678744
0.21006504 0.039082974 0.13331485 0.28524214 -0.21487959 0.12496041 0.0056743906 -0.29182515
-0.14364406 0.081130974 -0.005201188 0.2291138 0.44514456 0.18964317 -0.061920915 0.03877911
0.04558108 -0.0643779 0.3151753 -0.049870465 0.14495571 0.37955946 0.13106258 -0.18745437
-0.05040464 0.016527876 0.08694191 0.061153088 0.10194214 0.016516553 -0.068373084 0.022384604
0.01381451 0.06502115 0.12092438 -0.16634534 -0.039895758 0.075737186 -0.15959091 0.028156964
0.20503803 -0.23291071 0.029557021 -0.013135282 0.04694117 0.10678589 0.0985903 -0.14869247
-0.2785367 -0.155928 0.019731246 0.04095299 -0.055173457 0.04547863 0.17816944 -0.0003829195
0.25436902 0.26843667 0.029389594 -0.04840424 0.040426683 0.045885596 0.19377425 -0.10988427
-0.05842967 0.066330604 -0.250177 -0.16941877 0.19106978 -0.039838262 0.1465464 0.32562944
0.07895709 0.028822485 0.15452097 -0.29310238 -0.11245279 -0.16758887 -0.20719707 -0.08860905
0.111915916 -0.032088734 -0.11407309 0.26022512 0.1845677 0.04615213 0.24066943 0.14764123
-0.0874954 0.15739805 0.029736595 -0.07238177 0.33580133 0.21024597 -0.108846374 0.21555905
0.20154904 -0.09212781 -0.024443075 0.07138972 0.22526927 -0.11142783 -0.026220676 0.074177235
0.011939704 -0.009034885 0.13414648 -0.2090277 -0.07249642 0.06097003 -0.3228387 0.1843718
0.20313634 -0.079348296 0.15617713 0.19869113 -0.012671869 0.23392084 0.19068116 -0.16190742
-0.18744558 0.103047796 0.077606596 -0.16973823 0.008200349 0.040754475 -0.02979058 -0.09664253
0.17253105 0.2899726 0.05333845 0.1803355 0.10472895 -0.17207201 0.011702714 0.05423349
0.18903762 -0.12136455 -0.2811745 0.021813262 0.11739907 -0.24011397 0.15300193 0.14141898
0.10777759 -0.0037186611 -0.014203182 -0.10079095 -0.11000842 -0.15192339 -0.31248435 0.10047155
-0.030598972 -0.07880283 -0.10021966 -0.049852166 -0.18137346 0.028013771 0.16046903 0.08136825
0.07148516 0.086216174 -0.07052296 -0.089869946 0.046842843 0.027763436 -0.050411303 0.14146061
0.07411427 0.18897049 0.10181508 0.06966682 0.051467054 0.22563183 0.33613265 0.04711135
0.15004481 0.077711165 -0.11705532 0.1303122 0.0784012 -0.07185377 0.0630018 -0.2074056
-0.14351144 0.0807516 0.07452007 0.0008383715 0.058162857 0.16951847 0.08452957 0.19316667
00000000: c16f 8fbe 83fd 753c 3056 583d 3628 1bbe
00000010: 4e6d fc3d 790b 023e d470 08bd 4adb ec3d
00000020: 3e13 8c3c 6b81 79be 875a 1c3e 808e 543e
00000030: a914 90bc da11 0a3e a8ce 833d dfac 08be
00000040: 79c7 873d c695 1d3e 8c71 9f3e db89 52bb
00000050: 9647 c9bd 453c 943e 0e61 2bbe 03a3 ddbd
00000060: 19a6 f83d 2328 8f3d aadc 573c 442e fc3d
00000070: 350c 7fbe b542 a3bd 9312 48be ffbf 81bd
00000080: 3a1e fcbb 45ec fbbd da65 d9bd 3223 edbd
00000090: ebbd f43d 473e c93d 5965 4f3d 413e 1a3e
000000a0: 3538 34be 700c f1bd 19ce 393e e83d c0bd
000000b0: 446d a53d 8586 82be 8393 1bbc acc4 f73d
000000c0: 30d9 d0bd 69bb 233e 9795 8d3d dfb8 afbd
000000d0: 93ca 2a3e 8ba7 083e 469a a33e 899c 823e
000000e0: 2999 aabd 6ab4 953e c237 003e 3ba9 85be
000000f0: 3b29 393e fbd6 5cbd 9453 c2bd c407 353e
00000100: 4a1b 573e 7815 203d b083 083e 420b 923e
00000110: 6509 5cbe 3eeb ff3d 3df0 b93b 1b6a 95be
00000120: 6e17 13be ff27 a63d ba6e aabb cf9c 6a3e
00000130: fde9 e33e d231 423e c9a0 7dbd d8d6 1e3d
00000140: 3ab3 3a3d 8fd8 83bd a85e a13e f944 4cbd
00000150: 456f 143e 9e55 c23e 4535 063e 0af4 3fbe
00000160: 1975 4ebd 7865 873c 9a0e b23d a97b 7a3d
00000170: 0ac7 d03d b94d 873c 3007 8cbd eb5f b73c
00000180: 4156 623c cf29 853d 34a7 f73d 6f56 2abe
00000190: bc69 23bd 191c 9b3d cd6b 23be 6fa9 e63c
000001a0: 7df5 513e 2580 6ebe 9121 f23c 5e35 57bc
000001b0: 6245 403d 90b2 da3d b6e9 c93d d742 18be
000001c0: 5d9c 8ebe 97ab 1fbe 6ca3 a13c 53be 273d
000001d0: 90fd 61bd cd47 3a3d 0d72 363e 96c2 c8b9
000001e0: a83c 823e 8870 893e 72c2 f03c 8643 46bd
000001f0: 7396 253d 89f2 3b3d c26c 463e 010b e1bd
00000200: f353 6fbd 57d8 873d 3317 80be 1d7c 2dbe
00000210: cca7 433e 722d 23bd 4210 163e e7b8 a63e
00000220: 41b4 a13d 221d ec3c bf3a 1e3e 8411 96be
00000230: a64d e6bd 6b9c 2bbe 782b 54be a978 b5bd
00000240: 2c34 e53d 7a6f 03bd 279f e9bd 3a3c 853e
00000250: 51ff 3c3e 040a 3d3d 0c72 763e 432f 173e
00000260: ca30 b3bd f42c 213e 299a f33c e53c 94bd
00000270: 27ee ab3e b84a 573e d9ea debd 83bb 5c3e
00000280: df62 4e3e 81ad bcbd d83c c8bc c634 923d
00000290: fdac 663e 4634 e4bd becc d6bc 3cea 973d
000002a0: c09e 433c 0e07 14bc b25d 093e 5b0b 56be
000002b0: 0179 94bd b6bb 793d 1d4b a5be f6cb 3c3e
000002c0: f902 503e 5c81 a2bd e6ec 1f3e b075 4b3e
000002d0: ac9d 4fbc f288 6f3e ec41 433e 0fcb 25be
000002e0: bcf1 3fbe b90a d33d 35f0 9e3d dccf 2dbe
000002f0: c25a 063c 2aee 263d 600b f4bc 85ec c5bd
00000300: fbab 303e 4a77 943e 6b79 5a3d dfa9 383e
00000310: 227c d63d a533 30be bdbc 3f3c f023 5e3d
00000320: 1493 413e fa8d f8bd 1bf6 8fbe bab1 b23c
00000330: ec6e f03d 70e0 75be 8aac 1c3e 23d0 103e
00000340: 7fba dc3d c8b4 73bb 77b4 68bc 7c6b cebd
00000350: 184c e1bd ce91 1bbe f3fd 9fbe 07c4 cd3d
00000360: b2aa fabc 6163 a1bd f73f cdbd c931 4cbd
00000370: f7b9 39be 237d e53c fe51 243e 66a4 a63d
00000380: d066 923d 1b92 b03d 576e 90bd bc0d b8bd
00000390: 48de 3f3d 2570 e33c 157c 4ebd 0ddb 103e
000003a0: 39c9 973d 7b81 413e 6d84 d03d 7aad 8e3d
000003b0: 1ecf 523d 080c 673e 9419 ac3e d5f7 403d
000003c0: 59a5 193e 0827 9f3d b3ba efbd 9070 053e
000003d0: cf90 a03d 1228 93bd 1607 813d 2262 54be
000003e0: aaf4 12be 1861 a53d fa9d 983d 29c6 5b3a
000003f0: 2d3c 6e3d 4096 2d3e d71d ad3d 7ccd 453e

encoder.2.bias f4 [16]
-0.07313114 -0.07409261 -0.0020302664 -0.04969268 -0.11132629 0.08963795 0.036614873 0.15622728
0.10754288 0.006265526 -0.043955624 0.14575483 -0.0881611 -0.020049414 -0.008199396 -0.11265675
00000000: c7c5 95bd debd 97bd 380e 05bb 8d8a 4bbd
00000010: 0aff e3bd 1a94 b73d 7af9 153d 0bfa 1f3e
00000020: 713f dc3d 0b4f cd3b d00a 34bd c140 153e
00000030: cf8d b4bd ab3e a4bc c256 06bc 95b8 e6bd

encoder.4.weight f4 [32, 16, 5, 5]
0.047022164 0.096890844 0.034306727 0.036512755 -0.0016700772 0.0009182251 0.0090625305 -0.02520717
0.0778594 -0.06995168 0.05365554 0.04586436 -0.074641235 0.051119093 -0.086585484 0.0063098045
-0.055484742 0.05584224 -0.03422923 -0.08230753 -0.014748923 0.014518479 -0.07749947 0.05231592
-0.137066 -0.05823522 0.030917179 0.10302912 0.035782266 0.02012077 -0.015385169 -0.14207377
-0.107277475 0.063620344 0.05921623 -0.0009221929 0.09243631 -0.18947646 0.072945885 -0.073352315
-0.0053875954 -0.0322374 0.062186748 0.10464462 0.08040848 -0.03772148 -0.058809705 -0.01871415
-0.06321513 -0.005774718 0.03268883 0.048486963 0.03884938 -0.045830507 0.042310808 0.021523857
-0.14017415 -0.0913104 -0.040709455 0.049899913 -0.016435374 0.048106533 -0.081844464 0.0064293044
-0.0145988865 0.06671624 -0.07807545 0.07823137 -0.028207216 0.106190056 -0.07774011 -0.0882006
0.031622447 -0.06997082 -0.008992385 0.01952404 0.028815018 0.020709729 0.06342311 0.06615824
0.03391061 0.11192283 0.009398096 -0.030269649 -0.062237907 0.060310014 -0.037320424 0.032796685
0.00343249 0.116632536 0.02705994 0.011728717 -0.07993478 -0.0399054 -0.13867223 0.018884
0.03863128 0.026214078 0.0421607 -0.021155756 -0.059488807 -0.013950359 0.038819924 0.021645306
0.055545967 0.02701863 -0.08343532 -0.0341161 0.046916593 0.009162213 0.006149687 0.04610572
-0.11468411 0.05484752 0.015551766 0.019182699 -0.014533768 0.026588375 0.0668766 0.06335934
-0.0033757724 -0.05221298 0.01872255 -0.051689737 -0.04617976 -0.013933971 0.07577935 -0.0014345277
-0.012381014 0.015868759 0.10349263 -0.14778967 -0.12090777 -0.008860157 0.049574975 0.059806127
0.094682135 -0.13247022 0.05610319 0.021991745 0.03012753 -0.06725824 0.08833858 0.09398558
0.037041876 -0.053875327 -0.029217992 0.009220069 -0.06609066 0.066811204 -0.026254829 0.058261495
0.011518341 -0.0544187 0.11280976 0.0123121785 -0.07409353 -0.07961491 0.031506233 0.03662362
0.0104806535 0.030558193 -0.15811343 0.038897604 0.050793044 0.073614776 -0.084328264 0.1389307
-0.04037153 0.05983906 -0.008560458 -0.072892845 0.02937229 0.01987861 -0.0063437796 0.026372401
0.02326238 -0.038806524 0.015217456 -0.014714997 -0.03309031 0.076935746 -0.037509672 -0.0027248105
-0.1271295 0.04673102 -0.059659287 0.120262325 -0.02838842 0.0071517997 -0.014372781 -0.019189103
-0.010157052 -0.098929234 -0.09969551 -0.038038056 0.013685619 -0.017064778 0.08988112 -0.0061358875
-0.014191821 -0.027004082 -0.06521693 -0.022120979 0.09359079 0.046243757 0.018091004 0.02589718
-0.022193493 0.037632935 0.029145509 0.025638439 -0.06822322 0.004511963 0.027901152 0.09059565
-0.042698015 -0.045985673 -0.09834335 -0.10440449 0.02558536 0.018688297 0.005990497 -0.006753132
-0.095545396 0.02824877 0.024332382 0.051425163 -0.0116390055 0.04346523 -0.06327413 -0.07153611
-0.024346685 0.08832574 -0.06256977 -0.0192549 0.10834309 -0.08325696 0.07788431 -0.021898026
-0.0041857795 0.001390008 0.028977543 0.07318852 0.06512233 -0.055183273 0.007999111 0.017643753
-0.04470425 -0.048483793 -0.0056413333 0.028702395 0.066619135 -0.0006995665 0.033520132 0.014619131
00000000: 509a 403d b56e c63d 3685 0c3d 668e 153d
00000010: 7ee6 daba 0bb5 703a 027b 143c 447f cebc
00000020: c074 9f3d d442 8fbd e9c5 5b3d 44dc 3b3d
00000030: 81dd 98bd 4162 513d bb53 b1bd 7ac2 ce3b
00000040: f843 63bd d5ba 643d f333 0cbd da90 a8bd
00000050: 77a5 71bc eade 6d3c 0bb8 9ebd 3849 563d
00000060: 085b 0cbe 0e88 6ebd 0646 fd3c ee00 d33d
00000070: 6d90 123d 50d4 a43c 1312 7cbc c97b 11be
00000080: 4bb4 dbbd 624b 823d b88c 723d 51bf 71ba
00000090: 404f bd3d 1e06 42be a764 953d bd39 96bd
000000a0: 6d8a b0bb 5d0b 04bd 88b7 7e3d eb4f d63d
000000b0: 33ad a43d d781 1abd 72e2 70bd 6b4e 99bc
000000c0: ef76 81bd d839 bdbb b9e4 053d 449a 463d
000000d0: 8720 1f3d c5b8 3bbd 194e 2d3d cd52 b03c
000000e0: d089 0fbe f200 bbbd f5be 26bd da63 4c3d
000000f0: 7aa3 86bc 5b0b 453d 129e a7bd eaac d23b
00000100: 2b30 6fbc 86a2 883d 06e6 9fbd c537 a03d
00000110: d212 e7bc 2c7a d93d 3536 9fbd 84a2 b4bd
00000120: 8a86 013d dc4c 8fbd cc54 13bc e1f0 9f3c
00000130: 790d ec3c 73a7 a93c fae3 813d f97d 873d
00000140: dae5 0a3d cc37 e53d 79fa 193c 0ef8 f7bc
00000150: 2ded 7ebd a207 773d 4ddd 18bd d155 063d
00000160: a0f3 603b 0add ee3d cfac dd3c ce29 403c
00000170: d9b4 a3bd d873 23bd 1800 0ebe 9eb2 9a3c
00000180: d53b 1e3d e8be d63c b3b0 2c3d d64e adbc
00000190: 89aa 73bd 0c90 64bc a401 1f3d 7f51 b13c
000001a0: 2b84 633d 2d56 dd3c 23e0 aabd 53bd 0bbd
000001b0: 9d2b 403d 1b1d 163c 5083 c93b 5ad9 3c3d
000001c0: 81df eabd cba7 603d d6cc 7e3c 0925 9d3c
000001d0: 0b1f 6ebc ddcf d93c 99f6 883d 8bc2 813d
000001e0: 103c 5dbb 47dd 55bd 0860 993c 9eb8 53bd
000001f0: fd26 3dbd 4f4b 64bc 3432 9b3d c306 bcba
00000200: bdd9 4abc 33ff 813c f2f3 d33d 2d56 17be
00000210: 7e9e f7bd 312a 11bc 210f 4b3d 45f7 743d
00000220: b5e8 c13d 46a6 07be 75cc 653d 0828 b43c
00000230: 03ce f63c b0be 89bd dcea b43d 837b c03d
00000240: 39b9 173d 60ac 5cbd 925a efbc c60f 173c
00000250: 8a5a 87bd 50d4 883d 5e14 d7bc 9ba3 6e3d
00000260: 6cb7 3c3c 25e6 5ebd ce08 e73d 05b9 493c
00000270: 59be 97bd 240d a3bd ae0c 013d a602 163d
00000280: 0cb7 2b3c 2d55 fa3c 7de8 21be 1853 1f3d
00000290: 5e0c 503d 58c3 963d 4cb4 acbd d943 0e3e
000002a0: 9e5c 25bd cd19 753d 2a41 0cbc d848 95bd
000002b0: 289e f03c 77d8 a23c 7bdf cfbb ef0a d83c
000002c0: bf90 be3c 97f3 1ebd a352 793c 2c17 71bc
000002d0: b489 07bd 7d90 9d3d bea3 19bd bc92 32bb
000002e0: 3c2e 02be 0769 3f3d 4c5d 74bd 184c f63d
000002f0: d58e e8bc a559 ea3b d07b 6bbc 7732 9dbc
00000300: c469 26bc 699b cabd 292d ccbd cbcd 1bbd
00000310: a639 603c 6fcb 8bbc 9813 b83d 8e0f c9bb
00000320: d084 68bc aa37 ddbc 7490 85bd 0e37 b5bc
00000330: 87ac bf3d 186a 3d3d 9633 943c 5326 d43c
00000340: 21cf b5bc fe24 1a3d 90c2 ee3c b407 d23c
00000350: 9eb8 8bbd 17d9 933b f590 e43c 368a b93d
00000360: 1de4 2ebd 795b 3cbd 3d68 c9bd 05d2 d5bd
00000370: 6498 d13c 3318 993c ee4b c43b 6149 ddbb
00000380: 4ead c3bd f769 e73c b454 c73c 31a3 523d
00000390: 87b1 3ebc 9908 323d de95 81bd 8681 92bd
000003a0: b372 c7bc 20e4 b43d 9424 80bd 74bc 9dbc
000003b0: fbe2 dd3d a082 aabd cf81 9f3d 7d63 b3bc
000003c0: dd28 89bb ee30 b63a 5062 ed3c dde3 953d
000003d0: db5e 853d db07 62bd b40e 033c a289 903c
000003e0: ce1b 37bd f196 46bd efda b8bb 4921 eb3c
000003f0: 9d6f 883d 1d63 37ba 684c 093d 1485 6f3c

encoder.4.bias f4 [32]
-0.046737842 0.025645627 -0.0026282207 -0.012728919 -0.034138992 -0.037561443 -0.032180194 -0.031613316
0.015879253 -0.020425659 -0.04387069 -0.045558684 0.017323617 -0.011319674 0.03063374 -0.038149644
-0.018940272 -0.07744528 -0.052305505 0.00287098 -0.0017848833 -0.008516357 0.02836007 -0.008090782
-0.07728185 0.04121695 0.0281579 -0.023510847 -0.043135498 -0.0148247 -0.039715353 -0.027643641
00000000: 2e70 3fbd c716 d23c 3a3e 2cbb f58c 50bc
00000010: 54d5 0bbd 07da 19bd 61cf 03bd f77c 01bd
00000020: 3515 823c b653 a7bc c1b1 33bd be9b 3abd
00000030: 42ea 8d3c 2776 39bc 9cf3 fa3c cd42 1cbd
00000040: a128 9bbc a29b 9ebd 4c3e 56bd 0d27 3c3b
00000050: bff2 e9ba 3188 0bbc 6153 e83c 338f 04bc
00000060: f245 9ebd 1bd3 283d 65ab e63c d299 c0bc
00000070: d9ae 30bd 4ce3 72bc 91ac 22bd eb74 e2bc

decoder.0.weight f4 [32, 16, 5, 5]
0.010451683 0.06787394 0.03306229 0.012622457 -0.028076459 0.04659818 -0.058039002 -0.022056868
-0.012340176 0.03741822 -0.022753725 0.08568059 -0.1311093 -0.009031869 -0.093823515 0.03827047
0.057607066 0.020759003 0.054318376 0.049171884 0.05455384 -0.0026037842 0.060222566 -0.038108576
-0.027218077 -0.01756471 0.013252819 0.014023661 -0.03097901 0.07549155 -0.0063766344 -0.09144924
-0.06534107 0.045336317 0.061075773 0.024484348 0.081894636 -0.032528788 0.055668335 0.009998585
-0.03578324 -0.047174007 0.05245822 -0.0036104897 0.08331196 -0.015440028 -0.023856988 0.014862012
-0.012498921 0.0061817416 0.059879538 0.02212992 -0.06567814 -0.012226379 0.04603897 0.010869156
0.0034171876 -0.041571967 0.037263907 0.01843727 0.0567404 -0.0097514335 -0.0940148 -0.029546166
0.08963228 0.029564919 -0.028012747 -0.08334535 0.018925458 -0.019780064 0.053257126 0.018152084
-0.018017575 -0.026831448 0.042064797 0.052329727 -0.0101363305 0.026180526 0.030293869 0.024492793
0.011244453 -0.004246958 -0.050351493 0.036669545 -0.0048685786 0.028443627 0.022968173 -0.078746
0.017425748 -0.031287447 0.014437212 -0.029074559 0.027263917 0.059765853 0.004473672 0.050689343
0.036943417 0.029237593 0.021432215 -0.022418479 0.03429204 0.005137776 0.010811461 0.004444821
0.018184002 0.027132034 0.07080812 -0.0005765418 -0.021479852 0.02262056 0.032379974 -0.03215453
0.023214566 0.0011296509 0.04626161 -0.030638527 0.035275944 -0.044161197 0.0098709 -0.04676822
-0.009576895 0.02394014 -0.02294623 0.0307305 0.04084744 0.043166127 0.025401488 0.045510467
0.040220737 0.036461186 0.039079107 0.040312298 0.03817374 0.026280954 -0.066099115 0.011446627
0.03490012 -0.05204677 -0.0073052905 0.023500212 -0.0010543482 0.004365869 -0.047154408 -0.065157086
-0.06332079 0.0155891115 0.04291156 0.04352849 0.07693472 -0.02622428 -0.0027918487 -0.013938113
0.050205667 0.027285889 -0.03018362 0.038660396 0.03344135 -0.069850236 -0.01705259 0.013334625
0.013401812 -0.023528513 0.034135416 -0.025928989 -0.046026956 -0.0118817855 0.0010497165 -0.015452412
0.03676121 0.025398266 -0.015680203 0.062218037 0.036001805 0.0015375582 -0.018141128 0.05958711
0.039678626 -0.020447142 0.0333261 0.02644356 0.014536404 -0.019257588 0.06716861 0.006966441
0.03825832 0.02070258 0.029921662 -0.063171476 0.00498555 0.02585259 0.01978403 0.009538062
0.0037968422 -0.011949272 -0.032040104 -0.0019490285 -0.019575732 0.04659941 0.021849317 0.050730873
-0.02428391 0.045733314 0.057889745 0.037357472 0.045639906 0.07798837 -0.033622153 -0.027662227
-0.014004321 0.0679499 0.04119937 0.08321202 -0.028966071 -0.0132953385 -0.030442819 0.018740008
-0.022815619 0.021363197 0.017229125 0.09498461 0.0011887294 0.05232739 0.0020243102 -0.013372923
-0.0021370389 0.022825731 0.04080259 0.020001749 -0.012908392 0.10286557 0.071610235 -0.03570738
-0.033815976 0.016315768 0.017639315 0.0033430336 0.058471065 -0.040924348 0.005648004 0.024932157
0.043101482 0.002148282 0.048365034 -0.050721813 -0.023952147 -0.0012222171 -0.00034593212 -0.0076117194
0.001751395 -0.0046232203 0.019781968 0.009996387 -0.0028100691 0.031202003 0.05059262 0.026523365
00000000: 893d 2b3c 7e01 8b3d 536c 073d 6cce 4e3c
00000010: 9a00 e6bc bcdd 3e3d 4eba 6dbd 9bb0 b4bc
00000020: 732e 4abc d943 193d 0566 babc 4e79 af3d
00000030: 8441 06be 67fa 13bc 8b26 c0bd 7fc1 1c3d
00000040: 63f5 6b3d c90e aa3c f27c 5e3d 7568 493d
00000050: d973 5f3d 40a4 2abb f0ab 763d bd17 1cbd
00000060: 72f8 debc dee3 8fbc 5a22 593c 7fc3 653c
00000070: b1c7 fdbc 509b 9a3d 16f3 d0bb bd49 bbbd
00000080: 8ad1 85bd 93b2 393d 972a 7a3d 6693 c83c
00000090: 60b8 a73d e83c 05bd 7b04 643d 1bd1 233c
000000a0: 7291 12bd 8839 41bd 6ede 563d f79d 6cbb
000000b0: 769f aa3d 2cf8 7cbc bb6f c3bc cc7f 733c
000000c0: 46c8 4cbc 3590 ca3b 3f44 753d ce49 b53c
000000d0: 4382 86bd 2651 48bc 5c93 3c3d 8b14 323c
000000e0: e5f2 5f3b 5e47 2abd 0aa2 183d c209 973c
000000f0: 9f68 683d 7ac4 1fbc d58a c0bd cd0a f2bc
00000100: 2191 b73d 2132 f23c fd7a e5bc f8b0 aabd
00000110: 9009 9b3c cd09 a2bc 2524 5a3d aeb3 943c
00000120: 9899 93bc a0cd dbbc 234c 2c3d b257 563d
00000130: da12 26bc 8b78 d63c d92a f83c 1ca5 c83c
00000140: a73a 383c 112a 8bbb 5e3d 4ebd ce32 163d
00000150: 9988 9fbb 9c02 e93c c027 bc3c 9545 a1bd
00000160: 71c0 8e3c 4427 00bd 0e8a 6c3c c52d eebc
00000170: 9458 df3c 0acd 743d e197 923b a19f 4f3d
00000180: fb51 173d ad83 ef3c 9d92 af3c f5a6 b7bc
00000190: cf75 0c3d ca5a a83b 8e22 313c dca5 913b
000001a0: 9ef6 943c 0044 de3c d903 913d 1123 17ba
000001b0: 84f6 afbc c14e b93c dda0 043d 78b4 03bd
000001c0: 792c be3c cb10 943a d07c 3d3d a6fd fabc
000001d0: 827d 103d 5fe2 34bd 8eb9 213c 0890 3fbd
000001e0: 69e8 1cbc 1d1e c43c bbf9 bbbc 88be fb3c
000001f0: a54f 273d f7ce 303d c816 d03c 2f69 3a3d
00000200: 80be 243d 5358 153d 6a11 203d 821e 253d
00000210: 115c 1c3d 284b d73c f95e 87bd a28a 3b3c
00000220: 6ef3 0e3d fe2e 55bd 3861 efbb 8483 c03c
00000230: 0e32 8aba 900f 8f3b fb24 41bd 1471 85bd
00000240: 55ae 81bd 7969 7f3c 08c4 2f3d ee4a 323d
00000250: f38f 9d3d 4dd4 d6bc 73f7 36bb af5c 64bc
00000260: 75a4 4d3d a886 df3c a443 f7bc 5d5a 1e3d
00000270: ccf9 083d a40d 8fbd e0b1 8bbc 7979 5a3c
00000280: 4693 5b3c debe c0bc 94d1 0b3d 0869 d4bc
00000290: c386 3cbd d2ab 42bc a496 893a 1d2c 7dbc
000002a0: ec92 163d 0610 d03c c573 80bc 57d8 7e3d
000002b0: a176 133d e487 c93a b49c 94bc 9d11 743d
000002c0: 0e86 223d c480 a7bc f380 083d 2aa0 d83c
000002d0: 192a 6e3c 17c2 9dbc b28f 893d be46 e43b
000002e0: c2b4 1c3d 7598 a93c 461e f53c 0c60 81bd
000002f0: d35d a33b d0c8 d33c 1e12 a23c 8845 1c3c
00000300: 71d4 783b e1c6 43bc 7c3c 03bd 8b76 ffba
00000310: 495d a0bc 06df 3e3d 57fd b23c 2dcb 4f3d
00000320: 0def c6bc db52 3b3d cc1d 6d3d 2604 193d
00000330: e9f0 3a3d 5eb8 9f3d 62b7 09bd e59b e2bc
00000340: 6172 65bc 5129 8b3d acc0 283d 106b aa3d
00000350: 414a edbc b1d4 59bc 3863 f9bc a584 993c
00000360: d2e7 babc df01 af3c 1824 8d3c 4b87 c23d
00000370: 24cf 9b3a 3f55 563d 4aaa 043b 1b1a 5bbc
00000380: 900d 0cbb 07fd ba3c 9e20 273d b5da a33c
00000390: b87d 53bc 2fab d23d 63a8 923d e741 12bd
000003a0: 9f82 0abd a5a8 853c 5380 903c cc16 5b3b
000003b0: 5b7f 6f3d 4aa0 27bd e412 b93b 863e cc3c
000003c0: 2e8b 303d 31ca 0c3b 6a1a 463d adc1 4fbd
000003d0: 4b37 c4bc cd32 a0ba 395e b5b9 bb6b f9bb
000003e0: 108f e53a 627e 97bb cb0d a23c e3c7 233c
000003f0: 2329 38bb 589b ff3c 353a 4f3d 8747 d93c

decoder.0.bias f4 [16]
0.025892196 -0.036935758 -0.014170416 0.08830952 0.0741608 0.08579837 0.05488572 0.024262337
0.017992334 0.008954999 0.007822329 0.101653814 0.05425926 0.035823315 0.03242523 -0.0060116593
00000000: df1b d43c f349 17bd 082b 68bc 9fdb b43d
00000010: 9ee1 973d 0eb7 af3d d9cf 603d cfc1 c63c
00000020: a964 933c fdb7 123c 3a29 003c e02f d03d
00000030: f53e 5e3d 78bb 123d 51d0 043d 74fd c4bb

decoder.2.weight f4 [16, 8, 3, 3]
0.09770789 -0.005834369 0.04883313 0.06513794 0.11841249 0.085247025 0.0035100083 -0.015376152
0.035635572 0.08463361 0.08125764 0.06696169 0.16618076 0.2448108 -0.01751012 -0.046536807
-0.020632554 -0.13095248 0.10474336 0.10281905 0.024722788 0.04756241 0.0030504484 -0.017035037
-0.038539845 -0.076806195 -0.021251507 0.033646055 0.023230702 -0.11327081 -0.0043693674 0.0004455587
-0.033962388 0.07193059 0.06811218 -0.0006849176 0.028672049 0.08560369 0.026597634 -0.043242022
-0.14952731 0.05976865 0.106983714 0.00535765 -0.07929363 0.036346056 0.09799387 0.075892046
-0.11048932 0.10059079 0.0071485043 -0.06971584 -0.06489702 -0.03427497 -0.06893379 -0.05893808
-0.12762748 0.02918645 -0.082408234 -0.036860228 0.04798669 0.034844186 -0.028553672 0.07385221
0.10190848 -0.073862106 0.21104564 0.28923243 0.083277434 0.024266263 0.02289657 0.023205066
0.040052105 0.055312667 -0.0050711394 0.12512687 -0.013974783 0.0049957363 0.14102747 0.01721771
0.099017255 -0.023924086 0.179495 0.16099568 0.10455126 0.24192277 0.083493 0.072477266
0.19584793 0.081186466 0.14191161 0.15110664 0.032060165 0.11959322 0.14451641 -0.11921852
0.0076905163 0.009895776 -0.17131606 0.103646554 0.04816993 -0.039808117 0.014527115 -0.095304765
-0.07246419 -0.015901804 0.076546535 -0.020515913 0.11379962 -0.05398693 -0.06732867 0.08129496
0.026492743 0.066947274 -0.030358218 0.09558723 -0.025159135 -0.05968769 0.11464823 0.060177345
0.053510875 0.18171471 0.018072562 -0.06145568 0.09346817 0.09348212 0.053281665 -0.038111996
0.0021422121 0.007898148 -0.13559674 -0.07334297 0.024417307 -0.08846995 0.0008559839 -0.0026778698
0.14176446 -0.044568464 0.011499099 0.13009581 0.006575771 0.16365385 0.2110942 0.07021491
0.07498539 0.11688063 0.06810161 -0.019871984 0.07594476 0.088003114 -0.026347902 0.06854427
-0.04637025 0.1378576 0.012357733 -0.054990508 0.02620344 -0.06312975 -0.11682409 0.04126953
-0.07667193 0.02640493 -0.027055552 -0.030704146 -0.12651551 -0.04892884 -0.12941346 0.018689329
0.04205616 -0.026970379 0.1761488 0.04910562 0.09366976 0.13896997 0.13788594 0.128239
0.03778954 0.009509302 0.0140608195 0.09289721 0.03672664 0.06735398 0.13993981 0.09883371
0.024091274 -0.09380055 0.11343277 -0.054955687 0.13322034 0.06713467 0.049705304 -0.09540287
0.022441335 -0.010258043 -0.01539472 0.006189005 0.046184 0.07434923 -0.008623579 0.1450081
-0.027629113 0.05482646 0.027184311 0.19214912 -0.0047916737 0.10947797 -0.0536552 -0.0015039615
0.13282932 -0.11165939 0.19115274 -0.045484528 -0.07147736 -0.02289898 -0.037076496 -0.012449655
-0.0008870269 0.058917917 0.048626207 0.089525014 0.13465932 -0.013571697 0.07148029 0.0707729
-0.02754701 -0.05070899 0.04752506 -0.046092026 -0.13501652 0.22994201 0.16806799 -0.08397956
0.090231135 0.18625723 -0.041049138 0.08202104 0.004818818 0.043094814 0.06802321 0.1633797
0.03216163 0.090491265 -0.12106319 -0.044855516 0.035547588 -0.017310077 0.12528707 -0.06229668
-0.07690087 0.1017015 -0.036036212 -0.06573787 0.06356953 -0.047695052 0.052337572 0.041616835
00000000: 131b c83d 3c2e bfbb 4005 483d 0a67 853d
00000010: 3f82 f23d fe95 ae3d 2b08 663b 41ec 7bbc
00000020: 9bf6 113d 6354 ad3d 686a a63d 3623 893d
00000030: 4a2b 2a3e afaf 7a3e 6271 8fbc 619d 3ebd
00000040: 9a05 a9bc 6818 06be b083 d63d cb92 d23d
00000050: 7287 ca3c cdd0 423d 08ea 473b 108d 8bbc
00000060: f5db 1dbd 914c 9dbd a417 aebc 72d0 093d
00000070: 504e be3c 87fa e7bd e92c 8fbb e099 e939
00000080: 251c 0bbd 5850 933d 667e 8b3d 0b8c 33ba
00000090: a5e1 ea3c fd50 af3d 48e3 d93c 8c1e 31bd
000000a0: b01d 19be f9cf 743d 471a db3d 3a8f af3b
000000b0: b364 a2bd 9adf 143d 03b1 c83d 4a6d 9b3d
000000c0: 3948 e2bd 8b02 ce3d 003e ea3b 2ec7 8ebd
000000d0: bbe8 84bd e963 0cbd 292d 8dbd 0e69 71bd
000000e0: c7b0 02be 6c18 ef3c a6c5 a8bd c0fa 16bd
000000f0: b18d 443d c7b8 0e3d 64e9 e9bc d43f 973d
00000100: 65b5 d03d 0445 97bd 591c 583e 4616 943e
00000110: 5c8d aa3d 0bca c63c 9691 bb3c 8d18 be3c
00000120: ad0d 243d 898f 623d cd2b a6bb 4221 003e
00000130: 7df6 64bc 46b3 a33b 8169 103e 280c 8d3c
00000140: 8fc9 ca3d 72fc c3bc 8acd 373e 0ddc 243e
00000150: f91e d63d 9aba 773e 61fe aa3d f66e 943d
00000160: 5c8c 483e 1745 a63d 4751 113e b3bb 1a3e
00000170: 8551 033d 4aed f43d 1cfc 133e d728 f4bd
00000180: ba00 fc3b e521 223c 7a6d 2fbe a544 d43d
00000190: d54d 453d d60d 23bd 2303 6e3c 252f c3bd
000001a0: 1b68 94bd 8044 82bc 6ec4 9c3d fd10 a8bc
000001b0: c60f e93d 6621 5dbd 9de3 89bd f97d a63d
000001c0: 4f07 d93c a71b 893d ccb1 f8bc 3dc3 c33d
000001d0: 881a cebc 147b 74bd b1cc ea3d 857c 763d
000001e0: 382e 5b3d 6c13 3a3e e90c 943c f3b8 7bbd
000001f0: 3d6c bf3d 8e73 bf3d e03d 5a3d 531b 1cbd
00000200: 5b64 0c3b 3c67 013c dfd9 0abe d734 96bd
00000210: ce06 c83c bc2f b5bd 1b64 603a 337f 2fbb
00000220: b42a 113e 6c8d 36bd b866 3c3c d637 053e
00000230: 9179 d73b e094 273e 1429 583e d6cc 8f3d
00000240: f191 993d 1d5f ef3d db78 8b3d 92ca a2bc
00000250: ed88 9b3d fa3a b43d 8ed7 d7bc f060 8c3d
00000260: bbee 3dbd 8b2a 0d3e 1778 4a3c ba3d 61bd
00000270: 99a8 d63c 2c4a 81bd 7841 efbd 3d0a 293d
00000280: 2c06 9dbd 274f d83c 9ba3 ddbc 4387 fbbc
00000290: 488d 01be 9b69 48bd f684 04be 5d1a 993c
000002a0: 1443 2c3d fcf0 dcbc 5a60 343e f922 493d
000002b0: eed5 bf3d 254e 0e3e f931 0d3e 1651 033e
000002c0: 34c9 1a3d e7cc 1b3c 5a5f 663c e440 be3d
000002d0: ac6e 163d e2f0 893d 624c 0f3e 5469 ca3d
000002e0: 105b c53c 811a c0bd 714f e83d 3719 61bd
000002f0: ea6a 083e e77d 893d ca97 4b3d 9462 c3bd
00000300: e4d6 b73c 5a11 28bc 233a 7cbc 23cd ca3b
00000310: 6f2b 3d3d 6944 983d e949 0dbc 017d 143e
00000320: 7356 e2bc b691 603d a2b1 de3c bdc2 443e
00000330: 7903 9dbb fc35 e03d 8ec5 5bbd 9320 c5ba
00000340: 6904 083e aead e4bd 8bbd 433e fc4d 3abd
00000350: b962 92bd a496 bbbc 86dd 17bd a3f9 4bbc
00000360: 5e87 68ba ea53 713d 462c 473d e458 b73d
00000370: 22e4 093e d35b 5ebc 4264 923d 62f1 903d
00000380: 44aa e1bc 3bb4 4fbd a3a9 423d feca 3cbd
00000390: c541 0abe eb75 6b3e 041a 2c3e 7afd abbd
000003a0: 1acb b83d 37ba 3e3e 2423 28bd a6fa a73d
000003b0: 2de7 9d3b 3084 303d c14f 8b3d 024d 273e
000003c0: eabb 033d 7c53 b93d faef f7bd 6bba 37bd
000003d0: 599a 113d ddcd 8dbc 414b 003e ce2a 7fbd
000003e0: 347e 9dbd e048 d03d b59a 13bd 94a1 86bd
000003f0: be30 823d e35b 43bd ec5f 563d 6a76 2a3d

decoder.2.bias f4 [8]
0.036508087 0.07552788 0.19509593 0.12081696 0.10018835 -0.0032326377 0.05346433 0.08795328
00000000: 8189 153d 5cae 9a3d 3ac7 473e e26e f73d
00000010: 8d2f cd3d a9da 53bb 6afd 5a3d d920 b43d

decoder.4.weight f4 [8, 1, 3, 3]
0.1262176 -0.06358273 0.29132143 0.33027607 -0.111401565 0.06365142 0.16901748 -0.0056685875
0.17320798 -0.2823744 -0.21372114 -0.0010075677 -0.28677827 -0.46990857 -0.42503813 -0.08245972
-0.33182058 -0.2043452 0.16885892 0.055670068 0.045658715 -0.041115604 -0.122025095 -0.31581354
-0.10352941 -0.30695328 -0.3644095 -0.0892201 0.29696646 -0.12622352 0.33727035 0.16658363
0.06066471 0.14104043 0.30379796 -0.09713665 -0.22541137 -0.25679317 0.0026477156 -0.2863297
-0.3488571 -0.1370409 -0.22086468 -0.30636907 0.0036010982 -0.09279568 -0.034104936 -0.23311105
-0.088573456 -0.2686897 0.05271864 -0.2462769 -0.38334972 -0.21817102 0.096001536 0.083918154
0.28644627 0.044954974 0.43205556 0.078617714 0.23669581 -0.039704334 0.15734018 -0.10605937
-0.30851585 -0.10104794 -0.30379742 -0.42791042 -0.3563164 -0.1211359 -0.07422508 0.028515173
00000000: 303f 013e aa37 82bd 1528 953e f219 a93e
00000010: 8126 e4bd ad5b 823d eb12 2d3e 8fbf b9bb
00000020: 6f5d 313e 6193 90be b7d9 5abe 5d10 84ba
00000030: 9ad4 92be db97 f0be 999e d9be a4e0 a8bd
00000040: 63e4 a9be de3f 51be 5ae9 2c3e 4c06 643d
00000050: a204 3b3d d668 28bd 4be8 f9bd 50b2 a1be
00000060: 3a07 d4bd fb28 9dbe e293 babe 07b9 b6bd
00000070: fd0b 983e bd40 01be b3ae ac3e e694 2a3e
00000080: 8f7b 783d e76c 103e 688b 9b3e 94ef c6bd
00000090: 3dd2 66be 657a 83be 4c85 2d3b ce99 92be
000000a0: 669d b2be 7354 0cbe 5a2a 62be 68dc 9cbe
000000b0: 6700 6c3b a90b bebd 9eb1 0bbd aab4 6ebe
000000c0: 0066 b5bd b291 89be 80ef 573d 0330 7cbe
000000d0: 6a46 c4be 3968 5fbe 749c c43d 48dd ab3d
000000e0: 16a9 923e b522 383d 6336 dd3e 5302 a13d
000000f0: 6360 723e 03a1 22bd c91d 213e a835 d9bd
00000100: caf5 9dbe 39f2 cebd 568b 9bbe 1317 dbbe
00000110: 1a6f b6be 1916 f8bd 5203 98bd a798 e93c
