Weights/p1/CNN_classifier_PA3_24100238.pth (torch, 92498 bytes, 37 tensors)

conv_init.weight f4 [8, 3, 3, 3]
000000 e9 d2 13 bb 40 ee b3 bd 8c 45 ee bd b0 ee 8c 3d
       -0.0022556132 -0.08785677 -0.11634359 0.068814635
000010 6d fb 69 3d a1 c2 80 bd c1 41 cc 3e 0a 41 e2 bc
       0.057124544 -0.062871225 0.39893916 -0.027618904
000020 57 66 2a be 38 e4 b2 bd 72 11 9c 3d b0 25 a0 bd
       -0.16640602 -0.087349355 0.07620515 -0.07819688
000030 fc b9 92 be 24 7f 47 3e 8d aa ee be d1 e1 0b 3c
       -0.2865752 0.19482094 -0.46614495 0.008537726
000040 47 2f 8a bd 39 65 c3 bd 30 e4 ab bd fb a8 7a 3e
       -0.06747299 -0.09540791 -0.08393133 0.24478523
000050 cb 0e a3 bc 2c bb 3f be 8f fd 9e 3e 19 b8 39 3e
       -0.019904515 -0.18723744 0.31052825 0.18136634
000060 d5 fb 20 3e c8 4c e1 bd 10 30 6e bd 18 cd fe bc
       0.15721066 -0.11000973 -0.058151305 -0.031103656
000070 36 8f 01 bd 69 c0 11 3e 56 74 f7 3d f6 a8 da be
       -0.031630717 0.14233555 0.12082736 -0.42707032
000080 b5 ce 3b 3d 23 dd 48 3e 3a fa 90 bd b9 df bc bb
       0.045851428 0.19615607 -0.07078977 -0.0057639745
000090 bf 7d a1 3d 0f bb 18 be fb b2 5a bc 00 01 63 3e
       0.07885312 -0.14915107 -0.013348336 0.2216835
0000a0 70 dd 42 be 0b 86 4d 3e 96 e1 bf 3e c9 24 5c bd
       -0.19029784 0.20070665 0.37476796 -0.05374602
0000b0 4e 1b 6d be d8 4c 0c bd 13 01 fc 3d be e6 18 bc
       -0.23154947 -0.03425297 0.123048924 -0.009332357
0000c0 17 77 78 bd f6 8c 82 be fa c2 23 be fa 80 c1 3e
       -0.060660448 -0.2549817 -0.15992346 0.37793714
0000d0 a7 d8 c9 bd 51 00 a8 bd 32 c7 21 bd bf fc e6 bd
       -0.09855776 -0.08203185 -0.039496608 -0.11278676
0000e0 9f ac 5b be 8e dc 01 be 17 78 86 bd 6d 70 06 be
       -0.21452568 -0.12681791 -0.06565874 -0.13128825
0000f0 90 8b d4 bd 5c 36 11 3e af 11 2c 3e a3 7b 84 3d
       -0.10378182 0.14180893 0.16803621 0.06468894
000100 67 5c 4b be 55 85 1a 3e 7f e8 0e bd fb a0 d6 bc
       -0.19859467 0.15089925 -0.034889694 -0.026199808
000110 1a b8 81 3e 24 d6 08 be 0d 55 c5 3d 2f f5 b1 3e
       0.2533577 -0.13362938 0.09635363 0.34757373
000120 86 6d 82 3e 37 0c d8 3b 15 3b 23 be b6 59 b2 3d
       0.25474185 0.006593253 -0.15940507 0.08708517
000130 c4 35 8c be b5 f2 a1 bd 4b 8a 6d bd b8 d0 82 bd
       -0.2738477 -0.07907621 -0.057993215 -0.06387466
000140 a0 b6 10 be 64 9f 13 3e de 90 da bc 71 e1 5d 3e
       -0.14132166 0.14416271 -0.026680406 0.2166803
000150 0b 2c 20 3e a4 0c 60 3e 1c cf 42 3e 7a 63 9b bd
       0.15641801 0.21879822 0.19024318 -0.07587333
000160 22 41 3e be 1f 6a da bd 51 44 10 be 3d 77 a4 3d
       -0.18579534 -0.10664772 -0.1408856 0.080305554
000170 fc a1 76 3e 9e b1 d5 be ac a8 a8 bd dd d6 f1 bd
       0.2408523 -0.41737074 -0.082352966 -0.1180856
000180 c1 01 98 be 3b 59 b1 be dc db 39 bd a1 35 3a 3e
       -0.29688838 -0.3463839 -0.04537569 0.1818452
000190 a5 cf 11 3d 66 32 52 be 54 bc d1 bd f4 6c 4a 3d
       0.035598416 -0.20527038 -0.10240999 0.049420312
0001a0 0e 7c a6 3c 8b ae 91 bb 92 5f f3 bd be 03 a5 bd
       0.020322826 -0.004445856 -0.11883463 -0.080573544
0001b0 5a c9 5f be d1 e7 81 be 94 b5 e6 bd 55 20 bb bc
       -0.21854153 -0.25372174 -0.11265102 -0.022842566
0001c0 69 97 6f 3e 92 94 3f 3e 77 1c 28 3e a9 cd e3 3d
       0.23397602 0.18709019 0.16417108 0.11123211
0001d0 42 e9 71 3e 4d 4b 11 be 62 1e ad bd c4 6f 01 3e
       0.23624137 -0.14188881 -0.08453061 0.12640291
0001e0 6a 33 35 bd b6 b8 34 3e f4 cd 55 be 32 69 22 3e
       -0.044238485 0.17648587 -0.20879346 0.15860441
0001f0 fb 4f 4d be c1 e1 80 be ca 73 0d 3e 72 d1 49 3e
       -0.20050041 -0.25172237 0.13813701 0.19708803
000200 18 3b 95 3c 38 96 c8 bd ce fb 21 3e ed 42 d4 bd
       0.018216655 -0.09794277 0.15818712 -0.103643276
000210 2b e9 48 3e b4 7c be 3d 8b 8a a6 be 20 be 20 bd
       0.19620197 0.09301129 -0.32527575 -0.039243817
000220 93 f2 b4 3e 8f bd e4 3d 98 06 78 bd 79 cf df 3d
       0.3534132 0.11168968 -0.060553163 0.10928244
000230 ec 04 46 bd 41 ba 8f be ec 74 57 be 3c 38 77 be
       -0.048344538 -0.28071788 -0.21040696 -0.24142545
000240 e5 de 84 3e d7 30 56 3e eb 3b d8 3c 28 e8 38 3e
       0.25951305 0.20917068 0.026395759 0.1805731
000250 09 1b 67 bd 21 08 83 be 9c 61 d7 3b 3d da 34 3e
       -0.056422267 -0.2559214 0.0065729152 0.17661376
000260 9a 8c c6 3b 59 c6 7c be e7 32 f1 bd 89 fe 74 3d
       0.0060592415 -0.24685039 -0.11777287 0.059813056
000270 1b 45 29 bd 6d 1d a6 3d 98 cf 18 be 82 a0 03 bd
       -0.04132567 0.08111081 -0.1492294 -0.032135494
000280 98 77 76 bd 82 92 5f 3e 82 2f ee bc 19 1e dd 3d
       -0.060172647 0.21833232 -0.029075388 0.10796756
000290 fd b0 dc bd f0 08 34 be 2d f2 e8 3e 52 b9 ff bc
       -0.10775945 -0.17581534 0.45497265 -0.031216297
0002a0 d3 2d 85 bd ec ba 15 bd f6 34 97 bc ae 8b c9 bd
       -0.06502881 -0.036555216 -0.01845787 -0.09841095
0002b0 d4 cf 3f be 3b 05 23 be 6d d8 42 be 44 56 2b 3e
       -0.18731624 -0.15919964 -0.19027872 0.16732126
0002c0 29 2b 80 3e 6e 0c 1b be 97 a9 19 3e 21 a4 73 3c
       0.2503293 -0.1514146 0.150061 0.014870674
0002d0 cd 78 fa bd a2 61 d1 3d 2b 7b 83 bd 02 b9 68 be
       -0.12230072 0.102237 -0.06419977 -0.22726825
0002e0 65 5a 96 3e a3 68 a0 bc ad 6a 37 be 72 de 02 3e
       0.2936584 -0.019581145 -0.17911787 0.12780169
0002f0 98 82 05 3e bf 53 05 3e e8 c6 b7 bd b0 0d 11 3e
       0.13038099 0.13020228 -0.08973485 0.14165378
000300 26 1e 4a bd ee 67 4a bd 9f a0 55 bc f5 de 80 be
       -0.049345158 -0.04941552 -0.013038783 -0.25170103
000310 27 72 22 be 10 0c 20 be af fc 99 bd 30 0b b0 3d
       -0.15863858 -0.15629601 -0.07518899 0.08595884
000320 d1 cb 4f bc 9d 25 c0 3c 5a 7b 78 3d 66 08 0d be
       -0.012682871 0.023455435 0.060664512 -0.13772735
000330 6f 96 26 bd e5 5f 48 bc cf 1d 32 3c 3b 86 41 be
       -0.04067081 -0.012229894 0.010871365 -0.18898861
000340 87 2e 9b be 44 4f a5 bd 3a 3e 70 3e 8f 1f 98 3e
       -0.30308935 -0.08071759 0.23461238 0.29711577
000350 7d 67 12 3e 33 d4 a5 3c dc 5a f0 3e bc 14 31 3d
       0.1429729 0.020242786 0.4694432 0.043232664

bn_init.weight f4 [8]
000000 fc 76 33 3f 2a fb 74 3f 47 6f 0f 3f 01 68 35 3f
       0.7010343 0.95695746 0.5602917 0.7086182
000010 d3 cc 3c 3f 06 82 43 3f bd 8c 91 3f 1e 36 5d 3f
       0.73750037 0.76370275 1.1371075 0.864107

bn_init.bias f4 [8]
000000 6b 88 07 3e 4d 56 dc 3e ba b4 5c 3d e8 96 2a be
       0.13235633 0.43034592 0.05388329 -0.16659129
000010 4f 0e 3e 3e a7 b4 71 3e 90 9e ff 3e 40 20 58 3e
       0.18560146 0.2360407 0.4992566 0.21106052

bn_init.running_mean f4 [8]
000000 90 03 a1 bc a2 ca 93 3c d3 d5 23 3d 1e a3 66 3d
       -0.019655019 0.018040959 0.03999884 0.056307904
000010 70 f7 af bc 33 fc a2 3c eb ec 82 bb a6 73 82 bd
       -0.021480292 0.019895649 -0.003995528 -0.063697144

bn_init.running_var f4 [8]
000000 9a 09 70 3d 54 52 8c 3d c0 a1 6a 3d 10 6c 6f 3e
       0.058602907 0.0685164 0.057283163 0.23381066
000010 b2 1d 16 3d f5 66 1f 3d 65 4b 7f 3d 65 97 51 3d
       0.036649413 0.038916547 0.06232776 0.05116977

res_block1.conv1.weight f4 [8, 8, 3, 3]
000000 ef 06 a2 bd 96 aa 78 3a f3 44 32 3e 5e 04 be 3d
       -0.07911479 0.00094858685 0.17409115 0.09278177
000010 9d 8d 21 bd 47 13 2e 3e cd 06 b0 3b 06 50 e0 bd
       -0.039441694 0.16999541 0.0053719045 -0.10952763
000020 76 29 46 bc 7d c1 dc bd f8 00 06 3e 8e a9 3a 3e
       -0.012094846 -0.107790925 0.13086307 0.18228742
000030 0a 6e 10 bf f7 50 17 be 95 ff 23 3e 94 58 41 3e
       -0.56417906 -0.1477698 0.16015466 0.18881446
000040 55 dc 47 bd fa f6 c0 3e 48 4f 34 3e 53 19 ef ba
       -0.04879411 0.37688428 0.17608368 -0.00182418
000050 29 d7 58 be 2c 5e ab 3e ed e9 07 bd 54 14 81 be
       -0.21175827 0.33470285 -0.033182073 -0.25210822
000060 11 81 49 3e b7 d2 39 bb 04 c4 33 be 5c 39 64 3d
       0.19678141 -0.0028354356 -0.17555243 0.055718765
000070 21 6f 09 3a 79 34 15 3d 77 0c 7e 3b b9 7e ed bc
       0.0005242695 0.036426995 0.0038764754 -0.02899109
000080 0b 6d 2e bd 6d e5 b4 3b af 3f 00 3e 1f ef b3 bd
       -0.04258446 0.0055205137 0.12524293 -0.08785843
000090 1d 0a aa bd 4f 27 18 3d 26 74 57 3c cb d4 02 be
       -0.0830271 0.037146863 0.013150251 -0.12776487
0000a0 bd 90 75 3d 4f e9 04 be dc 0c 55 bc f0 b5 5c bc
       0.059952486 -0.12979625 -0.013003554 -0.013471112
0000b0 96 92 9a bd 2d d1 81 3d 93 dc e1 bc 4f a4 43 bd
       -0.0754749 0.06338725 -0.027570998 -0.04776412
0000c0 c7 ec 67 3e 88 f0 02 bd 8c 42 1f be 2b 88 89 3e
       0.22648917 -0.03196767 -0.1555273 0.268617
0000d0 fa d8 93 3d 3f 66 ec bd 07 39 e6 3c e5 3d af bd
       0.07219119 -0.115429394 0.028103365 -0.08556727
0000e0 b2 50 36 bd d6 a4 a8 3e 89 98 00 be 00 1c ba be
       -0.04451055 0.3293826 -0.12558188 -0.36349487
0000f0 5c 21 33 3e 96 e9 3b 3e 8c 18 5f be 5e a0 37 3e
       0.17493194 0.18350825 -0.21786708 0.17932269
000100 e7 8b c9 3d dc 48 1d bd bd 7a 6d 3d f3 14 e3 3c
       0.098411374 -0.038399562 0.05797838 0.02771995
000110 68 f1 02 be 20 57 45 bd 6c 12 b2 bd 70 50 1e 3d
       -0.12787402 -0.048178792 -0.0869492 0.03865093
000120 96 7c da 3c 75 9c 17 3e bd e9 39 be 33 bf 6f 3e
       0.026670735 0.14805777 -0.1815557 0.2341278
000130 46 16 23 bd 46 81 f9 bc 7b 6d dd bc 6c 27 14 be
       -0.039816163 -0.03045715 -0.027029743 -0.14468163
000140 8f 81 60 be 30 08 6a 3e b0 a5 ee bc 41 d0 df bd
       -0.21924423 0.22854686 -0.02913174 -0.10928393
000150 03 c7 34 be ee de 8a 3e eb d0 17 be 4d d5 92 be
       -0.17654042 0.27123207 -0.1482579 -0.2867836
000160 ec d2 13 bc 92 86 3c 3e 4e 40 cc bd e6 88 39 3d
       -0.009022456 0.1841071 -0.09973203 0.045296572
000170 8d 37 d3 3e 6f 39 93 be f5 73 60 3d 1f 0c d1 3d
       0.4125332 -0.28754756 0.054798085 0.1020739
000180 34 cb e9 bd 07 86 85 3d 18 a3 88 3d 7b c6 89 bd
       -0.11415711 0.06519704 0.06671733 -0.0672731
000190 a0 6b 01 3e 02 66 bf 3e 20 b0 37 bd 45 b4 e8 bd
       0.12638712 0.37382513 -0.0448457 -0.11362509
0001a0 47 a5 84 3e 02 1b da bd f3 ab 29 bd 5d 77 6d bd
       0.25907347 -0.106496826 -0.04142375 -0.05797516
0001b0 5c 85 49 be 38 c3 2f 3e d4 3d a8 bd 70 ee 19 3a
       -0.19679779 0.17164314 -0.08214918 0.0005872017
0001c0 9b 73 e1 bd 16 fe f5 bb 0d d7 32 bc f2 24 e9 bc
       -0.11008378 -0.007507096 -0.01091553 -0.02846
0001d0 62 9d 25 3e eb fa 04 bd 06 33 97 bd 08 35 d4 3d
       0.16173318 -0.032465857 -0.07382779 0.103616774
0001e0 5a fe cc bb c7 d3 d4 bd cf 61 a7 3c b5 d5 ab bd
       -0.006255907 -0.10391956 0.020432381 -0.08390371
0001f0 76 91 dd 3d e7 a5 04 be 61 3c 14 be bb 7b db 3d
       0.1081876 -0.12953912 -0.14476158 0.10716959
000200 9e 86 a8 3c 11 1c ee bc 38 d5 b3 be ad 62 53 3e
       0.020572003 -0.029066117 -0.3512361 0.2064311
000210 a0 ba bd 3c b1 2e 53 be a8 56 84 bd e3 0a 1d 3e
       0.023160279 -0.2062328 -0.06461841 0.15336184
000220 f8 bf 93 bd 8f bd f6 bd ad 2e 43 3e a7 4a 3f be
       -0.072143495 -0.12047874 0.19060774 -0.18680821
000230 17 f9 0a bc 6d 50 d6 3d c4 54 15 3e 3b 15 89 bc
       -0.008482239 0.10464559 0.14583117 -0.016733756
000240 b2 af d5 bd 7e e4 6e 3e df da bf bc 90 d5 96 3e
       -0.10433902 0.2332935 -0.023419796 0.2945981
000250 b9 5d 3c be d5 3c 3e 3e d4 39 e8 3c 7d 1e 66 be
       -0.18395127 0.18577893 0.028347887 -0.22472568
000260 49 4c 03 bd 39 ff 92 bd f5 6a 7f 3b e5 21 b3 be
       -0.032055173 -0.07177586 0.0038973663 -0.34986797
000270 70 7b 77 bd b4 91 09 bd e9 5f fc bd 68 fa 23 3e
       -0.060420454 -0.03358622 -0.12322981 0.16013491
000280 b3 cd 85 bd f5 df d8 3d 83 eb 29 be b1 7d af bd
       -0.06533375 0.105895914 -0.16593747 -0.085688956
000290 bf 81 f3 3d d1 46 1c be 7c 29 35 bc 53 db bb bb
       0.118899815 -0.1526139 -0.011057254 -0.0057329326
0002a0 99 70 a4 bd d7 43 9c bb b5 e0 d5 bd 28 8e 8c bd
       -0.08029289 -0.0047688293 -0.1044325 -0.06863052
0002b0 3e fb b2 bc db 42 ed 3d ed 8b 31 3e 05 6f fb 3b
       -0.021848317 0.11585017 0.17338534 0.0076731467
0002c0 74 1c a9 bd 2b 5a 3a 3e b1 fb 5c 3e 2c 8f c7 3d
       -0.0825738 0.18198459 0.21580388 0.09744105
0002d0 9f 39 43 3e 25 74 c6 bd 03 07 41 bd ea 5d 77 3d
       0.1906495 -0.096901216 -0.047125828 0.060392298
0002e0 0b 2f bb bd e8 0f ea 3d bd b7 1b bb 0a 77 0c be
       -0.09139832 0.11428815 -0.002376064 -0.13717285
0002f0 46 ae 0d be ea bb 0a 3e ee 46 3f 3e 63 5e 8a be
       -0.13836011 0.13548246 0.18679401 -0.27025136
000300 b6 6b 21 3d ee 12 33 be 88 d6 95 be 4c 9c 4f 3e
       0.03940936 -0.1748769 -0.29265237 0.20274466
000310 98 1d c3 bd 52 1f 40 3e fe 0a bf bd 1d 83 99 be
       -0.09527129 0.18761948 -0.093282685 -0.29982844
000320 cd af 44 bc 83 50 d1 3d 74 c0 4b be 83 75 4f 3d
       -0.012004805 0.102204345 -0.19897634 0.050649177
000330 dc 6b 30 be aa 04 70 3e 9c 0a 67 3e 2d 93 85 3e
       -0.17228645 0.23439279 0.22562641 0.2608885
000340 04 dd c5 3d 50 cd 0f 3e 0d 11 72 3d b1 01 5b be
       0.09661296 0.14043164 0.059098292 -0.21387364
000350 37 7b 39 bd 1c 7a 52 bb 8b 52 5c be 40 61 53 3c
       -0.045283522 -0.003211624 -0.21515863 0.012901604
000360 54 ef 8d be 9c 2a a1 bc 8e 45 84 bc a5 7b b5 bc
       -0.27721655 -0.019673638 -0.016146448 -0.022153685
000370 d3 d0 aa bd c8 94 f4 bb 82 a0 98 3e 2a 55 3c 3d
       -0.08340611 -0.007464025 0.29809958 0.045979656
000380 eb 69 2a be 94 e0 50 be c4 5c 86 bd 65 41 16 be
       -0.16641967 -0.2039817 -0.065606624 -0.14673384
000390 c5 34 ac be 31 da 8b bd ce 87 03 be 0e 76 24 be
       -0.3363401 -0.06828726 -0.12844774 -0.1606066
0003a0 8c 93 0d bd 69 50 42 3e af f8 15 be 18 41 b4 bd
       -0.03456454 0.18975987 -0.14645647 -0.08801478
0003b0 19 de 9c 3d 1c 71 25 be 99 9b d9 bd 6b 93 e8 bb
       0.07659549 -0.16156429 -0.10625381 -0.0070976517
0003c0 08 68 8f be 8e 1a f0 bc d8 ae 9c 3d 31 52 99 3d
       -0.28009057 -0.029309537 0.07650536 0.0748638
0003d0 88 63 a4 3c 33 a3 a0 be 2e f4 53 3e 6b 00 c8 bd
       0.020066991 -0.3137451 0.20698616 -0.09765705
0003e0 bf 91 0d be 46 fc bb 3c 4d 4d 7c 3d fb 92 2c be
       -0.13825129 0.022947442 0.061597157 -0.16852944
0003f0 ea 17 2b bc fe 3f 9a be 62 e9 cd 3b 19 a3 7b be
       -0.010442713 -0.30126947 0.006283925 -0.24573936

res_block1.bn1.weight f4 [8]
000000 66 e6 79 3f 20 5e 94 3f 68 fc 9a 3f 1e 98 64 3f
       0.97617185 1.1591225 1.2108278 0.8929461
000010 a2 33 90 3f b4 16 64 3f 94 a7 46 3f ec 67 41 3f
       1.1265757 0.8909714 0.77599454 0.755492

res_block1.bn1.bias f4 [8]
000000 a8 b9 67 bd 34 7b ee bd 01 91 9b 3d f4 23 af be
       -0.05657354 -0.11644593 0.07596017 -0.34207118
000010 58 3b 58 3f 80 c1 20 bd 8b dd 93 be fa e5 85 3d
       0.8446555 -0.039247036 -0.2887996 0.06538005

res_block1.bn1.running_mean f4 [8]
000000 91 e1 ca 3d 54 ba ab be 18 5b ae be c5 5d 2e bf
       0.09906305 -0.33540595 -0.34053874 -0.6811183
000010 8e cb 31 bf d2 2a 6f 3d 4c e9 ce 3f 76 b2 b8 3c
       -0.69451225 0.058390446 1.6164947 0.022546034

res_block1.bn1.running_var f4 [8]
000000 4f b7 a5 3f ea 1c 18 3f b3 78 0b 3f 61 9e 4b 3f
       1.2946566 0.5941912 0.5448105 0.7953854
000010 2e 76 3d 3f c0 71 4a 3f a3 c6 76 3f 56 61 dc 3e
       0.7400845 0.7907982 0.96396846 0.4304301

res_block1.conv2.weight f4 [8, 8, 3, 3]
000000 4a 47 74 3d fe 10 1c 3e 62 51 a2 bd f6 60 9b bd
       0.0596383 0.15240857 -0.07925679 -0.07586853
000010 3e ac bc bd ce ea 28 bf 13 a3 76 be 19 1c 16 be
       -0.0921254 -0.65983284 -0.24085645 -0.14659156
000020 ce 6e bd be f0 7d db 3e 78 c7 e3 3d f5 b9 22 3e
       -0.369986 0.4286952 0.1112203 0.1589125
000030 4b 46 7b 3d b1 88 32 3e 6f 93 b9 3d cf e3 8d bd
       0.061346333 0.17434956 0.09061324 -0.06928217
000040 28 3a 08 3e 42 aa 89 3c c9 da 62 be 00 1e 63 3d
       0.13303435 0.016804818 -0.22153772 0.055448532
000050 8b c2 0f 3e 1d 55 c9 bd dd ae 33 be 21 f4 d5 bd
       0.14039056 -0.09830687 -0.17547174 -0.104469545
000060 e6 8d 2d 3c 06 84 34 be f7 9b 96 bd 41 ae 3f bc
       0.010592913 -0.17628488 -0.07353967 -0.01169926
000070 ab 14 80 3e 6d 20 93 3d cb 9b 71 3e b9 c3 2f 3e
       0.25015768 0.07183919 0.23594587 0.17164506
000080 cf 2d 0c be ad 3b 41 bc ef b3 a1 3b 48 f0 41 be
       -0.1368935 -0.011794013 0.00493478 -0.18939316
000090 24 30 b5 3d ce 14 77 3e df b5 35 be ac bd 51 bd
       0.08847073 0.2412903 -0.1774516 -0.051206276
0000a0 e1 48 9c bd 73 e6 8b be 86 48 e0 bc 1d 65 c8 3d
       -0.07631088 -0.27324256 -0.027378332 0.09784911
0000b0 a4 2b 11 be 8b fe 98 3d cd ac 93 bc 7a be 67 be
       -0.14176804 0.07470425 -0.018026734 -0.22631255
0000c0 07 22 85 bd 56 32 89 3d 1b 4a f1 bc e5 b9 b1 3d
       -0.06500631 0.06699054 -0.029454282 0.08678035
0000d0 a7 3e 2d 3e a1 54 e7 bc fa 97 1e 3e a8 1a f5 3d
       0.16918431 -0.028238596 0.15487662 0.11967975
0000e0 4f 8d 49 3e f2 28 0a be 3f d7 d8 bd 76 4c 14 be
       0.19682811 -0.13492182 -0.1058793 -0.14482293
0000f0 fe f3 64 3d e1 35 74 3c 88 bc 1b be ff c5 8a bd
       0.05589675 0.014905424 -0.15208638 -0.06776046
000100 0b 28 2c be 44 3a 85 3d 13 f7 d2 bd ab f9 dc bd
       -0.1681215 0.06505254 -0.10301032 -0.10789808
000110 b5 2f f0 3d 7e 66 34 be cb 7f cf bd 9c 55 d9 3d
       0.117278494 -0.17617223 -0.101317964 0.10612032
000120 4b 63 c5 bd 4f 10 cb bd 75 ef a9 bd 6a 04 9a 3d
       -0.09638079 -0.0991522 -0.08297626 0.07520373
000130 81 47 25 be e2 fd 8d bd 62 cc 9d bd 08 64 fc 3c
       -0.16140558 -0.0693319 -0.077049986 0.030809417
000140 39 d1 f7 bd 23 57 1a bd 93 b8 40 be 3e c5 59 3e
       -0.12100453 -0.037680756 -0.1882041 0.21266648
000150 4d 2b 05 be d5 9f 3b bd ad a1 50 bd 79 b7 ae 3d
       -0.13004799 -0.045806725 -0.050935436 0.085310884
000160 f1 57 0e 3e eb 93 98 3d 3d 80 ac be 65 86 8d 3d
       0.13900734 0.07450088 -0.33691588 0.06910399
000170 b7 f2 1d 3e 4c a9 71 bd 54 a4 ba 3e 05 d2 65 bd
       0.1542462 -0.058999345 0.36453497 -0.056108493
000180 c9 c3 92 3e 18 76 90 3e 0d a7 76 bd 81 e4 03 3e
       0.28664997 0.28215098 -0.060217906 0.12880136
000190 59 31 b7 be 3e 87 44 be 51 37 8c 3c cb 53 ab bc
       -0.35779837 -0.19192216 0.01711622 -0.020913979
0001a0 33 d0 b4 bd be 2f 48 3d 78 a7 3f 3e 21 6b f9 bc
       -0.08828773 0.048873655 0.18716228 -0.03044659
0001b0 9c a4 0c 3d fd ec 0c bd 57 53 52 be a9 10 39 3e
       0.03433667 -0.034405697 -0.20539604 0.18072762
0001c0 4a b2 91 be e9 4f 02 3d 2e 16 5a 3e c6 8b a5 3c
       -0.28456336 0.03181449 0.21297523 0.02020825
0001d0 c5 40 8c 3c 34 ac d5 3d 16 93 82 bd 89 d5 ac bd
       0.017120728 0.10433236 -0.06375711 -0.08439166
0001e0 08 96 ba bd 61 f3 f0 3d 77 e6 ad bc 24 68 72 3c
       -0.091106474 0.11765171 -0.021228058 0.014795337
0001f0 ca f2 6c 3d 49 9e 10 3c 2e 26 80 bd 7f 14 6e 3d
       0.05784873 0.008826801 -0.06257282 0.058125015
000200 a9 97 ae 3d 2a d3 c5 be 8e a0 dd bd e2 80 96 bd
       0.08525021 -0.38637668 -0.10821639 -0.07348801
000210 cf 64 00 be bc 30 15 bd 7d cc e0 3d 0b af 52 3d
       -0.12538455 -0.03642343 0.10976503 0.051436465
000220 b2 69 18 bc 23 c1 06 3c 0e 9d a3 3e 1b 2f 7c bd
       -0.0093025435 0.008224758 0.3195576 -0.06156836
000230 65 10 16 3e 97 4e ea 3d 5b 09 66 3e 2a 7b be 3d
       0.14654692 0.11440771 0.22464506 0.093008354
000240 37 4e 05 bc 09 1c 90 bd e3 b5 f6 bc 81 6c 9e bd
       -0.008136324 -0.07036597 -0.030116027 -0.07735539
000250 5f aa 03 3d 90 21 40 be f9 91 f0 bd c1 a9 17 be
       0.0321449 -0.18762803 -0.11746592 -0.1481085
000260 06 c2 5e be 21 51 02 bd 22 de 14 be fe f4 62 bd
       -0.21753702 -0.03181565 -0.14537862 -0.055409424
000270 59 2b 96 bd 39 a3 e0 3c 47 60 69 be 5f 61 5f be
       -0.07332487 0.02742158 -0.22790633 -0.21814488
000280 ff e0 00 be 97 6f 29 3d d7 e1 67 3e 53 35 02 3e
       -0.12585829 0.041366186 0.22644745 0.12715654
000290 fb 62 90 3d d6 86 2c be 33 89 6b be d0 41 0a bd
       0.07050129 -0.16848311 -0.23001556 -0.03375417
0002a0 9c 39 47 3d 77 29 fd 3d 19 84 d7 bc c7 6c 16 3e
       0.048638925 0.123614244 -0.026308106 0.14689933
0002b0 4c 26 dd 3b b1 c5 53 be 17 6a 67 bc 85 a4 d9 bd
       0.00674895 -0.20680882 -0.014124415 -0.10627083
0002c0 4e 81 9e 3c 8f bc b3 bd 29 62 90 bd a9 3c 04 be
       0.019348767 -0.08776199 -0.070499726 -0.12913765
0002d0 2d 44 47 3d 48 7c 98 3e 2f 41 eb 3d b6 f7 1f 3e
       0.048649002 0.2978232 0.11487042 0.15621838
0002e0 49 b4 2b be 94 1d 43 be 92 92 c5 bd bc e0 b0 bd
       -0.16767992 -0.19054252 -0.09647097 -0.08636615
0002f0 bf a9 22 3e 02 74 27 3e f4 2a 66 3e 55 14 8e 3e
       0.15885065 0.16352847 0.22477323 0.27749887
000300 9b 5e 9e 3e 49 eb b1 3e 48 b5 9f 3d b5 41 61 3e
       0.30931553 0.3474982 0.077982485 0.21997721
000310 5b a6 3a 3e 0e cf 4f 3e d3 24 55 bd 9b 07 d4 bd
       0.18227522 0.20293829 -0.05203707 -0.10353013
000320 ae 3d 45 be 7f e2 2f be 2a 96 09 3e f1 5d 80 be
       -0.1926181 -0.17176245 0.1343619 -0.25071672
000330 a9 15 a7 bd 2d aa e8 3d 5e 30 df bd 92 1a a0 bd
       -0.08158428 0.113605835 -0.10897897 -0.07817568
000340 37 7f 36 bd 65 4a ab 3d b0 0b 3c be 93 1c 69 be
       -0.044554915 0.08363799 -0.18363833 -0.22764806
000350 18 74 dc bb a8 2d 34 3e 62 84 e2 3c 0c cc 3f 3e
       -0.0067277066 0.17595541 0.027651016 0.18730181
000360 4c 47 1a 3e c1 9c fd bd 1f 9b 4a bd e2 ee 80 be
       0.1506626 -0.12383414 -0.04946434 -0.25182253
000370 01 fa f4 bd 9f 39 b6 bc 0b da ce 3d d4 7f e8 3d
       -0.11961747 -0.022244273 0.10100182 0.11352506
000380 33 a3 0c be fa f3 a6 be 0a d9 81 be 2e 70 bb bd
       -0.1373413 -0.32608014 -0.253609 -0.09152256
000390 be b5 aa bd 71 19 ee 3d 0a 9f 52 bd 5e 03 5c 3d
       -0.08335446 0.11625946 -0.051421203 0.05371415
0003a0 d7 ab c9 3c ec 7f 84 3e fe a4 e1 bd a7 43 7b bc
       0.024618072 0.25878847 -0.11017798 -0.015335954
0003b0 ef 57 19 be 8b 23 03 bd b7 22 83 3d d2 e2 bc 3d
       -0.1497495 -0.03201632 0.06403106 0.0922295
0003c0 82 01 1d 3e d4 ce 12 bd 6f 01 2b 3c a2 b4 b4 3e
       0.15332606 -0.035841778 0.0104373535 0.35294062
0003d0 1f 2f be 3e 74 cd f3 3d 69 16 c1 ba 16 89 58 3e
       0.37145326 0.119044214 -0.001473141 0.21146044
0003e0 8f ab 33 3d d1 8b b9 bd 37 ba 25 3e 97 85 81 3d
       0.043864783 -0.09059871 0.16184317 0.06324308
0003f0 82 e2 d5 3d 6a 71 7e 3e db 53 83 3d 62 a5 a6 3d
       0.104435936 0.24847952 0.064124785 0.08137013

res_block1.bn2.weight f4 [8]
000000 d5 35 89 3f 61 30 85 3f 7b 91 8d 3f 75 80 82 3f
       1.0719553 1.0405389 1.1060022 1.0195452
000010 d5 58 72 3f 47 85 ad 3f 08 f3 a0 3f 3e 28 31 3f
       0.94666797 1.3556298 1.2574167 0.6920203

res_block1.bn2.bias f4 [8]
000000 3a 69 94 3d de ba b0 3e f0 8d 94 3c e2 dd a3 3e
       0.07246633 0.34517568 0.018134087 0.3200522
000010 33 3f 89 3c a0 ca 51 3e 25 b1 40 bd 86 e4 97 3d
       0.016753769 0.20487452 -0.04704394 0.07416634

res_block1.bn2.running_mean f4 [8]
000000 ce ac 42 bf 3d 09 5e 3e e4 f2 bc 3d e2 ef 41 bf
       -0.7604493 0.21683212 0.09226015 -0.7575666
000010 24 d4 6a 3f 7a 24 71 bf 7b c4 bd bd 85 de 61 bf
       0.9172995 -0.94196284 -0.09265991 -0.8823016

res_block1.bn2.running_var f4 [8]
000000 9b ae 99 3f c2 93 52 3f 24 6a 1c 3f f2 ce 60 3f
       1.200641 0.8225671 0.6109946 0.87815773
000010 01 3b 7c 3f 54 70 48 3f 6d b8 2a 3f 2c be 2c 3f
       0.9852753 0.782964 0.6668766 0.6747768

res_block2.conv1.weight f4 [16, 8, 3, 3]
000000 a8 51 f3 3d 08 18 11 3d 25 e4 88 bc ac cd 47 3e
       0.11880809 0.03542331 -0.01671035 0.19512051
000010 8f 2c 97 3e 56 41 57 3e 8d 6e 44 3e 2c ff 02 3f
       0.29526183 0.21021017 0.19182797 0.5117061
000020 c3 83 6f 3e 3f 49 0b 3e f4 18 04 3e 84 01 c8 3d
       0.23390107 0.1360216 0.12900144 0.09765914
000030 78 d3 f0 3d 56 57 a2 bd 46 94 ad 3c d7 16 50 be
       0.117590845 -0.07926814 0.021188866 -0.20321213
000040 02 31 71 be 91 38 1f be 8e 33 e8 bd d4 f7 f3 3c
       -0.23553851 -0.15548922 -0.11337958 0.02978126
000050 2d a4 42 3c 5e 81 f7 3d 0a 36 21 3e 83 c2 2c bd
       0.011879963 0.12085222 0.1574327 -0.04217769
000060 e6 fd c8 3d d8 e1 b5 3d 2e 26 d9 bd 37 d1 93 be
       0.09814052 0.08880967 -0.10602985 -0.28870556
000070 2f 42 cd bd c3 6a d1 3d c5 9c 43 bd 1a fa 05 be
       -0.10022389 0.10225441 -0.04775693 -0.13083687
000080 7b da 95 3c 30 e1 8c be ad 6c 6e be c8 df df 3d
       0.018292656 -0.27515554 -0.23283644 0.10931355
000090 74 bd 7e bd 19 b5 ae bd a1 ae 89 be c8 87 35 ba
       -0.062192395 -0.085306354 -0.26891044 -0.0006924835
0000a0 45 66 29 be b1 b4 03 bd 0a 5c e0 3c f3 87 a3 3d
       -0.16542919 -0.032154743 0.027387638 0.07984915
0000b0 c1 46 e4 bc 11 d9 7c 3d 72 a9 ef 3d 01 14 df 3d
       -0.02786577 0.06173045 0.11702241 0.10892487
0000c0 a1 56 8a 3d c4 cb 89 3d 40 7e 15 be 2a 69 89 3d
       0.067548044 0.06728318 -0.14598942 0.067095116
0000d0 d1 7c a2 3d f3 dd 63 be 09 f3 e2 3d ab 72 a5 3e
       0.07933963 -0.22252636 0.110815115 0.32314047
0000e0 45 f0 29 3e 4a 9c f9 3d fd 10 54 3e ec 59 88 3e
       0.16595562 0.12188013 0.20709606 0.26631105
0000f0 dc 4d ca 3d 43 d5 e3 3d 42 4f 62 3c 10 70 9d bd
       0.09878132 0.11124661 0.013812842 -0.0768739
000100 4b 79 dd bd 6c 74 9b 3d 26 df 13 3d 2b 0f 88 3d
       -0.108141504 0.07590565 0.036101483 0.06643518
000110 ad bd cc bd bd e5 35 bc 1e 39 e9 bc a3 11 dc 3d
       -0.09997115 -0.011102137 -0.028469618 0.107455514
000120 1a 1c 0f 3e 9f c8 a1 3d 52 56 f2 bc e9 94 18 3e
       0.13975564 0.078995936 -0.029582176 0.14900555
000130 12 73 86 bd 33 47 0b 3d cc e8 86 3d aa ea d0 bc
       -0.06564917 0.034003448 0.06587371 -0.025502522
000140 71 51 59 bb 0a 56 12 bd d4 64 01 be fb a7 11 be
       -0.0033160115 -0.035726584 -0.12636119 -0.14224236
000150 25 f0 85 be 14 a7 65 be db 5d 3c be 74 b6 b6 bd
       -0.26159778 -0.22427016 -0.18395178 -0.08921519
000160 1d ab 53 be 79 59 25 be 45 8d 3b 3d 05 3b 3e 3d
       -0.20670743 -0.16147412 0.045789022 0.046443004
000170 e4 5c 47 3c 35 3a 3a 3e a5 7f 02 3e f9 2b 91 3d
       0.012168143 0.18186267 0.12744005 0.07088465
000180 4d fe dc 3d fe 6c 31 3e ee a2 b4 3d 41 19 d3 bb
       0.107906915 0.17326733 0.08820139 -0.0064422195
000190 d3 9a c9 bd d6 ce 75 be 12 08 2f be bc d1 fb bd
       -0.098439835 -0.24004683 -0.17092922 -0.12295863
0001a0 d0 19 e7 bd ad b3 8c 3e 8f 28 fb 3c c0 3d 34 3c
       -0.1128422 0.27480832 0.030658988 0.0110010505
0001b0 a9 a8 09 be 52 c4 44 be 68 e1 22 bd 7d 91 24 be
       -0.13443245 -0.19215515 -0.039765745 -0.16071124
0001c0 a6 0d 9d be 97 82 03 be 34 b8 ad be 9e 23 bb be
       -0.30674475 -0.12842785 -0.33929598 -0.3655061
0001d0 cb e0 68 be c5 87 d2 3d d4 60 a0 3c dd 45 b7 3c
       -0.22742002 0.10279802 0.019577421 0.02237218
0001e0 81 54 2d 3e 9a 44 00 3e 6e bd b7 3d 16 2f ae 3d
       0.16926767 0.1252617 0.08971678 0.08505075
0001f0 10 98 46 3e 0f ee 7e 3e 2b 50 99 bd 68 2c 13 be
       0.19393945 0.248955 -0.07485994 -0.14372408
000200 f2 22 b8 3d 5c 55 66 be 46 fe a5 be b7 4e 91 bd
       0.0899104 -0.224935 -0.32420558 -0.07095092
000210 80 87 f1 bd c1 55 8b be 02 10 56 be 3e b6 ba 3c
       -0.11793423 -0.27213863 -0.20904544 0.022791978
000220 cc ef 6b 3e ed 43 78 3e 62 79 4e bd f5 e7 8a bc
       0.23040694 0.24244662 -0.05040873 -0.016956309
000230 c2 e6 3c 3e d0 df f0 bd 0a 13 49 bd 00 3c 78 3d
       0.18447402 -0.11761439 -0.049090423 0.060604095
000240 be ff 15 be e9 04 a8 be 57 86 dd bd 87 ec 53 be
       -0.14648339 -0.32816246 -0.10816639 -0.20695697
000250 c4 d1 2f be 01 7a 2f bd 9f 2a 88 be 59 2c 05 3d
       -0.17169863 -0.04284096 -0.26595017 0.032512996
000260 30 7b 52 3e f0 b6 bb bd 58 80 0f 3e 68 15 a1 bd
       0.20554805 -0.09165752 0.14013803 -0.07865411
000270 af 09 58 3d 12 d3 1b 39 e2 3d 9d 3c 3e 6f 41 be
       0.05274361 0.00014860582 0.019194547 -0.18890092
000280 be 34 80 bd 9b b8 17 3e 48 1e 6b 3e 84 aa 23 3e
       -0.0626006 0.14816515 0.2296077 0.15983015
000290 1a bc ff 3b 62 bf a0 3d 89 72 89 3d 7f 62 c5 3b
       0.007804406 0.078490034 0.06711299 0.0060237045
0002a0 e8 3e be 3c 0a 14 8b bd 55 b1 48 3d c9 f7 21 be
       0.023223355 -0.067909315 0.048997242 -0.15817179
0002b0 ac 98 7d be 06 64 cc bd c8 1e 75 bd 57 38 fb bd
       -0.24765271 -0.099800155 -0.05984381 -0.12266605
0002c0 21 f6 54 bd 0d 75 08 bd d1 c8 44 3c 22 27 50 3d
       -0.05199254 -0.033314753 0.012010769 0.05081857
0002d0 ba 2d 91 3c 02 82 76 bd 34 ea 65 be e0 ed 8c 3b
       0.017722 -0.06018258 -0.22452623 0.004300818
0002e0 20 5b 2d be 10 a1 9c bd 75 84 81 bd b9 0f 69 bd
       -0.16929293 -0.07647908 -0.06324092 -0.05689976
0002f0 2a 71 9b 3d bd 31 4b 3d 4b 0b 80 be 6f dc 88 3e
       0.07589944 0.04960798 -0.25008616 0.26730677
000300 7b 4f 80 bd 74 ca 53 3e 6c 3e b0 3e 3a ee b4 bc
       -0.0626516 0.20682698 0.34422624 -0.022086252
000310 9a 29 99 3e 4e f4 b7 3d 8e 4f 84 bd d2 d9 00 bb
       0.29914552 0.08982144 -0.06460486 -0.001966108
000320 55 6f 94 3e 73 3e 82 bc e9 c5 95 3e b1 20 79 3d
       0.2899119 -0.015898919 0.29252556 0.060822193
000330 70 66 56 3c 69 0d 32 3e a4 97 f7 bd 29 bf 4d bc
       0.013085946 0.17387928 -0.1208947 -0.012557783
000340 20 12 63 3d db db 85 bb 2b 38 99 be 36 e3 23 be
       0.055437207 -0.0040850467 -0.29925665 -0.16004643
000350 d5 76 06 be f8 e6 86 be 83 10 a1 be c6 c7 91 be
       -0.13131268 -0.2634809 -0.3145791 -0.28472728
000360 cd 43 91 3e c8 7f 97 3e 68 fd 5d 3d 50 e6 e3 3d
       0.2837204 0.29589677 0.054196745 0.11127913
000370 d6 91 c4 3d 5c 2c 49 bd ff d8 21 be 3e 11 93 3d
       0.095981285 -0.04911457 -0.15805434 0.07181023
000380 16 5e 84 3d ca 8a ce 3d 62 b5 02 bd 03 a7 ad bd
       0.06463258 0.10085066 -0.03191126 -0.084791206
000390 bb 34 a5 3d 7e 06 80 3d 63 5e b9 bc 00 b0 1e be
       0.08066698 0.06251238 -0.022628015 -0.15496826
0003a0 e5 c6 97 3d 6e 52 b9 3d 97 01 2f be 14 d9 02 3e
       0.07410983 0.09048925 -0.1709045 0.12778121
0003b0 8b 62 9d 3e 81 a8 f5 be 0f 8c 9e bd d7 a8 a8 3d
       0.30739245 -0.4798012 -0.07741558 0.08235329
0003c0 0e be e0 be 96 2b f6 bd f7 a1 2e 3e 4b 0f 5a be
       -0.43895 -0.12020032 0.17053972 -0.21294896
0003d0 76 4a 0d 3e 26 b9 8a 3d c1 df 91 be eb aa 1d be
       0.13797936 0.067735955 -0.28491023 -0.15397231
0003e0 6f 98 c1 bb 7f 91 d2 bd 50 83 54 be a4 0f a0 be
       -0.005908064 -0.102816574 -0.20753217 -0.31261933
0003f0 33 42 e0 bd 68 c6 a3 bc 8b db c3 bc 17 ab ff bd
       -0.109501265 -0.019992068 -0.023908397 -0.12483805

res_block2.bn1.weight f4 [16]
000000 20 75 83 3f 73 04 80 3f 5c 08 86 3f 5d 94 71 3f
       1.0270119 1.0001358 1.0471301 0.9436701
000010 32 72 88 3f f8 71 84 3f ac ef 88 3f 58 31 5e 3f
       1.065985 1.034728 1.0698142 0.8679404
000020 e3 09 82 3f d1 7c 59 3f c9 a7 89 3f 9f 31 83 3f
       1.0159267 0.8495608 1.0754329 1.0249518
000030 dc 0b 93 3f 38 89 7f 3f 2b af 75 3f a0 31 72 3f
       1.1487994 0.99818754 0.9597041 0.9460697

res_block2.bn1.bias f4 [16]
000000 fd c2 cd be ad b7 ce 3e 79 5b 12 be 25 61 b3 bc
       -0.40187827 0.40374509 -0.14292707 -0.021896908
000010 e4 10 38 be da 87 db bd bf b5 a1 3d 2a 07 9d bd
       -0.17975193 -0.10719271 0.078959934 -0.07667382
000020 e9 2e 58 be 66 19 e2 3c ef 56 c9 bd a2 fa 81 3d
       -0.21111645 0.027600002 -0.098310344 0.063466325
000030 f2 3a 12 be fc f4 d6 bd 06 ea 69 3d 34 31 18 be
       -0.14280298 -0.10495946 0.057107948 -0.1486252

res_block2.bn1.running_mean f4 [16]
000000 08 7d d4 3f af d0 10 c0 ff 38 24 bf 8b 2d 81 bf
       1.6600657 -2.262737 -0.6414947 -1.0092024
000010 3c 52 4b be 29 0d 89 be be 23 68 be 20 01 b4 3e
       -0.19855589 -0.26767853 -0.22669885 0.35157108
000020 c2 1d b6 3e c4 cb c8 3e e1 61 01 3e d1 a8 cd bf
       0.35569578 0.3921796 0.12634994 -1.6067144
000030 ba bc 28 c0 a4 4b 3f 40 bd c4 03 c0 df e9 a0 be
       -2.636519 2.9889917 -2.058883 -0.3142843

res_block2.bn1.running_var f4 [16]
000000 9a 92 20 40 ce 78 84 40 84 85 16 40 a5 44 d2 3f
       2.5089478 4.1397467 2.3518991 1.6427199
000010 ae b3 32 40 5b 8e 09 40 13 b9 65 40 f3 42 da 3f
       2.7922168 2.1493137 3.589421 1.7051681
000020 47 c8 dc 3f b0 c3 c3 3f c5 42 84 40 ce 55 53 40
       1.724862 1.5294094 4.1331506 3.302112
000030 b7 87 2b 40 55 84 2d 40 00 09 21 40 5f b1 15 40
       2.6801584 2.711202 2.5161743 2.3389509

res_block2.conv2.weight f4 [16, 16, 3, 3]
000000 09 31 87 3c 84 b8 d1 3d 39 1c 7b 3e d0 a4 00 3e
       0.016502874 0.10240272 0.24522485 0.12562871
000010 fe d2 c4 3d 96 01 a8 3e a2 32 4c 3c 1a 3b 21 3c
       0.09610556 0.3281371 0.012463244 0.009840751
000020 20 8c c3 3d f1 8d 8b 3d ab d6 f2 3d ba 30 aa 3d
       0.09548211 0.068141825 0.11857351 0.08310075
000030 a1 01 46 be 68 eb cd bb 64 6a 48 be f7 e6 fc bd
       -0.19336559 -0.006284166 -0.19571835 -0.123487405
000040 a5 a7 08 be c5 07 5b be 73 78 9b 3d ba 51 c7 3d
       -0.13345201 -0.21389683 0.07591333 0.09732385
000050 52 1b 8c 3e 4b 43 9f 3d 86 7d 2d 3d 31 20 b0 3e
       0.27364594 0.07776507 0.042356037 0.3439956
000060 5c 37 f1 3c d4 94 94 3d 67 6f 2b 3e 7d bb 6c 3e
       0.029445343 0.07254949 0.16741715 0.23118396
000070 c6 93 62 bd 4a 85 db bb 98 4d 1e 3d bf 9d bd bc
       -0.05531671 -0.006699239 0.038648218 -0.023146508
000080 ed 88 83 be a5 bb 2d bd 23 31 96 be af 50 ab be
       -0.25690404 -0.04241528 -0.29334363 -0.33459994
000090 b7 33 ac be 14 7b bc bc d7 b8 61 bd c4 02 b7 3a
       -0.33633205 -0.023007907 -0.055107918 0.0013962616
0000a0 a3 60 0b 3d 5f ec 2a 3e 8b a0 b9 3d 82 20 1e 3d
       0.034027707 0.16691731 0.09063824 0.03860522
0000b0 fc 27 25 3e 59 6d 12 bc 18 53 ef bd d3 7c 0b be
       0.16128534 -0.008937203 -0.11685771 -0.13621835
0000c0 32 a9 c7 bd 9f 30 b6 bd c3 c1 b2 bd 4c 26 9d 3c
       -0.09749068 -0.088959925 -0.08728363 0.0191833
0000d0 71 c6 33 bc 47 2e 95 3d f2 ce be bd 3d 75 0e be
       -0.010972605 0.07284217 -0.093168154 -0.1391191
0000e0 72 bb b8 bd f6 10 8d bc 9e ad c0 3d e6 27 db bd
       -0.09020127 -0.017220002 0.09408115 -0.107009694
0000f0 f9 ae 11 3d 1b c5 35 3e 6f 51 52 3e 82 93 d4 bd
       0.035567258 0.17750971 0.20538877 -0.103796974
000100 d3 49 ad bd 9c f8 be bc 83 b5 ad 3d 37 d9 af 3b
       -0.084613465 -0.023311906 0.08481886 0.00536647
000110 4f f3 08 3e 0c 69 45 be 63 2a 5d 3e 08 5b 84 3d
       0.13374065 -0.19278353 0.215982 0.06462675
000120 7e 67 5c be 54 91 2f be 32 a9 93 bd ff 54 d1 bc
       -0.21523854 -0.17145282 -0.07210006 -0.025553225
000130 ca b6 48 be 65 6a 31 3d 6e 39 1b be 1a e3 4f 3e
       -0.19600978 0.043314356 -0.15158626 0.20301476
000140 89 eb 91 bd 72 5c dc bb de 96 8f 3d 1a 98 fa 3d
       -0.07125003 -0.0067248875 0.070111975 0.12236042
000150 12 19 29 be bf b7 34 3c 0e 4a 15 3e a6 3a 0b 3d
       -0.1651347 0.011030137 0.14579031 0.03399148
000160 87 bd bf 3d 23 10 50 3e e8 55 2c be 41 d5 6b bd
       0.09362321 0.20318656 -0.16829646 -0.05757642
000170 48 a9 1f bd ee 60 a9 bd 6f 4a e7 bd 2f af c6 3d
       -0.0389798 -0.08270441 -0.11293494 0.09701382
000180 22 2c 4d 3c 2f 3d 97 bc 46 52 ae 3d 33 cf a6 3d
       0.012522729 -0.018461792 0.08511786 0.08144989
000190 d8 d6 28 be 8d b1 38 be ca 11 60 3e 9b b9 a4 bd
       -0.16488206 -0.1803648 0.21881786 -0.08043214
0001a0 fa 5c 46 be f3 6c 3e 3e 25 39 1a 3d fd 23 c3 bd
       -0.19371405 0.18596248 0.037652154 -0.095283486
0001b0 ad 39 d5 be c4 31 1e be 46 21 33 be cd 2a a2 be
       -0.41645566 -0.15448672 -0.17493162 -0.3167328
0001c0 c3 0c d6 bd f4 ff 13 be ad 56 40 be 5f 1c b6 3c
       -0.10451653 -0.14453107 -0.18783064 0.022230325
0001d0 68 47 33 be 0e a4 6b 3d 7d 5e 27 3b 15 3f b8 3e
       -0.17507708 0.0575295 0.0025538497 0.35985628
0001e0 57 3b bb 3d 9a 26 c9 3b 3e 93 1b 3e ab 80 41 3b
       0.091421776 0.006138635 0.15192887 0.0029526155
0001f0 73 b1 af 3d 56 92 47 3e 17 82 79 3e 6c 14 2e bd
       0.08578768 0.19489416 0.24366032 -0.042499945
000200 70 87 54 bd 1f ea 02 bb 4a e8 56 be 4a 17 d7 bc
       -0.051886976 -0.0019975973 -0.20987049 -0.026256222
000210 3e 72 01 3e c6 be a4 bd fc 7a 29 3e 82 77 e2 bd
       0.12641236 -0.080442 0.16550821 -0.110579506
000220 8d 8c cc 3c 82 e1 62 bc ee 29 7a bd 47 b8 9e 3b
       0.024969364 -0.013847711 -0.061075144 0.004843745
000230 d0 a5 18 be f8 d4 83 bd 51 c2 b6 bc 62 ba 06 bd
       -0.14907002 -0.06437105 -0.022309454 -0.032892592
000240 c7 d5 84 be 87 a2 b7 bd 35 fe cf bd f9 a8 55 be
       -0.2594435 -0.089665465 -0.10155908 -0.20865239
000250 c4 95 44 bd 25 04 24 be e8 4a d0 be 49 7c e5 bd
       -0.04799439 -0.16017206 -0.4068215 -0.11205346
000260 c6 ce ec bb c6 2e a7 3e 9f 2b c0 3d ff 96 9e 3b
       -0.0072267978 0.32652873 0.0938332 0.0048397775
000270 ac c4 1e 3e 58 44 7c 3b 57 02 7c bd 52 3d 39 3e
       0.15504712 0.0038492884 -0.06152567 0.18089798
000280 f0 b4 0a be 34 fb 64 bc 1f d3 fb 3d 46 d1 34 3e
       -0.13545585 -0.013975907 0.122961275 0.17657956
000290 71 8f 99 3e 6d e4 e7 3d 50 10 57 3e 08 b3 4c 3e
       0.2999225 0.11322866 0.21002316 0.1999017
0002a0 c0 e0 7d 3e e8 31 8f 3e 30 af f2 bc c0 aa 9a bd
       0.24792767 0.27967763 -0.029624552 -0.07552099
0002b0 68 42 ad bd cf b6 dd bd 03 0c 21 bb f4 28 2e bd
       -0.084599316 -0.108258836 -0.002457381 -0.042519525
0002c0 2b fc 49 3d 7b 7a af 3d 53 72 66 3d 22 d7 07 3e
       0.04931275 0.08568283 0.05626137 0.1326566
0002d0 31 09 10 be 5e d2 11 3d c2 39 5c 3e 32 5b 8a 3d
       -0.14066006 0.035601012 0.21506408 0.067556754
0002e0 5c 2c 0d 3e d3 ba 01 3d e6 57 8c 3d b7 19 17 3d
       0.13786453 0.03167231 0.06852703 0.036889758
0002f0 c8 d8 75 3d 3e b7 ae be 6d 78 ae be fe a3 fb bb
       0.06002119 -0.34124178 -0.34076253 -0.0076794615
000300 e3 f5 80 be f4 46 0d be 64 cb 01 3d 0f b2 64 be
       -0.25187597 -0.13796598 0.03168811 -0.22333549
000310 b2 8e 1f be 72 58 bb 3d 8b 5c a0 be d7 16 38 bd
       -0.15581778 0.09147729 -0.31320605 -0.044943657
000320 96 5e 57 bd 15 6f 79 be f0 a4 6c 3e a3 e1 f2 3d
       -0.05258044 -0.2435878 0.23109794 0.11859443
000330 12 91 a0 bd 99 e0 5f 3e 7b 18 3f bb 7b 24 bc 3d
       -0.0784017 0.21863021 -0.0029158879 0.091866456
000340 2b 45 a8 3d 0a 3b 3e be ac cc 27 3d 05 38 ba 3d
       0.08216318 -0.18577209 0.040966675 0.09092716
000350 ce 20 46 3d b4 c1 4b be cb bf ad 3b 3c d0 e1 3d
       0.04837113 -0.1989811 0.0053024045 0.11026046
000360 56 69 f9 bd 28 40 32 be c7 e3 9d be 6f f7 68 3d
       -0.12178294 -0.17407286 -0.30837843 0.056876596
000370 03 7a ca bd b1 c9 17 3d 25 9f 88 be 8c a5 b3 3d
       -0.09886553 0.037057582 -0.26683918 0.0877181
000380 df 75 5e be 25 8b 8f bd 6e 56 9e 3d 63 29 b7 3d
       -0.21724652 -0.070089616 0.07731329 0.08943441
000390 cf 4d d1 3b 4a f2 4e bc 17 5a c4 3e 90 f4 40 3d
       0.0063874493 -0.012631008 0.38349983 0.047108233
0003a0 a7 fc 26 3e 3d 35 28 3d 10 6d f1 bd f1 5f c5 bb
       0.16307317 0.041066397 -0.1178838 -0.0060234
0003b0 a0 a2 9b bc 43 30 a0 bb fc 81 f6 bd ae bc 3d 3e
       -0.018998444 -0.0048885657 -0.12036511 0.18529007
0003c0 b9 90 26 be 60 dc 56 be 52 a2 f4 3d e6 ce ad 3d
       -0.16266145 -0.20982504 0.11945023 0.08486728
0003d0 09 6e 82 bd 93 e8 89 3d e9 79 c2 bd d9 d1 fe bd
       -0.06368644 0.06733813 -0.09495909 -0.12442369
0003e0 e1 9e a2 bd 98 c5 22 3c 31 99 c1 bd 43 c8 e3 bd
       -0.0794046 0.009934805 -0.09453047 -0.11122181
0003f0 8e 1f 82 3d 29 63 e4 3d 79 f8 65 3e f4 0e 08 bc
       0.06353675 0.11151726 0.22458066 -0.008304346

res_block2.bn2.weight f4 [16]
000000 a4 33 7b 3f 5b 56 b1 3f ea 7a 8a 3f 2a 5a 94 3f
       0.9812567 1.3854479 1.081876 1.1590016
000010 ed fa 94 3f 32 1a bd 3f 13 d4 be 3f c4 d9 54 3f
       1.1639076 1.4773619 1.490847 0.83144784
000020 28 17 bf 3f c1 7f b5 3f 5e 33 a2 3f 58 8c a2 3f
       1.4928942 1.4179612 1.2671926 1.269908
000030 50 d1 ba 3f 6e eb af 3f c7 52 96 3f 2d e4 b0 3f
       1.4595127 1.3743722 1.1744012 1.3819634

res_block2.bn2.bias f4 [16]
000000 53 05 1c 3d 35 51 5f bc b2 1d a2 3d 2c 50 0d be
       0.038091015 -0.013630201 0.0791582 -0.13800114
000010 73 aa a2 be 6e 40 9e bd eb 2a 51 be a1 1d 0c be
       -0.31770667 -0.07727133 -0.20426528 -0.13683178
000020 3a 38 89 3e 4a bb ab bc 5e cd aa 3d 82 ca df 3c
       0.2680071 -0.02096333 0.08339952 0.027318243
000030 59 21 17 3d 9c ac 24 be 82 30 42 3c bc 7a 60 be
       0.036897037 -0.1608147 0.0118523855 -0.2192182

res_block2.bn2.running_mean f4 [16]
000000 51 7e 01 bf 88 e4 ce be 3b ef 9a 3f 6c 95 93 bf
       -0.5058337 -0.4040873 1.2104257 -1.1529975
000010 38 fc ea 3f 00 f2 84 3d c4 39 86 be 49 5a 90 bf
       1.8358221 0.0649147 -0.26215947 -1.1277553
000020 a7 a7 f4 bf 22 3d 9a bf 3f 9c 96 bf fd 98 51 bf
       -1.9113663 -1.2049906 -1.1766433 -0.81874067
000030 51 87 d9 bf dc 97 69 bf a6 3d bf bd 3c 79 40 be
       -1.699442 -0.91247344 -0.093379304 -0.18796247

res_block2.bn2.running_var f4 [16]
000000 51 12 ae 3f 5f 24 d3 3f 75 45 9a 3f 6f 35 8b 3f
       1.359934 1.6495475 1.2052447 1.0875682
000010 d6 92 cf 3f 50 f2 ff 3f 89 12 a1 3f c1 4e 87 3f
       1.6216686 1.9995823 1.2583781 1.0570909
000020 74 5d d6 3f 24 91 00 40 a7 29 78 3f 6a 00 fe 3f
       1.674727 2.0088587 0.96938556 1.9843876
000030 19 94 ad 3f ef c9 cb 3f 9c 4e 7e 3f 45 6d 9c 3f
       1.3560821 1.5921 0.993387 1.2220846

res_block3.conv1.weight f4 [32, 16, 3, 3]
000000 97 66 a9 3d aa 33 32 3e df ae 79 3e 4e 1c 0e 3e
       0.082715206 0.17402521 0.24383114 0.13877985
000010 3e 9c 88 3e 30 c8 83 3d 90 6c 18 3d d6 38 07 3e
       0.26681703 0.06434667 0.03721291 0.13205275
000020 8e dd 73 3d bb 76 2c be c9 a4 38 be 11 3a 89 3d
       0.059537463 -0.16842167 -0.1803161 0.067005284
000030 fa 20 b7 bd d9 7b 01 be a5 18 c1 bd ab d1 5f 3d
       -0.08941837 -0.126449 -0.09428529 0.054643314
000040 57 9e 1f 3c dc f7 6c bd b3 69 bb 3d f5 26 05 3e
       0.009742341 -0.057853565 0.0915102 0.13003142
000050 b5 ed 81 3d be 38 47 be 1f fb 56 3e ce 76 62 bc
       0.06344167 -0.19455239 0.20994233 -0.013822271
000060 4c 85 b4 bd 33 db 69 be 40 4a 9e be bb 3d b0 3d
       -0.08814487 -0.22837524 -0.30916023 0.08605524
000070 54 ba 21 3d 63 6a 97 bd cb 78 9c 3d 47 60 84 3d
       0.039484337 -0.073933385 0.07640227 0.06463676
000080 12 fe d3 bc 29 f3 91 3d 84 84 c8 bc 0b 4f 87 ba
       -0.025877986 0.07126457 -0.02447725 -0.0010323239
000090 34 d3 61 be c7 20 a5 be 41 cf b7 be 97 7c e1 bd
       -0.22053224 -0.3225157 -0.3590031 -0.11010092
0000a0 61 26 25 be b2 f5 3b be fe e6 57 3d 18 bb d5 3c
       -0.16127922 -0.18355444 0.052710526 0.02609019
0000b0 fd f4 82 3d b7 f8 3c bd a4 45 8f bc 54 64 60 be
       0.06394384 -0.04613563 -0.017489262 -0.21913272
0000c0 dc 3f 82 be 19 b7 bd be 4f cb cf be c2 1f 93 3c
       -0.25439346 -0.37053755 -0.405848 0.01795948
0000d0 bc 65 94 bd 4f 21 89 bd f8 65 28 be 93 fe d1 bd
       -0.07245967 -0.06695806 -0.16445148 -0.10253634
0000e0 71 a0 6b be ad 14 9b 3c 5d b6 17 3d 2e b1 2c 3e
       -0.23010422 0.018930757 0.03703915 0.16864464
0000f0 ea 13 b3 bd b4 03 f8 3d a6 d2 39 3e 07 21 92 be
       -0.08744033 0.12110081 0.18146762 -0.28540823
000100 43 d4 7b be ff b5 a6 be 0e e3 c1 3d 7b 60 92 3d
       -0.2459269 -0.32560727 0.09467135 0.071473084
000110 f2 fe 58 3d 29 6b c4 3d 8b 29 a3 3d 71 6d e0 bc
       0.05297751 0.09590752 0.07966908 -0.027395936
000120 26 80 96 be 6a db 71 3d 61 e7 e4 3c 33 18 a6 bc
       -0.29394644 0.05904714 0.027942361 -0.020275211
000130 1c c4 0f 3e 9a d1 9d 3d fe 6a c2 bd 89 d5 c1 bd
       0.14039654 0.07705994 -0.094930634 -0.09464557
000140 ed 13 84 be e3 89 4c 3c e9 ae 48 be 3e 61 48 3e
       -0.25796452 0.012484047 -0.19597973 0.19568345
000150 59 4a 7a 3d 86 72 76 3d b8 92 c9 3d 88 99 0d bd
       0.06110606 0.06016781 0.098424375 -0.034570247
000160 91 8e 34 3e 4a 31 6b 3c 8e c1 68 3e 42 95 35 3e
       0.1763251 0.014355013 0.22730085 0.17732719
000170 60 49 d8 3d 09 46 14 3e 30 6d 19 be fe e3 c8 bc
       0.1056087 0.14479841 -0.14983058 -0.024522778
000180 35 45 6c bd e1 26 78 be 0d b6 f0 bc c1 d6 6c be
       -0.05768319 -0.24233581 -0.029383684 -0.23128797
000190 fb c6 e5 bc 89 18 f6 bd b4 00 4a be e7 c6 b1 bd
       -0.028048983 -0.120163985 -0.1972683 -0.08680516
0001a0 26 87 b2 be c4 52 87 bd 22 70 0b 3e cd fd ec 3d
       -0.34868735 -0.06607583 0.13616994 0.11571846
0001b0 74 d3 3b 3e 36 9e 9b 3c 25 64 0d 3e 9f b1 fb 3d
       0.18342382 0.01899634 0.13807733 0.12289738
0001c0 2e 93 b4 bc 0c 7f ac 3d d5 33 31 3c d8 d7 ae bd
       -0.022042837 0.0842267 0.01081558 -0.08537263
0001d0 16 d6 85 bd 67 f7 64 3c 6e 2a 49 3d 27 d2 dc bc
       -0.06534974 0.013975001 0.04911273 -0.026955677
0001e0 28 07 60 be b1 38 7c bd c9 a0 aa bd 30 70 80 3d
       -0.2187773 -0.061577503 -0.083314486 0.06271398
0001f0 5a c7 90 bd c5 63 a2 bd 95 53 a0 3c c9 6c 0f 3e
       -0.07069273 -0.07929186 0.019571105 0.14006342
000200 71 5a b2 bd 46 fb 40 3d 4a f5 8d bc 07 ca fb bc
       -0.087086566 0.047114633 -0.017328877 -0.030735983
000210 3b ca 2e 3e 7b 0a 43 3d 5a 92 ee 3d 9c f1 cf be
       0.17069332 0.047617417 0.11649008 -0.4061402
000220 06 64 14 be a2 3a 4c bd ac 51 df be a8 0a d1 be
       -0.14491281 -0.049860604 -0.43616998 -0.40828443
000230 1e 48 1f be cc 14 2c be d4 38 0a 3d 76 67 a3 3d
       -0.15554854 -0.16804808 0.0337456 0.07978718
000240 ba 56 35 3e 42 82 10 3d 17 93 7f 3d 3e cc 32 3b
       0.17708865 0.035280474 0.062396135 0.0027282382
000250 f3 8b 9c bd 84 8f 7b 3c 6c e2 33 3e 69 72 a1 bd
       -0.07643881 0.015354041 0.17566842 -0.0788315
000260 ce 5f 24 3e 7d 63 a6 bc af d1 06 bd e0 db 99 3d
       0.16052172 -0.020311112 -0.032914814 0.07512641
000270 2d 2c a0 bd 2c bf 6b bd ce bb b3 bd 7a 4b bf 3d
       -0.07820926 -0.057555363 -0.08776055 0.09340568
000280 14 68 c5 bd 58 c9 4a 3e 04 49 06 3b be 7e 0a bd
       -0.09638992 0.19803369 0.0020490298 -0.033812277
000290 84 91 32 3e 80 13 b5 bd 3d 43 c9 3d f2 89 82 bd
       0.17438322 -0.0884161 0.09827278 -0.06373967
0002a0 26 be b7 bc e6 1a b2 be 2c e5 c8 be 0d 13 00 be
       -0.022429537 -0.34786147 -0.39237344 -0.12507267
0002b0 9e f4 6e bd e3 34 bb bd 9a 45 18 3e 59 9d de 3d
       -0.058338754 -0.09140947 0.14870301 0.108698554
0002c0 2f 89 7d bd fb 05 a8 3e ad cf f1 3d 91 ee f3 bd
       -0.061898407 0.32817063 0.11807189 -0.11910737
0002d0 0a 5f 3c 3e ac a1 1d 3e e3 60 16 be 6f 93 29 bd
       0.1839563 0.15393704 -0.14685397 -0.04140037
0002e0 16 e1 0e bc f0 60 da bd a2 61 24 3e 7a f9 7f bc
       -0.008720657 -0.106630206 0.16052869 -0.015623445
0002f0 13 bc f0 bc d1 0a 9c be 1a 41 41 be ec c8 a8 bc
       -0.029386556 -0.30477002 -0.1887249 -0.02060362
000300 d1 d0 4b be a1 36 b7 bd ff 92 3b 3d 9e a4 f0 3c
       -0.19903876 -0.089459665 0.045794483 0.02937537
000310 58 11 80 bd 5d 98 a0 3e 88 f3 e2 bc cd bc cf 3d
       -0.06253308 0.31366244 -0.027704015 0.10143433
000320 fb db 1b 3e 35 82 f9 3d d2 74 87 3d ce 9b 1c 3e
       0.15220635 0.12183038 0.066140786 0.1529381
000330 1d 58 f6 3d 05 41 24 3d 26 09 81 3e e1 ab eb 3d
       0.12028525 0.04010107 0.25202292 0.11507393
000340 d9 dd b9 3c 67 9e 33 3d ad be e8 bb 60 33 e0 3c
       0.022688793 0.043852236 -0.0071028084 0.027368248
000350 77 ac 1d 3b 26 96 ca bd a7 08 52 bd ef 17 97 3d
       0.0024059096 -0.0989192 -0.051277783 0.07377612
000360 49 ea 68 be a1 09 30 3e 0e 11 6a 3d ad 3c 36 3d
       -0.22745623 0.17191173 0.05714517 0.04449146
000370 84 e6 00 bd 27 6c 50 3d 10 d6 88 3c 1f 8b 71 3e
       -0.031469837 0.050884392 0.016703635 0.23588227
000380 3f 76 6c bd 6a 4e c6 3d f8 91 65 3e 2c e5 2d 3e
       -0.057729956 0.09682925 0.22418964 0.16981953
000390 90 3d 1d 3e e0 67 e3 3d 6e 57 97 3e cf 9c 02 be
       0.15355515 0.11103797 0.2955889 -0.1275513
0003a0 87 a3 9b 3d 19 65 05 bd a3 93 f7 3b 25 b0 d0 be
       0.0759955 -0.032567117 0.0075554415 -0.40759388
0003b0 6e fb 77 bd d1 1c b8 bd 48 8c 86 bd cb 45 c0 bd
       -0.060542516 -0.08989871 -0.06569725 -0.09388312
0003c0 14 0c 04 bc 14 3f 3c be a4 4a 7a be 8a 45 2c be
       -0.00805952 -0.18383437 -0.24442536 -0.16823402
0003d0 51 bf a0 be 53 55 85 be 50 c1 35 bc 25 72 37 be
       -0.31395963 -0.2604166 -0.011093453 -0.17914636
0003e0 ec 51 01 be 7b 72 07 bd 52 cf 9f be 4a 80 32 be
       -0.12628907 -0.03306816 -0.3121286 -0.17431751
0003f0 85 19 ed bd 2d cc ed bd 31 ca 8f be 7d 55 0c 3e
       -0.11577133 -0.11611209 -0.28083947 0.13704486

res_block3.bn1.weight f4 [32]
000000 ff 4f 74 3f 43 d9 72 3f a3 3f 70 3f 8d c9 76 3f
       0.95434564 0.94862765 0.938471 0.9640129
000010 07 10 8b 3f 93 4a 70 3f 0e d9 79 3f fb 82 3a 3f
       1.0864266 0.9386379 0.97596824 0.7285611
000020 6c a6 5a 3f 18 8a 8d 3f 92 4a 81 3f 31 36 62 3f
       0.8541019 1.1057768 1.0100882 0.8836394
000030 d0 47 5a 3f ff 33 62 3f 99 13 64 3f 6d 70 7d 3f
       0.8526583 0.8836059 0.89092404 0.98999673
000040 15 bb 7d 3f 72 b0 79 3f 4b 2c 6b 3f 34 3d 66 3f
       0.9911359 0.9753486 0.9186446 0.8993714
000050 c8 e7 7f 3f 0d fd 89 3f 2a ac 80 3f 06 42 85 3f
       0.99963045 1.078035 1.005254 1.0410774
000060 5c 9c 82 3f 87 da 87 3f 39 e8 60 3f 97 db 7e 3f
       1.0203967 1.0613564 0.87854344 0.9955382
000070 34 42 84 3f df aa 79 3f 6b ac 85 3f 5d 8b 88 3f
       1.0332704 0.97526354 1.0443243 1.066753

res_block3.bn1.bias f4 [32]
000000 cf 5d 27 be 03 b7 87 be ba e9 8c be ba 2f 07 bf
       -0.16344379 -0.26506814 -0.2752207 -0.528072
000010 3a 61 b9 be dc bd da be 1c ca b4 be 70 fd 82 be
       -0.3620699 -0.42722976 -0.35310447 -0.25583982
000020 93 a4 8f be 98 2f 0f bf 5f 3d c6 be 80 53 99 be
       -0.28055248 -0.55932 -0.38718697 -0.29946518
000030 ba 2e 51 be 11 52 bc be 85 cc c9 be 41 af a0 be
       -0.20427981 -0.36781362 -0.3941385 -0.31383708
000040 d0 a5 09 bf 0a 00 dd be 9c ea cd be 71 a6 7f be
       -0.53768635 -0.43164092 -0.40218055 -0.24965836
000050 8c c8 db be fc 26 bf bd ce bc ce be 27 1b 82 be
       -0.42926443 -0.093336076 -0.40378422 -0.2541134
000060 a7 82 b9 be d9 61 b8 be 9e b5 d1 be 22 52 91 be
       -0.36232492 -0.36012152 -0.40958875 -0.28382975
000070 5f c2 85 be 75 5c a8 be da 57 00 bf 1f 2c 8f be
       -0.26124856 -0.3288304 -0.5013405 -0.2796335

res_block3.bn1.running_mean f4 [32]
000000 bb f0 33 c0 e0 de b7 bf 98 61 60 3f 72 b5 18 c0
       -2.811568 -1.4364891 0.87648916 -2.3860745
000010 42 f6 9a bf d3 40 b8 c0 b9 90 95 c0 91 16 82 c0
       -1.2106402 -5.757913 -4.6739163 -4.0652547
000020 86 04 d6 3f a2 9e 68 c0 ff 9a fe bf 05 86 f3 bf
       1.672013 -3.6346822 -1.9891051 -1.9025275
000030 f4 a1 80 c0 c3 be c1 bf 96 fa 3f c0 80 f5 8d c0
       -4.0197697 -1.5136341 -2.9996696 -4.4362183
000040 ee 8f e2 3d ce f1 64 c0 6b 99 49 c0 d5 99 94 c0
       0.11062609 -3.5772586 -3.149989 -4.6437783
000050 b4 1b 79 c0 4c 87 59 3e 9f 2b b1 c0 f5 87 93 c0
       -3.8923159 0.21243018 -5.536575 -4.6103463
000060 0e 8e 13 c0 22 1f 7a c0 11 b3 a3 c0 f1 00 37 c0
       -2.3055453 -3.9081502 -5.1156087 -2.8594325
000070 0c 67 5a c0 56 63 48 c0 10 e4 a0 bf 48 81 22 bf
       -3.4125395 -3.131063 -1.2569599 -0.6347852

res_block3.bn1.running_var f4 [32]
000000 86 8b 85 40 a2 9b b1 40 3a 79 68 40 85 60 86 40
       4.1732817 5.550248 3.632399 4.199282
000010 bc 64 b4 40 94 21 a9 40 34 b8 92 40 6a a4 58 40
       5.6372967 5.285349 4.5849857 3.385035
000020 1d ab 90 40 2d d3 90 40 8b da 9d 40 21 98 b2 40
       4.520888 4.5257783 4.9329276 5.5810704
000030 89 eb 89 40 16 40 26 40 8e 61 6e 40 e1 c8 fa 40
       4.310002 2.5976615 3.7247043 7.8370214
000040 35 22 ae 40 66 00 b8 40 eb 5c 85 40 38 d5 5c 40
       5.4416757 5.7500486 4.1675925 3.4505138
000050 4e 50 9a 40 89 b7 e0 40 66 62 aa 40 d7 f7 8f 40
       4.822303 7.022404 5.3245115 4.499004
000060 1e 07 a1 40 7c c4 eb 40 5b ed 8f 40 f9 b5 5d 40
       5.032119 7.367735 4.497724 3.4642317
000070 8a 8e 99 40 02 9f fa 40 ab 7c a1 40 bd 7d 7f 40
       4.79865 7.83191 5.0464683 3.9920495
