Weights/p1/LAE_denoising_PA3_24100238.pth (torch, 899682 bytes, 16 tensors)

encoder.1.weight f4 [128, 784]
0.014356663 -0.0065837326 0.04585086 0.019796673 0.014765073 0.013965718 0.012321073 -0.01775119
0.037565444 0.043913238 0.014066618 0.020790907 0.01916163 0.013856835 -0.00151149 0.02269874
0.02358339 -0.030521223 -0.00081865577 -0.008781369 0.014895514 0.0062816073 0.011746648 -0.013474216
0.022457229 -0.017587323 -0.013314309 0.0034158498 0.016871898 -0.0101531 0.016737072 0.018496078
0.02487757 -0.015388088 0.0018843496 0.009299995 -0.012679055 0.0037310768 0.023853585 0.047062714
-0.0072578313 0.011868135 -0.002657763 -0.022080692 -0.003957102 0.025741076 0.001682898 0.026269415
-0.0026122637 0.0077757547 0.037907023 0.04146648 0.0072914055 0.034346215 0.02233416 0.023393862
0.016207496 0.02767671 0.0047865673 0.0144542195 -0.01423193 0.01190944 0.033553243 0.048379872
0.029337566 0.00521604 -0.009500007 0.0021839864 0.036041863 0.00805396 -0.0033511184 -0.024421835
0.004953298 0.030012503 -0.022183474 -0.004366133 0.013129675 0.012242654 -0.020111557 -0.004290597
0.037680484 0.03446013 -0.012949565 -0.0083963135 0.04141901 -0.0063736946 -0.022427838 0.020602243
-0.00019955102 0.04094484 0.01405392 0.0068105008 0.009700175 -0.0035425152 -0.0038840394 -0.012071403
0.051991276 0.025046086 0.016306723 0.00492562 -0.010922945 0.0052304193 -0.016417827 -0.0094443085
0.0118196905 0.025495825 -0.023371836 0.035354387 0.007787845 0.036108233 -0.004624204 0.010837115
0.030011335 -0.0070520337 -0.020771395 0.03919449 0.024454745 -0.018971467 -0.015232884 0.049509015
0.030691445 -0.0029659953 0.03520292 0.0112395035 0.056495197 0.015051293 0.020478077 -0.00087389175
0.012599662 -0.013805114 -0.010010704 0.022333806 0.009809924 0.009425286 0.031140076 0.0017381394
0.018905465 -0.0156062115 -0.018084563 0.014590751 0.010697605 0.02369274 0.011196135 0.044057973
0.040617105 -0.009736817 -0.01616953 0.0304265 0.051021826 -0.013894097 0.01338173 0.009128629
0.06308186 0.008496022 0.03159255 0.0015557272 0.014100773 0.003923081 0.020287484 0.009420756
-0.025044527 0.032172333 -0.018274477 0.03810313 -0.014156247 -0.0027611451 0.0041428437 0.03215074
-0.013857575 0.03606643 0.023823863 0.034650974 -0.015442897 -0.014048715 -0.008962069 0.050239258
0.009771538 -0.008774296 0.01969406 0.007582147 0.0004420394 0.021348825 -0.017069165 -0.03739722
0.020374965 -0.027555386 0.00033892682 -0.023554068 -0.008278949 -0.031081071 -0.0015755795 0.04812288
0.044965804 0.013926445 0.012188622 0.017497515 0.035928093 0.04173153 0.013828556 0.009894226
-0.019720199 -0.00049563556 -0.008092217 -0.0081853075 0.012498216 -0.009855862 -0.022604847 -0.055280317
-0.03561128 7.7025215e-05 -0.059353277 -0.01685473 0.03518051 -0.0030388085 0.027270379 0.015934633
0.020455405 -0.00720656 0.054182418 0.0054245074 0.038707327 0.015668651 0.0121547105 0.034518287
0.033879038 -0.0071844636 0.036389656 0.03947421 0.017047264 -0.02303176 -0.0010309509 -0.042403787
-0.017213482 -0.043252062 -0.046883136 -0.00510229 -0.012153184 -0.0021423053 -0.0527466 0.016709408
0.030555543 0.06605887 0.051115636 -0.003714415 -0.0060518733 0.023791447 0.01717702 0.022699848
0.05602069 0.022472639 0.009080392 0.03579905 -0.016986411 0.029988695 0.031867996 0.019254403
00000000: 3638 6b3c 5abc d7bb 1dce 3b3d a22c a23c
00000010: 34e9 713c 78d0 643c 53de 493c f26a 91bc
00000020: 39de 193d 5ede 333d ac77 663c b151 aa3c
00000030: daf8 9c3c c707 633c 301d c6ba b5f2 b93c
00000040: f431 c13c a507 fabc 0f9b 56ba bbdf 0fbc
00000050: 500c 743c f1d5 cd3b 0375 403c f5c2 5cbc
00000060: 39f8 b73c 4a13 90bc 4224 5abc 73dc 5f3b
00000070: ef36 8a3c 3059 26bc 2f1c 893c 1685 973c
00000080: 0ccc cb3c 521e 7cbc 48fc f63a 025f 183c
00000090: d0bb 4fbc 1585 743b 9868 c33c d5c4 403d
000000a0: 1ad3 edbb 9172 423c dd2d 2ebb 91e2 b4bc
000000b0: 94aa 81bb f3de d23c b094 dc3a f532 d73c
000000c0: 8332 2bbb c2cb fe3b 6544 1b3d c1d8 293d
000000d0: beec ee3b 9eae 0c3d 21f6 b63c 7ca4 bf3c
000000e0: 95c5 843c 45ba e23c a3d8 9c3b 64d1 6c3c
000000f0: 0a2d 69bc d01f 433c 206f 093d f929 463d
00000100: 5655 f03c 51eb aa3b eba5 1bbc 3621 0f3b
00000110: a2a0 133d c2f4 033c 709e 5bbb 4d10 c8bc
00000120: 464f a23b c8dc f53c 1eba b5bc c711 8fbb
00000130: d91d 573c 6a95 483c fec0 a4bc 2398 8cbb
00000140: da56 1a3d 1126 0d3d 6a2a 54bc b190 09bc
00000150: fba6 293d 6dda d0bb 96ba b7bc 09c6 a83c
00000160: 923e 51b9 c7b5 273d 6a42 663c 9f2a df3b
00000170: 7ced 1e3c 8b29 68bb 5e8b 7ebb 22c7 45bc
00000180: cef4 543d 732d cd3c ad95 853c 1867 a13b
00000190: 27f6 32bc f063 ab3b ae7e 86bc 4dbc 1abc
000001a0: 60a7 413c 9fdc d03c 4b76 bfbc c3cf 103d
000001b0: 2e31 ff3b 3ae6 133d a286 97bb 288e 313c
000001c0: 55da f53c bf14 e7bb c628 aabc 678a 203d
000001d0: 5155 c83c 0d6a 9bbc 5993 79bc f7c9 4a3d
000001e0: a06c fb3c 2561 42bb f030 103d e525 383c
000001f0: 8267 673d b399 763c a4c1 a73c e215 65ba
00000200: d06e 4e3c d82e 62bc f003 24bc 63f5 b63c
00000210: ceb9 203c 846c 1a3c 7919 ff3c 48d2 e33a
00000220: a2df 9a3c 32b1 7fbc 1426 94bc 0c0e 6f3c
00000230: 0245 2f3c 4717 c23c fe6f 373c 2276 343d
00000240: 1f5e 263d 2c87 1fbc f675 84bc ff40 f93c
00000250: 43fc 503d 11a4 63bc 0b3f 5b3c 3f90 153c
00000260: 1031 813d e632 0b3c 3167 013d 8be9 cb3a
00000270: ee06 673c 308d 803b f031 a63c 8459 1a3c
00000280: 2e2a cdbc 23c7 033d 5bb4 95bc 0712 1c3d
00000290: 9aef 67bc 54f4 34bb b1c0 873b 7fb0 033d
000002a0: e20a 63bc 65ba 133d 432a c33c 2eee 0d3d
000002b0: 3404 7dbc 952c 66bc a4d5 12bc aec7 4d3d
000002c0: cd18 203c 11c2 0fbc 7055 a13c a973 f83b
000002d0: 86c1 e739 bbe3 ae3c a2d4 8bbc d42d 19bd
000002e0: 66e9 a63c d5bb e1bc fdb1 b139 76f4 c0bc
000002f0: 6ea4 07bc bb9d febc ad83 ceba 7f1c 453d
00000300: 102e 383d be2b 643c c9b2 473c f356 8f3c
00000310: 5629 133d aeee 2a3d 2b91 623c 641b 223c
00000320: 418c a1bc 8aed 01ba 3895 04bc ab1b 06bc
00000330: 51c5 4c3c 7b7a 21bc cd2d b9bc 9d6d 62bd
00000340: 22dd 11bd 9988 a138 6c1c 73bd ee12 8abc
00000350: 7019 103d bf26 47bb 2166 df3c 5989 823c
00000360: 1892 a73c 0225 ecbb 62ee 5d3d 11c0 b13b
00000370: 938b 1e3d 8b5b 803c 8d24 473c 0c63 0d3d
00000380: bfc4 0a3d a66b ebbb 520d 153d b6af 213d
00000390: b4a6 8b3c 1aad bcbc f920 87ba 98af 2dbd
000003a0: 4a03 8dbc 1329 31bd 8808 40bd 1c31 a7bb
000003b0: 261e 47bc eb65 0cbb d20c 58bd 2be2 883c
000003c0: 9e4f fa3c df49 873d a15e 513d 8b6d 73bb
000003d0: cb4e c6bb 48e6 c23c d2b6 8c3c 08f5 b93c
000003e0: f375 653d 8a18 b83c edc5 143c 06a2 123d
000003f0: 1627 8bbc daaa f53c 0488 023d 69bb 9d3c

encoder.1.bias f4 [128]
0.19040197 0.18548761 -0.048960198 0.20090221 -0.07796148 -0.11249078 -0.097473375 0.13608743
-0.12021401 0.023099342 -0.07557335 0.19490002 0.14737205 -0.012486891 0.10275779 0.21866997
0.25447723 0.18477651 0.11683635 0.20577987 0.11230371 -0.07037054 -0.06477559 -0.10606096
-0.08756221 -0.06460185 0.032368045 0.19954169 0.16259833 0.08537179 -0.07656748 0.09640662
0.21999168 -0.1089304 -0.08242875 -0.003062102 0.30049774 0.14851017 -0.020605396 0.005743193
0.16988932 -0.13476256 0.21071099 -0.15066458 0.07981956 0.21454567 -0.118207246 -0.002619815
-0.04021964 0.27490565 0.2046133 0.20099357 0.061963886 0.2034675 -0.11084166 0.1986084
0.19326963 0.28032583 0.24098425 -0.09870649 0.19263962 -0.14424822 -0.023332879 0.0011349758
0.2043856 -0.08935099 0.1364884 0.18991119 0.06852441 -0.124914624 -0.07433319 0.16848458
-0.0055523883 -0.094189286 -0.16112465 0.11696149 0.060438957 0.12379224 0.15680361 0.24517559
0.06207825 0.15535781 -0.06378061 0.118019536 0.22718668 -0.13500008 0.21818446 -0.024317395
-0.09721348 0.19360456 0.32397136 0.1850212 -0.1500973 0.0030839376 0.21742858 0.2025957
0.15905988 -0.03988393 0.20430176 0.19583604 0.05007693 0.061708655 0.030998422 0.27182966
-0.09744799 -0.082787596 0.16639893 -0.08057224 0.17189483 0.2340696 -0.12696297 0.26368478
0.23621075 0.24359027 -0.14149396 -0.07575649 -0.15316874 0.11873676 -0.031780098 0.24334879
0.17091104 0.15697408 0.31848297 0.12492577 -0.075312875 -0.17123024 0.21628118 -0.13378303
00000000: bcf8 423e 77f0 3d3e 7d8a 48bd 4fb9 4d3e
00000010: 45aa 9fbd 9161 e6bd 1fa0 c7bd 815a 0b3e
00000020: c332 f6bd d53a bd3c 33c6 9abd df93 473e
00000030: b3e8 163e d195 4cbc ad72 d23d 05eb 5f3e
00000040: d74a 823e 0e36 3d3e e547 ef3d f5b7 523e
00000050: 7dff e53d 6e1e 90bd 11a9 84bd 7d36 d9bd
00000060: d153 b3bd fa4d 84bd 5b94 043d a854 4c3e
00000070: 2d80 263e 68d7 ae3d 69cf 9cbd d670 c53d
00000080: 8045 613e e716 dfbd 68d0 a8bd 8cad 48bb
00000090: d7da 993e 0d13 183e a6cc a8bc 6531 bc3b
000000a0: 77f7 2d3e 32ff 09be 9fc4 573e d147 1abe
000000b0: 7078 a33d dcb1 5b3e a416 f2bd 34b1 2bbb
000000c0: 59bd 24bd 6fc0 8c3e 2686 513e 42d1 4d3e
000000d0: d8cd 7d3d c959 503e f400 e3bd 0060 4b3e
000000e0: 79e8 453e de86 8f3e 93c4 763e a126 cabd
000000f0: 5243 453e ceb5 13be 9824 bfbc 78c3 943a
00000100: 754a 513e a7fd b6bd 9dc3 0b3e 1478 423e
00000110: 8756 8c3d 3dd3 ffbd 003c 98bd 3987 2c3e
00000120: cff0 b5bb 50e6 c0bd dcfd 24be 8189 ef3d
00000130: d78e 773d c986 fd3d 2091 203e 4f0f 7b3e
00000140: c345 7e3d 1e16 1f3e 699f 82bd 3ab4 f13d
00000150: a0a3 683e 763d 0abe bf6b 5f3e 4635 c7bc
00000160: dc17 c7bd 4640 463e 93df a53e 3376 3d3e
00000170: 1bb3 19be e31b 4a3b 99a5 5e3e 3f75 4f3e
00000180: 98e0 223e 555d 23bd 7b34 513e 3e89 483e
00000190: 781d 4d3d 37c2 7c3d 67f0 fd3c 422d 8b3e
000001a0: d092 c7bd 8b8c a9bd 7b64 2a3e 0f03 a5bd
000001b0: 3305 303e f1af 6f3e 9502 02be b101 873e
000001c0: 3be1 713e ba6f 793e cbe3 10be 3826 9bbd
000001d0: 44d8 1cbe 422c f33d d92b 02bd 6d30 793e
000001e0: 4e03 2f3e d0bd 203e 3310 a33e 15d9 ff3d
000001f0: a33d 9abd fb56 2fbe d078 5d3e 6bfe 08be

encoder.3.weight f4 [64, 128]
0.18271609 0.031436756 0.034109235 0.14802106 -0.018634224 -0.06920121 -0.099206276 -0.03382111
-0.04989006 0.034177456 0.08718795 -0.24263988 0.15029413 0.17121166 0.10195561 -0.30614278
0.08641001 0.050419122 0.115 0.053333104 0.025284436 0.06665054 0.16528107 0.06950006
0.06674405 -0.008987952 0.0056256196 0.16814251 -0.09482147 0.14094159 -0.02190323 0.10021442
0.054998066 0.078274615 -0.024046553 -0.018119793 0.04493932 0.10457153 -0.016889928 0.06983478
0.073172055 -0.092751205 0.07954275 0.045096636 -0.015000187 -0.27047452 -0.11035546 0.06828659
-0.06943533 0.13636167 -0.018424775 0.079494335 0.12748502 0.08564614 0.04682845 0.2509685
0.19875036 0.07005493 -0.28746423 -0.025605919 -0.06356026 0.035503983 -0.025652692 0.15450336
0.08382096 0.010882225 0.09180156 0.06553224 0.04116668 -0.116912074 0.06595621 0.16243748
0.012834773 0.05922993 -0.013153998 0.039871443 0.032951687 0.13362812 0.044513095 0.14702636
0.06036055 -0.0036734839 0.0019119068 0.09995336 0.15132204 0.015909668 0.01502589 0.021051293
-0.01210751 0.057559416 0.19888426 0.1379463 -0.1205876 -0.07614324 -0.1775208 0.07645814
0.033703793 0.0010439452 0.28298098 0.035641864 0.13868256 0.109295376 0.032337103 0.16328105
-0.045262262 -0.022035845 0.020050853 0.05443277 0.08941633 -0.18273349 -0.033179913 0.11745859
0.10245246 0.09734435 0.043046597 0.124534935 0.05199651 0.13092671 0.011780281 -0.23222806
0.13989739 0.06856968 0.110935345 0.1297001 0.0653215 0.043056484 0.1133489 -0.03248365
0.11437795 0.07300127 0.051168047 -0.031213656 -0.066778615 -0.0044789547 0.087316886 0.17073347
0.060607918 0.13882658 0.00097039173 0.35703844 0.105089046 0.13542295 0.022513527 0.52778745
0.28174132 0.08220978 -0.034252543 0.05242493 0.09475115 0.10316977 0.039031025 0.021208357
-0.066396184 -0.03429743 -0.06373694 0.17524394 0.07226558 -0.01535992 -0.083608925 0.102740005
0.21858242 0.010735087 0.039099276 0.016539332 0.18466003 0.0028565861 -0.06077253 0.04326058
0.007851162 -0.060350306 0.10197209 -0.063000605 0.009518181 0.24852645 -0.0463061 -0.056429364
0.01491569 0.25933662 -0.03040829 0.0043938346 0.030698977 0.10794249 0.00022701143 0.08955555
0.13997158 0.23525555 0.37094247 -0.04709122 0.048147697 -0.005534067 -0.06087239 0.022570647
0.025026314 -0.025431506 0.047161274 0.05929562 -0.0535067 -0.0005174178 0.045626123 0.060038477
0.022525245 0.050387796 0.09269866 0.10182136 0.038198736 0.07909039 0.12532456 0.14575985
0.09379551 0.06667581 0.041432958 0.01709468 0.13708034 -0.061457913 0.10269192 -0.044630006
-0.028726991 0.11565346 0.24898995 0.045845196 -0.020839818 0.016787812 0.032596182 0.016632091
-0.02637725 -0.06024289 0.062056515 0.114470184 0.07842917 -0.01661126 0.07550587 0.20871887
-0.07053071 0.02846527 0.11087462 -0.045228314 0.021147933 0.4213023 -0.036497667 0.3011852
0.005480833 0.07625532 -0.05025339 0.063167155 0.008020975 0.07807319 0.020372026 0.27677333
0.022266936 0.04025113 0.2967686 0.075762555 0.0054703006 -0.054433912 0.1044161 -0.047971886
00000000: ed19 3b3e d4c3 003d 20b6 0b3d d592 173e
00000010: cda6 98bc 5db9 8dbd a92c cbbd 0188 0abd
00000020: 8559 4cbd a9fd 0b3d 998f b23d 9776 78be
00000030: b4e6 193e 1c52 2f3e 1ace d03d bfbe 9cbe
00000040: bbf7 b03d 4884 4e3d 1f85 eb3d d073 5a3d
00000050: 4e21 cf3c 1480 883d 713f 293e 0c56 8e3d
00000060: 1bb1 883d 3442 13bc 1e57 b83b 8d2d 2c3e
00000070: c231 c2bd fe52 103e 676e b3bc 383d cd3d
00000080: a745 613d 714e a03d 47fd c4bc f66f 94bc
00000090: 4b12 383d 9929 d63d bf5c 8abc 8a05 8f3d
000000a0: 3bdb 953d 58f4 bdbd 4fe7 a23d 40b7 383d
000000b0: 58c3 75bc a37b 8abe 0b02 e2bd d7d9 8b3d
000000c0: 1c34 8ebd 65a2 0b3e 8eef 96bc edcd a23d
000000d0: 6f8b 023e 3e67 af3d 30cf 3f3d f17e 803e
000000e0: 3785 4b3e f678 8f3d 832e 93be 81c3 d1bc
000000f0: e22b 82bd a06c 113d 9825 d2bc 2136 1e3e
00000100: 53aa ab3d 5c4b 323c 7502 bc3d c435 863d
00000110: 659e 283d 996f efbd 0d14 873d 0356 263e
00000120: f148 523c 159b 723d de83 57bc 3d50 233d
00000130: 59f8 063d cfd5 083e 5d53 363d 148e 163e
00000140: a03c 773d d5be 70bb f298 fa3a 59b4 cc3d
00000150: 2af4 1a3e fe54 823c 272f 763c c373 ac3c
00000160: 945e 46bc 6cc3 6b3d 51a8 4b3e cb41 0d3e
00000170: a2f6 f6bd fdf0 9bbd 03c8 35be 1696 9c3d
00000180: fd0c 0a3d fdd4 883a e2e2 903e 34fd 113d
00000190: cd02 0e3e 41d6 df3d e973 043d 2633 273e
000001a0: ec64 39bd 8484 b4bc b041 a43c e5f4 5e3d
000001b0: e91f b73d 7d1e 3bbe a9e7 07bd 218e f03d
000001c0: 98d2 d13d 795c c73d a151 303d 2c0c ff3d
000001d0: 4bfa 543d a711 063e 1402 413c 31cd 6dbe
000001e0: 4341 0f3e 436e 8c3d 1232 e33d 1ad0 043e
000001f0: 47c7 853d ff5b 303d 7823 e83d 930d 05bd
00000200: fd3e ea3d b181 953d 9695 513d c8b3 ffbc
00000210: 3ac3 88bd 32c4 92bb 32d3 b23d c1d4 2e3e
00000220: 0240 783d 8e28 0e3e e361 7e3a becd b63e
00000230: ed38 d73d 50ac 0a3e 4a6e b83c 141d 073f
00000240: 6640 903e 9a5d a83d 654c 0cbd 86bb 563d
00000250: e40c c23d ac4a d33d ffde 1f3d 26bd ad3c
00000260: b9fa 87bd 767b 0cbd 8388 82bd 2673 333e
00000270: faff 933d 2da8 7bbc 283b abbd 5a69 d23d
00000280: 12d4 5f3e 38e2 2f3c 9026 203d 7e7d 873c
00000290: 8517 3d3e 9035 3b3b 9eec 78bd 0232 313d
000002a0: 29a2 003c e231 77bd bed6 d03d 7606 81bd
000002b0: 25f2 1b3c b87d 7e3e 77ab 3dbd 7a22 67bd
000002c0: f060 743c c5c7 843e ce1a f9bc 28fa 8f3b
000002d0: 6c7c fb3c f410 dd3d eb09 6e39 e668 b73d
000002e0: b654 0f3e d5e6 703e 2cec bd3e b9e2 40bd
000002f0: 8536 453d 1e57 b5bb 5455 79bd 14e6 b83c
00000300: fc03 cd3c bc55 d0bc 2e2c 413d f7df 723d
00000310: d729 5bbd 52a3 07ba 75e2 3a3d e8ea 753d
00000320: dd86 b83c 6f63 4e3d ccd8 bd3d b887 d03d
00000330: 4776 1c3d 24fa a13d 1555 003e 1242 153e
00000340: dc17 c03d 548d 883d 9bb5 293d 240a 8c3c
00000350: ca5e 0c3e 4bbb 7bbd 2450 d23d f4cd 36bd
00000360: de54 ebbc b9db ec3d 39f7 7e3e 2cc8 3b3d
00000370: 44b8 aabc 9886 893c 9383 053d 0640 883c
00000380: 1a15 d8bc 40c1 76bd f92e 7e3d 586f ea3d
00000390: 799f a03d 5614 88bc d2a2 9a3d 66ba 553e
000003a0: 6872 90bd ff2f e93c 3c12 e33d 5341 39bd
000003b0: 6e3e ad3c efb4 d73e 947e 15bd f234 9a3e
000003c0: 8f98 b33b c02b 9c3d 80d6 4dbd c85d 813d
000003d0: 686a 033c d6e4 9f3d 3ce3 a63c 3cb5 8d3e
000003e0: 2669 b63c 5ede 243d 0ef2 973e 6629 9b3d
000003f0: 3540 b33b 18f6 5ebd 1cd8 d53d 2b7e 44bd

encoder.3.bias f4 [64]
0.056596804 0.1344007 0.14495464 0.100436375 0.044884678 0.19792192 -0.09222948 -0.084115185
-0.032851163 -0.08136804 0.19786121 0.18241748 0.16487832 0.0055467547 -0.1197663 0.09637346
-0.035266053 -0.051138043 0.20718852 -0.07014839 0.034684464 -0.09182479 -0.1454746 0.1427485
0.16850282 0.034785647 -0.046330996 -0.08501766 0.028698683 0.16695459 0.043986756 0.12083615
0.03829726 0.026722068 -0.13223772 -0.18264058 0.22297078 0.053854648 0.16224684 0.1576182
0.011929763 0.1708237 -0.043257024 -0.010506688 0.018132068 0.115647785 -0.09585401 -0.07697123
-0.025057543 0.1885038 0.16900799 0.13361941 0.056610923 0.048483703 -0.009431369 0.03651202
-0.050870035 -0.17517701 0.06965116 0.061718177 0.079582885 -0.000971626 -0.005203818 -0.0498392
00000000: 0dd2 673d 56a0 093e fd6e 143e 96b1 cd3d
00000010: ffd8 373d 0bac 4a3e cfe2 bcbd 9544 acbd
00000020: f18e 06bd 49a4 a6bd 219c 4a3e a6cb 3a3e
00000030: ddd5 283e 8dc1 b53b 0948 f5bd 735f c53d
00000040: 2373 10bd 2076 51bd 3a29 543e f6a9 8fbd
00000050: 4c11 0e3d a30e bcbd 4bf7 14be aa2c 123e
00000060: 018c 2c3e 657b 0e3d 92c5 3dbd bd1d aebd
00000070: 8019 eb3c 25f6 2a3e 752b 343d f278 f73d
00000080: 96dd 1c3d 3de8 da3c 5369 07be 2206 3bbe
00000090: 7452 643e b196 5c3d 0924 263e aa66 213e
000000a0: 0d75 433c 68ec 2e3e 472e 31bd 3e24 2cbc
000000b0: b489 943c bfd8 ec3d 1b4f c4bd 18a3 9dbd
000000c0: 7a45 cdbc 2407 413e 6e10 2d3e 87d3 083e
000000d0: dbe0 673d d996 463d 0786 1abc a18d 153d
000000e0: 195d 50bd 9a61 33be 44a5 8e3d 33cc 7c3d
000000f0: 5afc a23d b8b4 7eba ca84 aabb 3024 4cbd

encoder.5.weight f4 [32, 64]
-0.004082599 0.009658413 -0.3178331 0.06226334 -0.058648165 -0.030240374 0.014251038 -0.062701136
0.03040104 -0.09012455 0.046890948 -0.12344776 -0.09203748 0.15015236 0.14549147 -0.01660055
0.1097726 -0.008638951 -0.06567691 -0.015435688 -0.0125416145 -0.049760375 0.018024173 -0.07793255
0.0017517073 -0.07957039 -0.011969583 0.07072568 0.13705514 0.05323554 0.023682166 -0.073100336
-0.036212396 -0.08384835 0.0144927325 -0.049051393 -0.041495368 -0.02436656 -0.090589054 -0.12263194
-0.24693036 0.09123267 0.07702202 -0.14244378 0.11933728 0.11891699 0.04216358 -0.014278372
0.13761084 -0.13273913 -0.006674985 0.07116327 0.13812836 -0.019194584 0.14907348 -0.08080795
0.08549004 0.17551687 0.03202364 -0.04097229 -0.14688164 0.050619222 0.08413827 -0.012340891
-0.083529755 -0.06054406 0.104034014 0.08566019 0.1460012 0.13898832 0.008603763 -0.061937563
-0.21696138 -0.00067996694 0.14666533 0.07523348 0.09665854 -0.20701441 0.042810336 0.114542976
-0.043103866 -0.07969865 0.46190915 -0.047280747 0.117455274 -0.091436304 -0.09226826 0.12379277
0.18434049 -0.01761032 0.011894958 0.0005645335 0.14364973 0.059011728 -0.02934271 -0.03247439
0.10134126 -0.101709016 -0.08149639 -0.0576647 0.05996366 0.127944 -0.028098049 -0.04519415
0.16349019 0.050091125 0.057978954 -0.042255968 0.017166093 0.0582298 -0.12984231 0.098111376
0.120630376 0.066327095 0.15259953 0.016826898 0.0161981 0.11098733 0.06547376 0.07634131
0.039875455 -0.13818741 0.12194694 0.1561256 0.056058004 0.017660508 0.07464399 -0.078222185
0.17908351 0.0013202489 -0.2945766 0.0007786236 -0.043563906 0.05149492 -0.042603865 -0.1554544
-0.08710972 0.14429487 0.09911872 0.0016895917 -0.009679118 -0.21865895 0.10343341 0.07342088
-0.09449637 -0.034597322 0.03478498 -0.062699124 -0.03382632 0.067966 -0.08552028 0.083561495
0.017086977 -0.097394176 0.07258465 -0.03351081 0.09062487 0.14156047 -0.09106939 0.18354943
0.12709676 -0.099247724 -0.23447603 -0.06673427 -0.09562681 -0.041201033 0.07179965 -0.17748466
-0.38905308 0.032755665 -0.11597625 -0.17102171 0.10947582 0.028298736 -0.08676181 -0.053264193
0.016336115 -0.074867494 0.010694079 0.051612996 -0.038912866 0.0885886 0.043675553 -0.06588111
0.14625542 -0.038399257 -0.023126902 0.013817914 -0.24783961 0.09242332 0.098572336 0.020206306
0.047512818 0.016486634 0.032293066 0.073399805 -0.02797583 -0.13146162 0.055382952 0.11532198
0.08985483 0.025313448 0.041819327 0.07630247 -0.0010314861 -0.037112366 -0.061886948 0.050580464
0.08083411 0.059510954 0.09905855 0.009448045 -0.006989195 0.05825636 0.06817164 -0.05878683
0.083207496 -0.05906713 0.03671218 0.06487268 0.11089907 -0.03081354 0.06930043 0.04940488
-0.08800903 0.07017666 0.014461479 -0.017500957 -0.019107156 0.019713618 0.063532 -0.09492764
-0.10721531 0.07358875 -0.055473555 -0.012016049 -0.020587482 -0.12834878 -0.08673628 -0.006347294
-0.13272981 0.090150185 -0.11574847 -0.033428818 -0.08033145 -0.11359386 0.059552453 0.016614305
0.10950208 -0.037702248 -0.10720258 -0.07877061 -0.029525345 -0.066870004 -0.09195923 0.007384478
00000000: 53c7 85bb 523e 1e3c 05bb a2be d807 7f3d
00000010: 0f39 70bd a9ba f7bc 307d 693c 7469 80bd
00000020: 9a0b f93c 3893 b8bd b910 403d 2ed2 fcbd
00000030: 257e bcbd 8ac1 193e b7fb 143e e0fd 87bc
00000040: 75d0 e03d 638a 0dbc 9e81 86bd f8e5 7cbc
00000050: 587b 4dbc 89d1 4bbd 6ea7 933c 1a9b 9fbd
00000060: 8b99 e53a cdf5 a2bd 121c 44bc a0d8 903d
00000070: 2f58 0c3e 820d 5a3d 1a01 c23c a1b5 95bd
00000080: 7353 14bd afb8 abbd ed72 6d3c 1dea 48bd
00000090: 0cf7 29bd 619c c7bc c186 b9bd 7426 fbbd
000000a0: 50db 7cbe 32d8 ba3d b9bd 9d3d c8dc 11be
000000b0: 1b67 f43d c08a f33d b8b3 2c3d d5ef 69bc
000000c0: dbe9 0c3e c4ec 07be d5b9 dabb 0cbe 913d
000000d0: 8571 0d3e f63d 9dbc b8a6 183e a37e a5bd
000000e0: 6715 af3d b2ba 333e 382b 033d 8fd2 27bd
000000f0: 2468 16be 1a56 4f3d af50 ac3d 7331 4abc
00000100: a611 abbd 0cfd 77bd c90f d53d 9c6e af3d
00000110: 5781 153e f452 0e3e ccf6 0c3c 3eb2 7dbd
00000120: 202b 5ebe cf3f 32ba 702f 163e 0314 9a3d
00000130: eaf4 c53d 96fb 53be e459 2f3d 8295 ea3d
00000140: ae8d 30bd 0c39 a3bd 5b7f ec3e 75a9 41bd
00000150: 648c f03d f542 bbbd 24f7 bcbd 1087 fd3d
00000160: c1c3 3c3e 8543 90bc 12e3 423c 34fd 133a
00000170: ea18 133e 48b6 713d 1f60 f0bc de03 05bd
00000180: 028c cf3d d14c d0bd 94e7 a6bd d231 6cbd
00000190: 749c 753d c003 033e e12d e6bc 801d 39bd
000001a0: f969 273e 5a2c 4d3d 577b 6d3d 9814 2dbd
000001b0: e89f 8c3c 5f82 6e3d 62f5 04be 9eee c83d
000001c0: 0f0d f73d 80d6 873d 0d43 1c3e 90d8 893c
000001d0: e1b1 843c 534d e33d 1b17 863d d558 9c3d
000001e0: 7254 233d 0081 0dbe 51bf f93d 64df 1f3e
000001f0: 149d 653d c5ac 903c f3de 983d f432 a0bd
00000200: ab61 373e 340c ad3a bed2 96be 8c1c 4c3a
00000210: 1170 32bd 56ec 523d 6481 2ebd 702f 1fbe
00000220: 9566 b2bd 09c2 133e c1fe ca3d 4a75 dd3a
00000230: 2a95 1ebc 22e8 5fbe e5d4 d33d b05d 963d
00000240: 5087 c1bd ecb5 0dbd b27a 0e3d 6668 80bd
00000250: 788d 0abd c231 8b3d 4225 afbd 4a22 ab3d
00000260: fdf9 8b3c 9976 c7bd 43a7 943d a242 09bd
00000270: 8899 b93d 3af5 103e 9782 babd 62f4 3b3e
00000280: a725 023e 6442 cbbd 7c1a 70be faab 88bd
00000290: fdd7 c3bd 6ac2 28bd b20b 933d 8abe 35be
000002a0: f731 c7be ce2a 063d f584 edbd 5120 2fbe
000002b0: dc34 e03d c0d2 e73c 2db0 b1bd 8e2b 5abd
000002c0: 51d3 853c 2154 99bd 3836 2f3c 2668 533d
000002d0: 1963 1fbd f16d b53d 23e5 323d adec 86bd
000002e0: fbc3 153e 8a48 1dbd a174 bdbc 8864 623c
000002f0: abc9 7dbe 7048 bd3d 4be0 c93d b287 a53c
00000300: cd9c 423d fa0e 873c bc45 043d a352 963d
00000310: 912d e5bc e09d 06be 3cd9 623d ee2d ec3d
00000320: cf05 b83d 265e cf3c be4a 2b3d 7844 9c3d
00000330: ee32 87ba 2303 18bd 2b7d 7dbd 762d 4f3d
00000340: 5b8c a53d c2c1 733d 36df ca3d f9cb 1a3c
00000350: 9e05 e5bb 399e 6e3d 939d 8b3d 76ca 70bd
00000360: b168 aa3d 60f0 71bd 835f 163d f8db 843d
00000370: 0d1f e33d ad6c fcbc 62ed 8d3d c55c 4a3d
00000380: 143e b4bd c8b8 8f3d d7ef 6c3c 2b5e 8fbc
00000390: 9c86 9cbc 747e a13c 111d 823d 6c69 c2bd
000003a0: b393 dbbd b3b5 963d 3d38 63bd f6de 44bc
000003b0: 14a7 a8bc dd6d 03be caa2 b1bd f6fc cfbb
000003c0: 53ea 07be a9a0 b83d 890d edbd a8ec 08bd
000003d0: d184 a4bd e6a3 e8bd 46ed 733d b91a 883c
000003e0: a042 e03d ac6d 1abd 078d dbbd 7c52 a1bd
000003f0: 23df f1bc 24f3 88bd 1f55 bcbd 7ef9 f13b

encoder.5.bias f4 [32]
-0.21712206 0.1061332 0.097070836 -0.01930647 -0.033546228 -0.23366226 -0.17040686 -0.13902533
0.1503017 -0.09477106 0.075341575 -0.09966857 0.22776121 -0.031201247 0.22117075 0.21141341
-0.063798815 0.09291241 0.18567646 -0.016357746 0.04069824 -0.06474325 0.2347275 0.07331188
-0.10071407 -0.05996947 -0.11061507 0.23822404 0.060182225 -0.10518059 0.12828156 0.06881124
00000000: 3f55 5ebe 5d5c d93d 13cd c63d 9a28 9ebc
00000010: c567 09bd 2945 6fbe 237f 2ebe a85c 0ebe
00000020: b0e8 193e 5417 c2bd af4c 9a3d 091f ccbd
00000030: 3c3a 693e c299 ffbc 967a 623e c27c 583e
00000040: f4a8 82bd dd48 be3d f821 3e3e ae00 86bc
00000050: 33b3 263d 1c98 84bd 685c 703e 8a24 963d
00000060: 2e43 cebd 8ca2 75bd 278a e2bd 01f1 733e
00000070: a381 763d ec68 d7bd 3e5c 033e e8ec 8c3d

encoder.7.weight f4 [15, 32]
0.18938424 -0.15160237 -0.09426182 0.11535985 -0.13387753 0.10234964 0.23568858 0.13979182
-0.08801352 0.1146697 0.010497622 0.15357135 -0.08277701 -0.023777498 -0.12813386 -0.1567595
0.1262053 -0.07561542 0.13199638 0.09436708 -0.0061478834 0.08765578 -0.18721494 -0.04145063
-0.13045174 0.15083593 0.021715332 0.030851651 -0.12301641 -0.13745335 -0.10583183 -0.17510901
0.20269269 -0.07792405 0.14462699 0.11057546 -0.04483549 0.20354131 0.4230941 0.037987795
-0.19213179 0.10765802 0.06879263 0.087458424 0.026755597 -0.11371999 -0.034873698 0.066621915
0.059279606 -0.14955269 -0.114627026 0.14402266 0.09083879 0.14764446 -0.1814166 -0.16751447
-0.13954276 -0.066807516 0.080893375 -0.15808886 -0.03442478 -0.16336106 -0.05374758 -0.1674759
0.25883228 -0.19970687 0.09069646 -0.17943613 0.0038833288 0.21360897 0.2946787 0.165843
-0.010141379 -0.14563309 0.15999569 -0.017151216 -0.023313932 -0.007816539 -0.15326229 -0.16756834
-0.048736613 -0.3252507 0.07841098 -0.019172037 -0.17108774 -0.103270546 -0.21563107 -0.032212716
0.12571199 0.15009207 -0.17078759 -0.2140583 -0.10179232 0.064987764 -0.056772828 0.12147857
-0.13221246 0.17637824 0.1716445 0.117092006 0.16066037 -0.09095668 -0.055452354 -0.13685387
-0.08766073 0.13815312 -0.13985798 0.06958529 -0.025238806 -0.24317563 -0.27459657 0.13630188
0.2340537 0.18191983 0.19914642 -0.09582512 -0.02140102 -0.06607937 0.06174875 0.056217097
-0.1065249 -0.049433865 -0.023780528 0.09781762 -0.15932612 0.14042772 0.123858675 -0.084352806
0.026891345 -0.023284541 0.10975696 0.11186797 0.0736611 0.1372831 0.16686146 0.23064514
0.20101155 -0.0766041 0.013025823 -0.090450786 0.18981896 -0.10634076 -0.27932787 -0.06063426
-0.011522378 0.11659513 0.020262687 0.11971561 0.12566373 0.1461573 0.056691777 0.019482616
0.0401947 0.00018896653 0.0952639 -0.123631366 -0.058900945 -0.15410334 0.038779873 0.1274744
0.024407636 -0.18038839 -0.17665201 -0.1546652 -0.04792498 -0.09934838 -0.23537558 -0.24754705
0.045753565 0.16957274 0.09150124 0.0029137884 -0.14961301 0.12391651 0.28254715 0.049752504
-0.06890482 -0.060339518 -0.10586411 -0.067061074 -0.14582266 -0.07050766 0.14341454 -0.06950068
-0.063307144 -0.08054428 -0.08352335 0.09422509 0.102930985 -0.08379501 0.035993952 -0.17705299
-0.21423283 -0.041580617 -0.007458725 0.13228694 0.12375924 -0.060414463 -0.37349766 -0.03408631
0.006609826 0.08112527 -0.028730055 -0.08449707 0.06852542 -0.012406714 0.20130263 0.106294036
0.062901296 0.14323638 0.049326245 0.026622726 0.10751672 -0.10572339 0.12209393 0.18583457
-0.051413547 0.08363546 0.14945441 0.18461888 -0.12460365 -0.16372912 -0.01611932 0.16089728
-0.096298195 -0.18689366 -0.15570559 0.14562908 0.15070549 0.03290517 0.27423427 0.13170852
-0.06545225 -0.044031017 -0.12387547 0.14879143 -0.3079393 0.23699743 0.015581008 -0.1791847
0.067118056 -0.29063606 -0.024973387 0.0027556384 -0.1475727 -0.13601847 0.07270552 -0.05313405
-0.12878835 0.08548389 0.04527671 -0.17071082 -0.031225484 0.08153019 0.12766306 -0.13352856
00000000: f1ed 413e a73d 1bbe 570c c1bd c941 ec3d
00000010: 3117 09be b09c d13d 5958 713e 9625 0f3e
00000020: 6f40 b4bd f3d7 ea3d 38fe 2b3c cf41 1d3e
00000030: fe86 a9bd 07c9 c2bc 8635 03be 9085 20be
00000040: f63b 013e 42dc 9abd 0f2a 073e 8743 c13d
00000050: 2f74 c9bb e084 b33d 46b5 3fbe 23c8 29bd
00000060: 2495 05be bc74 1a3e 5ae4 b13c 9abc fc3c
00000070: 07f0 fbbd 92c0 0cbe 5cbe d8bd c74f 33be
00000080: ac8e 4f3e a596 9fbd 1919 143e 6375 e23d
00000090: 6ba5 37bd 226d 503e ca9f d83e 1799 1b3d
000000a0: 32be 44be cf7b dc3d 27e3 8c3d 671d b33d
000000b0: 8e2e db3c 07e6 e8bd b9d7 0ebd 1271 883d
000000c0: 2ccf 723d 5724 19be 93c1 eabd ad7a 133e
000000d0: b009 ba3d 1c30 173e 46c5 39be ea88 2bbe
000000e0: 4ce4 0ebe 61d2 88bd 6dab a53d 0ce2 21be
000000f0: 0001 0dbd 1f48 27be 6c26 5cbd cd7e 2bbe
00000100: aa85 843e f57f 4cbe 11bf b93d 1bbe 37be
00000110: 727f 7e3b 4fbc 5a3e 20e0 963e bfd2 293e
00000120: 0728 26bc d720 15be e9d5 233e b580 8cbc
00000130: dcfc bebc f110 00bc caf0 1cbe 0997 2bbe
00000140: 0ba0 47bd 4287 a6be f095 a03d ad0e 9dbc
00000150: a031 2fbe 827f d3bd 64ce 5cbe 7bf1 03bd
00000160: a5ba 003e bcb1 193e f1e2 2ebe 1932 5bbe
00000170: 7e78 d0bd 4e18 853d a08a 68bd c2c9 f83d
00000180: b462 07be 7f9c 343e 93c3 2f3e efcd ef3d
00000190: 2784 243e 7f47 babd 0222 63bd 6c23 0cbe
000001a0: 7887 b3bd 0378 0d3e ee36 0fbe bc82 8e3d
000001b0: 9dc1 cebc 0803 79be ec97 8cbe b892 0b3e
000001c0: c6ab 6f3e 3149 3a3e 0aed 4b3e f63f c4bd
000001d0: 3151 afbc 9f54 87bd 42ec 7c3d e643 663d
000001e0: ba29 dabd 2a7b 4abd 62cf c2bc 9b54 c83d
000001f0: 6326 23be 49cc 0f3e 9ea9 fd3d 2ac1 acbd
00000200: 3d4b dc3c 39bf bebc 42c8 e03d 091b e53d
00000210: a1db 963d f193 0c3e bbdd 2a3e 3d2e 6c3e
00000220: f9d5 4d3e 9ce2 9cbd 436a 553c 433e b9bd
00000230: e75f 423e 2fc9 d9bd 1004 8fbe a15b 78bd
00000240: 5bc8 3cbc 6dc9 ee3d effd a53c 752d f53d
00000250: fead 003e 42aa 153e a335 683d 029a 9f3c
00000260: 33a3 243d 5125 4639 b819 c33d 7132 fdbd
00000270: 1e42 71bd 44cd 1dbe a5d7 1e3d a688 023e
00000280: 86f2 c73c bcb7 38be 44e4 34be 8e60 1ebe
00000290: fc4c 44bd 2a77 cbbd 4c06 71be f97c 7dbe
000002a0: 1768 3b3d 7aa4 2d3e 0165 bb3d 42f5 3e3b
000002b0: 2734 19be f0c7 fd3d 05aa 903e 48c9 4b3d
000002c0: f81d 8dbd 9226 77bd 48cf d8bd 5157 89bd
000002d0: 8952 15be 5266 90bd 43db 123e 5f56 8ebd
000002e0: 2da7 81bd 66f4 a4bd 4a0e abbd 16f9 c03d
000002f0: 7bcd d23d b89c abbd 656e 133d 614d 35be
00000300: da5f 5bbe 7050 2abd 5268 f4bb 3a76 073e
00000310: 7c75 fd3d 2875 77bd 163b bfbe 169e 0bbd
00000320: 3d97 d83b 0125 a63d 4b5b ebbc cd0c adbd
00000330: 0e57 8c3d 8845 4bbc 4722 4e3e b0b0 d93d
00000340: 65d2 803d 8fac 123e 510a 4a3d e717 da3c
00000350: ba31 dc3d 8185 d8bd 620c fa3d 6b4b 3e3e
00000360: 0397 52bd 1149 ab3d 940a 193e bb0c 3d3e
00000370: 3330 ffbd 9ba8 27be aa0c 84bc 42c2 243e
00000380: fd37 c5bd 0d61 3fbe 4971 1fbe ca1f 153e
00000390: 8a52 1a3e 92c7 063d 6f68 8c3e 99de 063e
000003a0: d40b 86bd de59 34bd 6cb2 fdbd c85c 183e
000003b0: 38aa 9dbe 74af 723e 7c47 7f3c 327c 37be
000003c0: 3175 893d 40ce 94be fd94 ccbc f197 343b
000003d0: 4c1d 17be 6d48 0bbe a2e6 943d 17a3 59bd
000003e0: 18e1 03be 2d12 af3d 1274 393d d1ce 2ebe
000003f0: 96cc ffbc 4df9 a63d 1bba 023e b6bb 08be

encoder.7.bias f4 [15]
-0.12093769 -0.09540873 -0.25149935 0.10211872 0.19963124 0.17329611 0.25865078 -0.18475299
0.16329849 -0.1684735 0.19437346 0.020022819 0.22340783 -0.084308036 0.01999073
00000000: 2eae f7bd a765 c3bd 86c4 80be 9f23 d13d
00000010: 226c 4c3e 8974 313e e06d 843e e32f 3dbe
00000020: b837 273e 5184 2cbe d609 473e e506 a43c
00000030: 06c5 643e b1a9 acbd 99c3 a33c

decoder.0.weight f4 [32, 15]
0.08370972 0.022399869 0.28797546 -0.028745856 0.007873936 -0.034514576 -0.10812372 -0.039223958
-0.23241982 0.16709566 -0.3005764 -0.10408815 -0.24778602 0.0033474255 -0.025056493 0.093162656
0.00577298 0.12405195 0.2774643 -0.0920157 -0.22778639 0.01341807 0.0020057515 0.13477096
0.18991937 0.030080812 -0.31930614 -0.07728369 0.09140906 0.11037134 0.07276117 0.170158
-0.16910963 0.2388998 0.052250464 -0.09642866 0.13616219 0.21120067 -0.14757235 -0.020655034
0.009119137 0.12574968 0.0101649305 -0.23423457 -0.19606888 -0.17762169 -0.14808176 0.04318697
-0.1853522 -0.2513883 0.11180977 -0.220341 0.08973567 -0.08585452 0.25122258 0.07216551
0.08830632 0.13316256 0.24812225 -0.13618502 -0.22663195 -0.21754377 -0.12796023 0.05701033
-0.15859148 -0.015260124 0.16595419 0.044253435 0.014401436 -0.12165126 -0.11648647 0.16799773
0.069176055 -0.39521226 0.012040679 0.030095903 -0.31844455 -0.24862616 -0.14738983 0.181845
0.09202663 0.18409598 -0.25127107 0.27819073 -0.2781149 -0.06958514 0.07353518 0.2788612
-0.0638164 0.07831797 0.3905029 0.41975087 -0.1797481 -0.23218313 0.2368968 -0.10626527
-0.014917537 0.168679 -0.18517973 -0.059132572 -0.06049928 -0.105885334 0.04508021 0.022464624
-0.13933253 0.0685502 0.11924168 0.038415313 -0.021625295 0.31212565 0.03023184 0.118047684
-0.28666902 -0.12907268 -0.2865142 -0.27765712 -0.2081031 0.26126078 -0.03991204 0.20297848
-0.17301708 -0.14344938 -0.1978903 0.19170722 0.11959674 0.03234629 -0.17160924 0.095841885
0.076317534 0.17526095 0.16913636 -0.047796465 0.18294944 -0.19727226 0.07558457 0.24408269
0.17452155 0.21346377 -0.093143895 -0.1677914 -0.15347785 -0.20721506 0.08713575 -0.23219988
-0.0048147654 -0.1778926 0.19293866 0.18656796 -0.20472932 -0.059560135 0.12418314 0.023148809
-0.056644265 -0.046826713 0.22980872 -0.1242326 0.087233566 -0.2464781 -0.15938093 0.06731443
-0.27717274 -0.13575919 0.04680342 -0.05994811 0.18159702 -0.09880185 -0.054010354 0.11731794
-0.10855121 -0.11268747 -0.17798924 -0.1848273 0.18714492 -0.15123324 0.22548091 -0.19077827
0.09400606 -0.22356345 0.3212572 -0.028859459 -0.049473457 0.072590716 0.14212845 0.16611989
-0.19046243 0.015732754 -0.051759057 0.22757488 -0.2477938 -0.01720509 0.19545782 0.14850155
-0.23911898 -0.23217002 0.16263673 -0.16430831 -0.2510789 -0.19071487 0.21658829 0.04027887
-0.061679758 0.17698532 -0.27576795 0.010155092 -0.26698563 -0.13467407 -0.16794397 -0.10059379
-0.25561285 0.19236031 0.234108 0.18082769 0.0965668 0.18771002 0.24374205 -0.17674126
-0.12920353 0.043409333 -0.12746952 0.048113994 0.20745969 0.1222705 -0.051297296 0.19292904
-0.05795183 0.17429605 0.13726887 0.008046918 0.17001322 0.26803327 -0.2799012 -0.14717601
-0.17522459 0.057260178 -0.24404868 -0.26496288 -0.12654768 -0.19885643 0.2744838 -0.041593432
0.08847133 -0.022896674 0.24129485 -0.1874661 0.20043801 0.07220359 -0.011476163 0.18793833
-0.19467102 -0.03633937 -0.14646249 -0.0017696369 -0.19213837 0.3265142 -0.19889033 -0.062650055
00000000: 0070 ab3d ee7f b73c 8571 933e 6e7c ebbc
00000010: ae01 013c 285f 0dbd f86f ddbd 4da9 20bd
00000020: 76ff 6dbe 201b 2b3e 26e5 99be 2b2c d5bd
00000030: 9ebb 7dbe 7b60 5b3b 4643 cdbc 10cc be3d
00000040: 442b bd3b f30e fe3d cd0f 8e3e ba72 bcbd
00000050: d640 69be 77d7 5b3c ed72 033b 6601 0a3e
00000060: 397a 423e 096c f63c 187c a3be e946 9ebd
00000070: ac34 bb3d 5e0a e23d cf03 953d e63d 2e3e
00000080: 132b 2dbe 26a2 743e 9504 563d 647c c5bd
00000090: 1a6e 0b3e fd44 583e 351d 17be bf34 a9bc
000000a0: 6f68 153c 86c4 003e cf8a 263c 30db 6fbe
000000b0: 48c6 48be 76e2 35be bfa2 17be d2e4 303d
000000c0: f8cc 3dbe f8b5 80be 85fc e43d 12a1 61be
000000d0: 56c7 b73d 7fd4 afbd 3fa0 803e 83cb 933d
000000e0: f2d9 b43d c45b 083e c213 7e3e 1674 0bbe
000000f0: 3512 68be cbc3 5ebe 0208 03be aa83 693d
00000100: ce65 22be 9905 7abc e5ef 293e 1743 353d
00000110: 00f4 6b3c 4c24 f9bd 7590 eebd 9907 2c3e
00000120: 2dac 8d3d 4359 cabe 4546 453c af8b f63c
00000130: 2a0b a3be db97 7ebe 5ced 16be 9335 3a3e
00000140: 7578 bc3d a883 3c3e 9aa6 80be 046f 8e3e
00000150: 1465 8ebe a782 8ebd 9d99 963d e5c6 8e3e
00000160: 2cb2 82bd 2c65 a03d ffef c73e 96e9 d63e
00000170: e30f 38be 6ac1 6dbe 1395 723e 9ba1 d9bd
00000180: af68 74bc 30ba 2c3e c19f 3dbe ff34 72bd
00000190: 18ce 77bd 69da d8bd 07a6 383d bb07 b83c
000001a0: 30ad 0ebe 0c64 8c3d fb34 f43d 6059 1d3d
000001b0: 8827 b1bc efce 9f3e c4a8 f73c fcc2 f13d
000001c0: 48c6 92be a12b 04be fdb1 92be 1329 8ebe
000001d0: fb18 55be f9c3 853e cf7a 23bd 97d9 4f3e
000001e0: 642b 31be 65e4 12be c1a3 4abe e64e 443e
000001f0: 23ef f43d 8b7d 043d 55ba 2fbe c048 c43d
00000200: 5e4c 9c3d 9b77 333e 1532 2d3e 3ac6 43bd
00000210: 1957 3b3e bd01 4abe 15cc 9a3d d0f0 793e
00000220: c7b5 323e 3f96 5a3e 3ac2 bebd 82d1 2bbe
00000230: 4c29 1dbe 2f30 54be 3a74 b23d cec5 6dbe
00000240: 2ec5 9dbb 7a29 36be b691 453e ac0b 3f3e
00000250: 90a4 51be 54f5 73bd bb53 fe3d 92a2 bd3c
00000260: d103 68bd 5ecd 3fbd fa52 6b3e a96d febd
00000270: 83a7 b23d c164 7cbe c134 23be 26dc 893d
00000280: 96e9 8dbe 7504 0bbe f1b4 3f3d 268c 75bd
00000290: 92f4 393e a058 cabd f639 5dbd 6344 f03d
000002a0: 1950 debd b0c8 e6bd d042 36be 5e43 3dbe
000002b0: eba2 3f3e e3dc 1abe 78e4 663e 615b 43be
000002c0: 4086 c03d d1ed 64be d37b a43e ac6a ecbc
000002d0: aea4 4abd 71aa 943d 1f8a 113e 551b 2a3e
000002e0: 9508 43be fae1 803c 4e01 54bd 6409 693e
000002f0: a8bd 7dbe b0f1 8cbc 1826 483e ca10 183e
00000300: 9bdb 74be fabd 6dbe 3e8a 263e 7040 28be
00000310: 6a8d 80be c24a 43be 52c9 5d3e 75fb 243d
00000320: eaa3 7cbd a43b 353e 7531 8dbe 8b61 263c
00000330: 57b2 88be 00e8 09be 81f9 2bbe 1e04 cebd
00000340: b0df 82be 1afa 443e 02ba 6f3e e52a 393e
00000350: d0c4 c53d 0e37 403e 8497 793e a9fb 34be
00000360: ee4d 04be fccd 313d 5f87 02be 2e13 453d
00000370: 5070 543e f568 fa3d 1d1d 52bd 318f 453e
00000380: e65e 6dbd aa7a 323e 3690 0c3e 38d7 033c
00000390: f217 2e3e a83b 893e 364f 8fbe 4fb5 16be
000003a0: 136e 33be a689 6a3d e6e7 79be 37a9 87be
000003b0: b795 01be 05a1 4bbe 2489 8c3e e05d 2abd
000003c0: 7530 b53d ce91 bbbc ff15 773e 1df7 3fbe
000003d0: 9f3f 4d3e 7adf 933d 8406 3cbc e872 403e
000003e0: d757 47be 97d8 14bd 43fa 15be 29f3 e7ba
000003f0: ecbf 44be df2c a73e e8a9 4bbe ac4e 80bd

decoder.0.bias f4 [32]
-0.036830813 -0.048771046 -0.027146498 -0.056729276 0.2211741 0.30355507 -0.05024087 -0.30721354
0.07052275 -0.17203285 -0.124595545 -0.03148075 0.17093627 0.29092985 0.28303677 0.09048521
0.46268836 -0.047860827 -0.01639355 0.026620148 0.45868465 0.11518548 0.032421187 0.13565443
0.3497009 0.23110157 0.20845637 -0.3814994 -0.06273985 -0.07317394 -0.052845825 0.044849034
00000000: e8db 16bd 26c4 47bd 5562 debc f55c 68bd
00000010: 777b 623e 926b 9b3e 5fc9 4dbd 184b 9dbe
00000020: 3b6e 903d 6129 30be f32b ffbd f5f1 00bd
00000030: eb09 2f3e c2f4 943e 32ea 903e 4f50 b93d
00000040: 7de5 ec3e b709 44bd c44b 86bc 7f12 da3c
00000050: b7d8 ea3e 5de6 eb3d 14cc 043d ffe8 0a3e
00000060: ff0b b33e e4a5 6c3e 9675 553e e453 c3be
00000070: c07d 80bd 38dc 95bd dd74 58bd 9fb3 373d

decoder.2.weight f4 [64, 32]
0.054122243 0.15928811 0.124662384 -0.091873445 -0.101607405 -0.0007346782 0.26222152 0.0840869
-0.0076389313 0.20734118 -0.14139196 0.018161165 0.12690695 0.15032695 -0.09651073 0.16682944
0.07400078 -0.1368642 -0.08001715 0.100585714 0.058335394 0.007269207 -0.034958526 -0.09964305
-0.12832172 0.0027679142 -0.056907687 0.16678584 -0.056215134 -0.04911796 0.11069489 -0.1522514
-0.092715755 0.15592612 -0.021761212 -0.04257828 0.09396395 -0.015480474 -0.142402 0.0434289
0.018423906 -0.16329473 0.20069483 -0.10712301 0.051122773 0.16939554 0.11638349 -0.13843197
-0.17647578 0.10595933 -0.00028524312 -0.01792125 0.18325101 0.046988215 0.14387266 0.11016594
0.21821736 0.10018119 0.2108403 0.031106435 0.10488164 0.09560095 0.21667498 0.013991421
0.118522026 0.007500847 -0.095503405 0.067085445 0.03283112 0.009002347 0.10998677 0.12668794
-0.21756797 0.22447337 0.040242966 0.09485526 -0.116200686 -0.10697242 -0.050248902 0.13456704
0.0697213 -0.0983398 0.10019839 0.13196748 -0.16953097 0.076134644 0.0178675 0.042117327
-0.17589629 0.101443656 -0.16281886 0.17796789 0.10020727 0.07504881 -0.00894368 0.0632431
-0.18903841 0.10117435 -0.014940657 -0.07857522 0.0733278 0.13663301 0.004126051 0.10444574
0.049591187 -0.11173147 -0.1033808 0.17454076 0.14967734 0.08469625 0.061582193 -5.2663363e-05
0.16528666 -0.01256326 -0.020378007 0.044184472 0.0008298428 -0.059341658 -0.08807946 0.11143838
0.13171661 0.07724728 0.13957022 -0.043361854 -0.034589276 0.06479946 -0.13544226 0.059154097
-0.23126362 0.13045588 -0.17301561 -0.050826106 -0.0027736076 -0.098179325 -0.22956236 0.18201311
0.004658341 0.12390037 0.10062887 0.055681203 -0.10638581 -0.014366046 -0.19806717 -0.04589791
-0.15052077 0.1666955 0.08845377 0.014139531 0.10478645 0.1792 0.11577587 0.1406568
-0.14903775 -0.117159 0.013495922 0.043959014 -0.042704817 -0.083876304 0.20926794 0.10557499
0.07654464 0.10815719 -0.0644065 -0.009375378 -0.052019287 -0.12795237 -0.040496368 -0.15724242
-0.01741291 -0.07417566 -0.15696253 0.0769726 0.091447115 -0.049464457 -0.12385386 0.1188768
-0.07988281 0.020991622 0.09393537 -0.013268161 -0.0775756 0.08440913 -0.014676515 0.09326331
-0.17195277 -0.046714894 0.022110183 -0.08574999 0.099537045 0.10174569 -0.10332129 0.06603563
-0.06990905 0.07735384 -0.012807836 0.026685232 -0.07144025 -0.14238156 0.10246613 -0.11146428
-0.05315089 0.07459537 -0.055102956 -0.16827138 0.12535693 -0.009860202 -0.17233354 -0.038045403
0.06950316 -0.0596207 -0.10147956 0.10563498 -0.17030369 0.0070691206 -0.13953608 -0.14754674
-0.030832663 -0.16746514 -0.08291264 0.06100814 -0.09848393 -0.1018903 -0.146574 0.1386839
0.0050605866 -0.11079984 0.08425117 0.08635333 -0.052213825 0.10158324 0.04111237 -0.081236295
-0.027889276 0.13058867 -0.104848035 0.10874553 0.062647834 0.19527633 0.21282108 -0.13389479
0.04130476 0.09751912 0.08171732 -0.09930167 0.1049403 -0.011251599 -0.13007289 0.04008184
-0.0027026103 -0.098851696 0.072830826 -0.17255576 -0.033037215 -0.11274651 0.093427755 0.13435355
00000000: 49af 5d3d 6c1c 233e fe4e ff3d 2528 bcbd
00000010: 8b17 d0bd 6b97 40ba e641 863e c135 ac3d
00000020: 0050 fabb 3f51 543e 0ec9 10be b9c6 943c
00000030: e5f3 013e 4fef 193e 6ba7 c5bd 56d5 2a3e
00000040: b98d 973d 2126 0cbe 08e0 a3bd e2ff cd3d
00000050: 18f1 6e3d 8732 ee3b ac30 0fbd a811 ccbd
00000060: c566 03be e565 353b 0918 69bd e8c9 2a3e
00000070: d741 66bd ea2f 49bd 01b4 e23d cae7 1bbe
00000080: c2e1 bdbd 19ab 1f3e 9244 b2bc 9066 2ebd
00000090: 2c70 c03d d0a1 7dbc d4d1 11be 81e2 313d
000000a0: bbed 963c bc36 27be f282 4d3e 4f63 dbbd
000000b0: 1d66 513d 0676 2d3e 785a ee3d 1cc1 0dbe
000000c0: 11b6 34be 3501 d93d af8c 95b9 96cf 92bc
000000d0: 27a6 3b3e b776 403d 5b53 133e ae9e e13d
000000e0: 5f74 5f3e cc2b cd3d 85e6 573e ecd2 fe3c
000000f0: 2fcc d63d 6eca c33d 0ce0 5d3e 463c 653c
00000100: adbb f23d aac9 f53b 4a97 c3bd 1864 893d
00000110: ed79 063d 947e 133c be40 e13d 7cba 013e
00000120: 23ca 5ebe 59dc 653e cfd5 243d 7943 c23d
00000130: a0fa edbd 5b14 dbbd cbd1 4dbd f1cb 093e
00000140: 0aca 8e3d 6166 c9bd d034 cd3d 7c22 073e
00000150: 8799 2dbe 7bec 9b3d dd5e 923c 3883 2c3d
00000160: 281e 34be b1c1 cf3d fdb9 26be 373d 363e
00000170: 7839 cd3d 31b3 993d 8388 12bc 9985 813d
00000180: 4993 41be 7f34 cf3d a8c9 74bc 0cec a0bd
00000190: e32c 963d 86e9 0b3e d333 873b a6e7 d53d
000001a0: 2120 4b3d 78d3 e4bd 50b9 d3bd d0ba 323e
000001b0: 0445 193e 3a75 ad3d 9c3d 7c3d dbe2 5cb8
000001c0: e840 293e 22d6 4dbc c7ef a6bc c7fa 343d
000001d0: cf89 593a 3d10 73bd 0163 b4bd ce39 e43d
000001e0: b8e0 063e d233 9e3d 7feb 0e3e 339c 31bd
000001f0: 7cad 0dbd 94b5 843d 60b1 0abe 914b 723d
00000200: 5fd0 6cbe 3a96 053e 012b 31be 092f 50bd
00000210: 6ac5 35bb 3e12 c9bd 6512 6bbe a561 3a3e
00000220: ffa4 983b 7abf fd3d 8216 ce3d f911 643d
00000230: cee0 d9bd 905f 6bbc 1fd2 4abe 72ff 3bbd
00000240: 1e22 1abe 3ab2 2a3e 4027 b53d 7ea9 673c
00000250: 479a d63d 3480 373e e61b ed3d 5608 103e
00000260: 5a9d 18be 0ff1 efbd 001e 5d3c 5e0e 343d
00000270: 3feb 2ebd 57c7 abbd 564a 563e b337 d83d
00000280: 70c3 9c3d 8481 dd3d 8ee7 83bd 2f9b 19bc
00000290: 2d12 55bd f205 03be 85df 25bd 2804 21be
000002a0: 85a5 8ebc 69e9 97bd c9ba 20be cfa3 9d3d
000002b0: a048 bb3d 3e9b 4abd 18a7 fdbd ae75 f33d
000002c0: 9999 a3bd 9ff6 ab3c 3061 c03d b362 59bc
000002d0: f5df 9ebd b2de ac3d c475 70bc d600 bf3d
000002e0: 6314 30be 1e58 3fbd 6a20 b53c b19d afbd
000002f0: 14da cb3d 0b60 d03d 1d9a d3bd b03d 873d
00000300: 7a2c 8fbd b16b 9e3d f5d7 51bc fd9a da3c
00000310: 444f 92bd 79cc 11be c3d9 d13d 6247 e4bd
00000320: bfb4 59bd 75c5 983d a3b3 61bd 554f 2cbe
00000330: 915d 003e af8c 21bc 3478 30be 7fd5 1bbd
00000340: ac57 8e3d d634 74bd 84d4 cfbd 2757 d83d
00000350: 1764 2ebe 15a4 e73b 8ce2 0ebe 7e16 17be
00000360: c894 fcbc fb7b 2bbe 1ace a9bd ace3 793d
00000370: f1b1 c9bd ddab d0bd 7f17 16be 2703 0e3e
00000380: 47d3 a53b 07eb e2bd e18b ac3d 04da b03d
00000390: 2ade 55bd e00a d03d 7265 283d 375f a6bd
000003a0: 0d78 e4bc 09b9 053e 91ba d6bd fab5 de3d
000003b0: 824d 803d 85f6 473e c5ed 593e b71b 09be
000003c0: 2e2f 293d 1bb8 c73d 695b a73d ad5e cbbd
000003d0: f1ea d63d a058 38bc d431 05be db2c 243d
000003e0: 471e 31bb c272 cabd 5428 953d 75b2 30be
000003f0: 0852 07bd a4e7 e6bd 0d57 bf3d fa93 093e

decoder.2.bias f4 [64]
-0.3411295 -0.003571096 -0.23257896 0.17415741 0.00810505 -0.041030947 0.10400709 0.19758338
-0.20101044 0.031439666 -0.18850733 0.20351475 0.13811713 0.086287454 0.013775657 -0.10430336
0.08416323 0.21163438 -0.03234445 0.13634647 -0.024370836 0.07561234 0.18665169 0.029438984
-0.19148359 0.40318412 0.2754026 -0.14412484 0.112616785 -0.0071465555 0.097616225 0.17053236
0.46789852 0.1229794 0.3094482 0.05346722 0.102940805 0.33645064 0.118481874 0.15543032
0.19759159 -0.11891669 -0.20618539 0.010819525 0.20301919 -0.3711296 0.03307742 -0.19509113
0.2899324 0.12397328 0.11236898 0.25943327 0.23536092 0.13250856 -0.02917069 0.087483376
-0.011047149 -0.11873098 -0.04784286 -0.0627669 -0.03571377 0.025632432 -0.03986912 0.026898615
00000000: 87a8 aebe 0d09 6abb 2e29 6ebe 5256 323e
00000010: 0bcb 043c 1110 28bd ab01 d53d 4c53 4a3e
00000020: aed5 4dbe e1c6 003d 1108 41be 2c66 503e
00000030: 946e 0d3e 7ab7 b03d 4bb3 613c 009d d5bd
00000040: c65d ac3d afb6 583e 9d7b 04bd 699e 0b3e
00000050: 59a5 c7bc a4da 9a3d 9f21 3f3e 062a f13c
00000060: 4614 44be 266e ce3e 9201 8d3e 7695 13be
00000070: a1a3 e63d a72d eabb 04eb c73d 09a0 2e3e
00000080: 6590 ef3e a0dc fb3d ff6f 9e3e 7200 5b3d
00000090: a1d2 d23d 4243 ac3e a0a6 f23d 2029 1f3e
000000a0: 7355 4a3e 988a f3bd 4322 53be 6144 313c
000000b0: 43e4 4f3e b304 bebe 307c 073d f8c5 47be
000000c0: 0572 943e b4e5 fd3d b521 e63d 70d4 843e
000000d0: 7402 713e 53b0 073e 5ff7 eebc 7c2a b33d
000000e0: 1aff 34bc 3a29 f3bd e0f6 43bd ef8b 80bd
000000f0: 9a48 12bd 1bfb d13c cd4d 23bd 7c5a dc3c
