Weights/p1/LAE_PA3_24100238.pth (torch, 899418 bytes, 16 tensors)

encoder.1.weight f4 [128, 784]
000000 98 8f 8a bb 74 0d 8d bc 99 a9 c0 3c 45 f0 fd bc
       -0.0042285435 -0.017218329 0.02351837 -0.030998359
000010 45 f7 b5 bb 37 f3 19 3b f4 38 d1 3c bd 83 8c bc
       -0.0055531585 0.0023490915 0.025539853 -0.017152661
000020 51 c5 0c bd 9d 19 87 bc 99 4a cd 3c ab ac aa 3c
       -0.034367863 -0.016491706 0.025059985 0.020834288
000030 64 e0 fe 3a 2b 01 55 bb 4a 26 0a bc 2b 00 a1 3c
       0.0019445536 -0.0032501917 -0.00843198 0.0196534
000040 8f b4 dc 3c 0c 71 0d 3c 55 0c b8 bc 1d fb f2 bb
       0.026941566 0.0086329095 -0.022466818 -0.007415189
000050 d7 87 b7 3c 07 11 86 3c 2c 79 bb ba bf 25 09 3c
       0.02240364 0.016365541 -0.001430308 0.008370816
000060 ca 0e 6b 3a e1 48 05 3d fb ef 86 3c d3 b6 47 3c
       0.00089667423 0.032540206 0.016471853 0.012189585
000070 03 a2 88 bc 3d 2f 03 3d 53 a9 ce 3c 6f b2 5b 3c
       -0.016678816 0.03202747 0.025227224 0.013409241
000080 57 9a d8 bc 66 61 75 3c 26 27 59 3c 1d 18 87 bc
       -0.026440782 0.014976835 0.013253963 -0.01649099
000090 fd 4e fc bc cc 12 f3 bc 18 ec 00 3c 33 22 8a bc
       -0.030799383 -0.029672049 0.007868789 -0.01686201
0000a0 bf 96 9d 3c 8f 55 c2 3c 10 6a 86 3c b4 4a c2 3a
       0.01923692 0.023722438 0.016407996 0.0014823289
0000b0 5a ae 0c 3c d2 29 10 bd 2f 0f dc 3b 3a 33 bb 3b
       0.0085864905 -0.035196133 0.006715677 0.005712894
0000c0 75 58 6c 3c 05 12 5e bc 8e dd ca 3c 79 90 c6 3a
       0.014425387 -0.013554101 0.024763849 0.0015149257
0000d0 78 96 d0 3b 9f 6b df bb 09 5b 54 3a 73 2e 00 3d
       0.0063655935 -0.0068182494 0.00081007235 0.031294297
0000e0 0e 90 fe bc ed d6 98 bc ab 61 a6 bc e5 5e 2b 3b
       -0.03107455 -0.018657172 -0.020310244 0.002614909
0000f0 94 fb 98 3c 39 c4 c8 3b 1d e2 e8 bb ad 23 06 3d
       0.01867465 0.006126907 -0.007107033 0.032748867
000100 7f 75 e3 bc a4 25 4d 3c 54 cf b8 bc 68 cc 92 bc
       -0.027765987 0.012521181 -0.0225598 -0.017919734
000110 f7 d7 46 bc f5 ab da bc f0 d1 34 bd cc 0c 40 bd
       -0.012136451 -0.026693324 -0.044145525 -0.046887204
000120 9f e0 31 3c fa 5f 37 bc 09 74 f9 bc 6e c7 69 3b
       0.0108567765 -0.011192316 -0.030450838 0.0035671848
000130 b1 54 99 bb 87 89 85 bb 42 1b 3a 3c 61 5e eb 3c
       -0.0046792855 -0.0040752324 0.011359038 0.028731527
000140 b9 62 50 bc e4 11 b6 bb 79 84 23 3c 2e 7d 31 bc
       -0.01271885 -0.005556332 0.009980314 -0.010833068
000150 7c d2 ff bc 1b e1 0a bd 20 9c da 3c ef 9e c5 bc
       -0.031228296 -0.033906084 0.026685774 -0.024123637
000160 82 72 ea bc 22 0a 6e bc ff 2f 97 ba 05 77 e4 3b
       -0.028619055 -0.014528783 -0.001153469 0.006972196
000170 ed 2c 96 bb 59 fe 64 3c 29 1c 16 3c 9a e3 db bb
       -0.0045829923 0.013976657 0.009161987 -0.006710482
000180 5a 74 0d 3c 66 09 8c 3c 6e 51 2c bd f1 99 ef bc
       0.008633697 0.017094325 -0.042069845 -0.02924821
000190 f8 3e aa bb 50 e4 d2 b9 f1 29 c3 3c 35 ac c5 3c
       -0.0051954947 -0.00040224427 0.02382371 0.024129966
0001a0 98 60 ad 3c 2f 77 8b bb 01 01 0e bc 04 68 53 bc
       0.021164224 -0.004256151 -0.008667232 -0.012903217
0001b0 19 7b 9b bc c8 76 37 3c 27 26 02 3d c7 02 7c bc
       -0.018979596 0.011197753 0.031774666 -0.015381522
0001c0 e1 df 3e 3c cf 26 b7 3c 52 1f b4 bc 50 e9 db bc
       0.011650057 0.022357373 -0.021987591 -0.02684465
0001d0 c4 25 8b 3c 1d cf a5 3c c4 99 1d bd a2 82 b9 3b
       0.016985781 0.02024036 -0.03847672 0.0056613246
0001e0 f0 16 ee bc b2 a6 fd bc a3 a7 9a bc 18 d7 16 bd
       -0.029063672 -0.030963276 -0.018878764 -0.036826223
0001f0 f5 0c 0c 3c 6b ba 48 bd 32 78 2e bd e7 df 40 bd
       0.008548011 -0.049005907 -0.042595096 -0.04708853
000200 7e 02 b9 bd 56 b8 b2 bc b3 fe f6 bc f1 81 37 bd
       -0.090336785 -0.021816414 -0.030150747 -0.044801656
000210 ef 37 e6 bc 5b ea 83 bc 1b 7d 86 bb 47 5f 78 bb
       -0.028102843 -0.01610296 -0.004104269 -0.0037898587
000220 59 0b 3a bc 8a 95 96 3c 92 0c ab 3c b9 cd cf 3c
       -0.011355245 0.018381853 0.020880017 0.02536665
000230 6f a8 c7 3b 40 d5 0f bd 77 0f 48 3b e3 7a a3 3a
       0.006093077 -0.03511548 0.0030526796 0.0012472536
000240 14 3f 15 bd 50 d2 a4 3c c1 b5 47 bc ed f0 1c bd
       -0.03643711 0.020119816 -0.01218933 -0.038315702
000250 65 4c 11 3c 96 15 48 bd 1a 3d 4f 3c cd d8 40 3b
       0.0088683115 -0.04884871 0.012648845 0.0029426098
000260 b5 a7 ce bc b0 d6 46 bd 09 f1 f2 bd 01 c4 10 be
       -0.025226453 -0.048544586 -0.1186238 -0.1413727
000270 97 72 ff bd ab ed 9c bd 9f fc 8d bd 79 35 60 bc
       -0.12473028 -0.07662519 -0.06932949 -0.013684624
000280 e2 c3 42 bc 94 d6 aa bc 80 ac 95 3b 0b 1e 08 bc
       -0.011887522 -0.020854272 0.0045676827 -0.008307944
000290 ee 27 e4 bb b3 c2 0a bd f4 78 ca 3c eb 8f 7d 3c
       -0.006962768 -0.033877086 0.024715878 0.015476207
0002a0 b3 29 dd bc 72 e2 9e 3c 59 df f0 3c ad be 9d bb
       -0.026997423 0.019395087 0.029403375 -0.00481399
0002b0 33 d2 35 3c 2c 9e b0 bc c1 69 2e bd d2 e1 81 3c
       0.011097479 -0.021559797 -0.042581324 0.01585475
0002c0 3d bb 93 bc 48 b9 24 3c c5 4c 1b bb 21 8e 11 3d
       -0.018033618 0.01005394 -0.0023696881 0.035535935
0002d0 ca 4a 61 bc 90 d3 f9 bd 4a 55 0e be 89 75 2b be
       -0.013750741 -0.121985555 -0.13899723 -0.16744055
0002e0 48 0d 11 be 11 9e 0c bd 39 4e 60 bc be d7 f4 bc
       -0.14165223 -0.03433043 -0.013690525 -0.02988803
0002f0 a5 c3 bb bc 44 ce f7 bc 9a a8 e5 3c 77 dc 06 bd
       -0.022920439 -0.030249722 0.028034497 -0.032925095
000300 cd d0 c4 3c 23 c1 10 bd ec 22 d7 bc 21 eb 19 3a
       0.024025345 -0.03534044 -0.02626177 0.0005871524
000310 b3 91 05 3c de 76 b4 3b c8 04 16 bd 7a 37 40 bc
       0.008152413 0.005507334 -0.036625654 -0.011731977
000320 da 6c 07 3c f4 2f 11 bd 18 23 b2 bc 02 8d ae 3c
       0.008265698 -0.035446122 -0.02174525 0.021307472
000330 73 6e d7 3b 13 d9 11 3d 78 41 1e 3d f9 d0 87 3c
       0.006574446 0.03560741 0.038636655 0.016579138
000340 60 7b 89 bd 49 c8 15 be da 9f 2f be 0d 2b e0 bd
       -0.06712985 -0.14627184 -0.17150822 -0.10945711
000350 c2 16 bd bd 36 e5 de bc 22 fd 1a 3b 85 0c 35 bd
       -0.09232856 -0.027208906 0.0023649414 -0.044201393
000360 eb 70 33 bd b7 b2 a5 bc 0a c7 b5 3b e2 0b 59 bc
       -0.04380886 -0.02022682 0.005547409 -0.013247462
000370 99 90 73 3b f3 cc 10 3d d2 2a b3 ba 5d 9d a4 3b
       0.0037165044 0.035351705 -0.0013669378 0.005023642
000380 35 83 00 3d 39 23 eb bc e7 47 50 3c b6 30 d3 3b
       0.03137513 -0.028703319 0.012712455 0.006445016
000390 69 85 d3 bb 4e 82 6c bc e2 14 bc 3c ef c3 0c 3d
       -0.0064551127 -0.014435364 0.022959176 0.034366544
0003a0 82 58 c8 3c ef e9 8e 3d 35 b7 28 3d 6e 7c 1f bd
       0.024456266 0.06978213 0.041190345 -0.038937025
0003b0 40 e5 08 be 01 24 cb bd e7 e8 97 bd 16 60 47 bc
       -0.13368702 -0.099189766 -0.074174695 -0.012168905
0003c0 fd 62 f9 bc 8d 35 48 bd 67 36 03 3d 15 f7 c9 3c
       -0.03044271 -0.048879195 0.032034304 0.02465395
0003d0 d4 37 29 3b f6 cb 02 3c a5 33 14 3d 4c 7a 06 3d
       0.002582063 0.007983198 0.036182065 0.032831475
0003e0 d3 c7 09 3d 04 82 aa bc 92 b4 a3 bb 3c 61 0f bd
       0.033637833 -0.02081395 -0.004995891 -0.03500484
0003f0 11 4e a3 3c 65 d3 9f 3c 5a 30 9b bc 20 0a 6c 3b
       0.019934686 0.01950998 -0.018943954 0.0036016777

encoder.1.bias f4 [128]
000000 67 61 a5 3c 34 5b 8a bb d9 07 1a 3d 94 50 46 bc
       0.020188047 -0.004222298 0.03760514 -0.012104172
000010 01 da 0e bd ad a1 aa 3a 49 1e 8e bc 4e 58 70 3c
       -0.034875873 0.0013018154 -0.017348425 0.014669491
000020 7c 8b 94 3b df 95 11 bc de ec a4 3c b0 9e 75 bc
       0.0045332294 -0.00888583 0.020132478 -0.014991447
000030 26 b1 12 3c f4 60 25 3d 9d ea 65 3d 1c 26 f2 3b
       0.008953368 0.040375665 0.056131948 0.007389797
000040 4c 53 31 bd 5f af ea 3c 61 a4 e9 bb 8f 93 7c bc
       -0.04329233 0.028648077 -0.007130191 -0.01541604
000050 92 df 1e 3d f8 36 9f ba e1 25 f4 3c fe bd 29 3d
       0.038787432 -0.0012147119 0.029803218 0.041440956
000060 e9 03 ba bc 0f 81 13 bd 5a 10 31 bc 5e 04 13 bd
       -0.022706943 -0.03601175 -0.010807121 -0.035892837
000070 e0 13 e8 3c 60 aa 16 bc 00 c1 9a 3c 63 fd 1a 3d
       0.02832979 -0.009195894 0.018890858 0.037839305
000080 85 87 8e bb be 89 03 3d 95 d2 3a 3c 5d e2 49 3d
       -0.0043496513 0.032113783 0.011402746 0.049288142
000090 ec 70 19 3d df 0b e6 bc 70 ea d5 bb 43 9f 0d 3d
       0.037461206 -0.028081832 -0.0065281913 0.034575712
0000a0 4f 05 92 bb c5 55 0f 3b f8 37 f8 3c b8 4b 29 bc
       -0.0044561992 0.002187119 0.030300125 -0.010332994
0000b0 47 a5 df 3b 76 0d 3e 3c 3c f9 8d 3c 0d ea c8 bc
       0.0068251225 0.011599889 0.017330758 -0.024525667
0000c0 fe 1b dc 3c 33 f2 34 3c 22 a6 79 3d ed b5 f1 bc
       0.026868816 0.011044073 0.060949452 -0.029505694
0000d0 3d 92 66 3d 53 59 bd bc b7 d1 1f 3d 84 87 bc 3b
       0.056291807 -0.023113882 0.03901836 0.0057534594
0000e0 75 17 8d bc 5e d6 9e 3b d6 87 99 3c 56 dd 2b bb
       -0.0172231 0.004847332 0.01874153 -0.0026224456
0000f0 b6 be ae 3b e8 c3 3e 3d 57 07 05 3d 0e b9 40 3d
       0.005332793 0.04657355 0.032477703 0.047051482
000100 55 41 0f 3d 1b e7 af 3c 8a 4b 81 3c 9e 50 02 3b
       0.034974415 0.021472504 0.01578309 0.0019884477
000110 88 44 e5 3c 5e 96 f8 3c 7b 8c c4 3b f8 3e 5b bc
       0.02798678 0.030345138 0.005998192 -0.013381712
000120 9a 65 6c ba 18 33 99 bc 17 51 16 3a 95 79 09 3d
       -0.00090178254 -0.018701121 0.0005734129 0.033563215
000130 05 44 26 bd 22 99 56 3c bf 54 0c bd a0 e2 77 bc
       -0.040592212 0.013098033 -0.034260508 -0.015129715
000140 43 0f 52 bb da df eb 3b 4d 30 d1 3c 62 63 8a bc
       -0.0032052554 0.007198316 0.025535727 -0.016893093
000150 de bb 11 bd 63 5c 14 3d 20 27 86 ba a3 ac 19 bc
       -0.035579555 0.03622092 -0.0010235049 -0.009379539
000160 0a a9 46 bc 2b 69 4f 3d 2b 73 3d bc 02 2b 96 bc
       -0.012125263 0.050637405 -0.011563103 -0.018331055
000170 bb 1c 94 bc 77 b7 16 bb 4f 9b e0 3b bf 2a cb bc
       -0.018080106 -0.0022997537 0.0068544517 -0.024800656
000180 b2 ef 4e 3d 12 63 ad 3c 6d 2a 89 3b e0 f9 df 3c
       0.05052156 0.021165404 0.0041859658 0.02734083
000190 20 ea 09 3d 2d 87 41 3c 1f c3 9a 3c 19 e3 a5 ba
       0.033670545 0.011812014 0.01889187 -0.0012656181
0001a0 16 4c 06 bd a3 ae 85 3b 6e 1e 01 bd b4 8f 44 3d
       -0.032787405 0.004079656 -0.03152316 0.04798861
0001b0 e1 c5 cf 3c 03 7b 48 3d 8c 1e 1b 3d 17 ca f6 3c
       0.02536291 0.048945438 0.03787093 0.03012566
0001c0 e2 11 88 3c cc ef 06 bd 39 2e 00 3d bd 40 14 3d
       0.01661009 -0.032943532 0.03129408 0.03619455
0001d0 bc 48 42 bc 9e c6 9a 3c 3c dd 84 3c a6 22 e1 bc
       -0.011858162 0.018893536 0.016218774 -0.027482342
0001e0 a7 8b a4 bc 0f 51 ad bb 4d 31 5e 3c ba ff 02 bc
       -0.020086123 -0.005289204 0.013561559 -0.00799554
0001f0 b1 2a d1 3c 8c 95 86 3c ff f5 33 bd 18 5c 2e 3d
       0.025533052 0.016428731 -0.043935772 0.042568296

encoder.3.weight f4 [64, 128]
000000 fe 9a c2 3b a5 f7 37 3d b9 8f 16 be 2c 9f 01 3d
       0.0059388867 0.044913907 -0.14703263 0.03164594
000010 b0 7e c2 3c 5c 3e 11 3e c4 18 8c bd ca ca 9b bb
       0.02374205 0.14183944 -0.06840661 -0.004754399
000020 ec 42 76 bc a2 65 19 bd ea cd 1e bd a3 44 79 3c
       -0.015030604 -0.03745044 -0.038770594 0.015214118
000030 94 23 38 bd be cb 92 3d 0c d6 15 3c 67 6f 1d bd
       -0.044955805 0.07167767 0.009145271 -0.03843632
000040 fc e4 e8 3e 4f 44 db 3d 6d b2 a6 bd b8 d5 47 3d
       0.454872 0.10706388 -0.08139501 0.048787802
000050 6f 7b d5 3c 11 31 88 3d bc 12 a0 bd 78 ca e0 3c
       0.026059834 0.06649984 -0.07816073 0.027440295
000060 4c 44 23 bb d9 64 16 3d 7a 4f 48 3d 15 e7 61 3e
       -0.0024912534 0.03671727 0.04890392 0.22060807
000070 c3 48 04 3e bb 54 d8 bd 7c cf 03 3d 3d d2 89 3d
       0.12918381 -0.10563036 0.032180294 0.06729553
000080 fc 47 81 3e 6c 6f ea bc f8 a9 88 3c f1 78 81 3c
       0.25250232 -0.028617583 0.01668261 0.01580474
000090 80 a5 7c 3b b1 dd 84 3c 37 20 13 3d f4 75 ed 3d
       0.0038550794 0.016218992 0.035919394 0.115947634
0000a0 a8 35 3b 3d fb 00 80 bd 65 67 e9 3d 7c c1 9e 3b
       0.045705467 -0.06250187 0.11396674 0.0048448425
0000b0 36 c1 81 3d 59 a3 57 be 46 f2 9f 3d 00 27 5b 3e
       0.0633568 -0.21058406 0.07809882 0.21401596
0000c0 ae a5 ea 3d 9b 24 e5 3d b4 2f b8 3c f5 28 65 bd
       0.11457382 0.111886226 0.022483684 -0.055947263
0000d0 b6 95 1b bd d5 d8 10 be 08 84 77 3d 53 b1 56 bd
       -0.037984572 -0.14145215 0.06042865 -0.052415203
0000e0 76 71 97 bd 00 4a 90 3d bb 43 3e be b1 38 69 bc
       -0.07394688 0.070453644 -0.18580525 -0.014234708
0000f0 d1 d1 8f bd 21 92 dd 3d a1 17 f3 bc 7d 15 6e bd
       -0.07022441 0.108188875 -0.029674353 -0.05812596
000100 20 c5 b1 3d d6 f8 d2 bb 9d 47 ae 3d eb 1f f2 3a
       0.08680177 -0.006438355 0.08509753 0.0018472647
000110 2c 2a b2 bc 87 8b ac 3d 7b 60 fd 3d da 4c f5 3c
       -0.021748625 0.0842505 0.12371918 0.029943872
000120 e6 8c 71 3d 97 c8 2e 3d 6f 2e 8f bd c1 1e 92 bd
       0.05897226 0.042671766 -0.069912784 -0.07134772
000130 e2 a1 25 3e 09 f4 d0 bc cd 72 9d bd 5e 30 1e 3e
       0.16175035 -0.02550699 -0.07687912 0.15448138
000140 b7 e7 29 be 7d f7 a3 3d 86 e4 8e 3c 39 8d f4 bc
       -0.16592298 0.08006189 0.017442953 -0.029852496
000150 78 1f c7 3b 34 93 03 3e a9 b5 d0 3c 16 f9 54 bc
       0.0060767494 0.12849122 0.025477247 -0.01299884
000160 65 a5 6f 3d cd 1f 17 3e f4 81 63 3d 14 21 a0 bd
       0.058507342 0.14758225 0.055543855 -0.07818809
000170 85 94 c7 bd 82 87 22 bd 92 5e 83 3e b9 ee 2b 3d
       -0.09745125 -0.03968001 0.2565809 0.04197571
000180 e6 b5 08 3e 7a 72 6b bc 6b 75 1b 3e 27 a9 ec bd
       0.13350639 -0.014370555 0.1518151 -0.11555701
000190 47 9b 38 3d 39 97 5b be 97 c9 98 bc 95 6d 87 3d
       0.04506996 -0.21444406 -0.018650813 0.06612698
0001a0 ba 57 83 bc 88 35 6a bd 98 db 98 3d d9 b1 da bb
       -0.016033042 -0.057179958 0.07463759 -0.006674033
0001b0 13 de 83 3b 91 84 9d bd 1d c0 81 bd 8d 53 10 bd
       0.004024276 -0.07691301 -0.06335471 -0.03523593
0001c0 f6 60 61 3e cd 51 0c bd 9c 8c 51 be e8 24 ab bc
       0.22009644 -0.0342577 -0.20463794 -0.020891622
0001d0 25 b5 89 3d 3b 23 03 bd 3b 73 97 bd ed 2b 9a ba
       0.06724004 -0.03201602 -0.07395025 -0.0011762358
0001e0 06 8c 6f bd 6f 21 81 bc ca 90 bd 3d 0e a8 9a bc
       -0.058483146 -0.015763013 0.09256132 -0.018878963
0001f0 68 dd c8 3d 56 35 98 bd 74 72 c5 3a 0d 90 43 3d
       0.09807855 -0.07432048 0.0015064017 0.0477448
000200 ea d5 ca bd bf 4c 14 bd 58 bf 81 bd fa 2e c2 bc
       -0.09904082 -0.036206003 -0.06335324 -0.02370404
000210 9b 31 40 bc 54 97 90 bb ec be 56 3c 5f 4c ad 3c
       -0.011730577 -0.004412571 0.013107043 0.02115458
000220 0f d0 a8 bc 65 ee 94 3d 30 4e e5 3d 35 ae 80 bd
       -0.020607023 0.07272033 0.11196554 -0.06283227
000230 bd f6 b6 3d 9f e1 72 bc 28 3e c3 3d 12 c9 9a 3a
       0.0893378 -0.0148243 0.0953334 0.0011809191
000240 c1 be 1d 3e 6d 4f c4 3d e0 6e 43 3d 7d 89 92 bd
       0.15404798 0.09585462 0.04771316 -0.0715513
000250 2e af f7 3a b8 8a bf 3d 92 b5 5f 3c 3c 18 b2 3d
       0.0018896812 0.093526304 0.01365413 0.086960286
000260 df 85 10 3d ce 31 28 3e 22 30 44 bc e2 ee 8b 3e
       0.03528392 0.16425249 -0.011974366 0.2733069
000270 f0 f7 24 3e 4a 6f 94 3d 56 06 1c 3d 38 f9 98 3b
       0.16110206 0.07247789 0.03809198 0.004668381
000280 a5 ad fc 3d f5 a7 c8 3d 66 17 a4 3c e0 2f 95 3d
       0.123378076 0.0979766 0.020030688 0.07284522
000290 1d 0e 84 bd 70 84 8f bd 38 ae 20 bd 71 66 2a 3d
       -0.064480044 -0.07007682 -0.039228648 0.041601602
0002a0 c4 a2 db 3c 05 c5 48 bd e3 5d a2 bc 62 77 73 3d
       0.026811011 -0.049016017 -0.01982016 0.059440024
0002b0 e6 87 7a 3d 1a aa 34 be c5 34 2f 3d 66 b0 dc 3d
       0.06116476 -0.17643014 0.042774934 0.10775833
0002c0 66 f5 71 3e 2a f4 25 3d 33 ce c3 3d 4d 5b f0 3d
       0.23628768 0.040516056 0.09560814 0.11736164
0002d0 19 2a 65 3d 01 dc 38 bd 0c 18 a2 bc 6e 01 35 3c
       0.05594835 -0.045131687 -0.019786857 0.011047704
0002e0 a0 17 68 3b a5 be 1a bd 98 c9 18 3d c8 b5 0a bd
       0.0035414472 -0.03777947 0.03730163 -0.033864766
0002f0 58 d1 07 bd b1 b3 31 3d c5 2e 1e bc e0 eb 60 3d
       -0.03315863 0.043384258 -0.009654705 0.054912448
000300 06 4c d1 3d c8 41 6e bd e2 a2 ae 3d 27 a2 d0 3c
       0.102195784 -0.058168203 0.08527161 0.025467945
000310 55 6e 25 bd a7 c3 8a bd c3 23 7d bd fe 8c 97 3b
       -0.040388424 -0.06775599 -0.061801683 0.004624962
000320 c4 3b 90 3d 5e b5 df bb 70 07 7b 3d 55 b0 38 3d
       0.070426494 -0.0068270406 0.06128639 0.04509004
000330 be 74 80 bd d1 81 fd bd a3 35 21 bd 04 07 54 bd
       -0.06272267 -0.12378276 -0.039357793 -0.051764503
000340 b9 22 a1 3d 99 c2 60 3d 39 f3 65 3d 48 01 20 3e
       0.07867951 0.054873083 0.05614016 0.15625489
000350 ef b7 ba 3d 8f f2 97 bd e9 43 36 bd 11 f9 ac bd
       0.09117114 -0.07419311 -0.044498358 -0.08445943
000360 bc 72 8a 3d 61 b8 b6 3d 5b 9d 29 3a dc 7f 15 3c
       0.06760165 0.08921886 0.0006470286 0.009124722
000370 b3 dd 55 3d 89 3b a0 3d 33 d6 04 bd b4 4e 82 3d
       0.052213382 0.078238554 -0.03243084 0.06362668
000380 68 78 01 bd 0e 5e 9e bc e0 20 d9 3d ce c6 e6 3b
       -0.03160897 -0.019331958 0.106019735 0.0070427423
000390 f8 5a 08 3c cd f2 23 be be 70 61 3d 4b 4a 57 3d
       0.00832247 -0.1601059 0.05503916 0.052561086
0003a0 0d 64 dd bc 28 4d 94 3d 8a 47 83 bc ac 06 85 bd
       -0.027025247 0.07241279 -0.016025323 -0.06495413
0003b0 cb b2 5d 3b 2d d8 93 bd 9e c8 6a 3d 20 3b ec 3c
       0.0033828493 -0.07218967 0.05732023 0.028836787
0003c0 bf 75 48 bd bf e5 e1 bc 0f c5 64 3d c5 e1 c9 3d
       -0.048940416 -0.027575372 0.055851992 0.09857515
0003d0 61 13 68 bd ec ed 65 bd 32 1c 42 bd 73 88 1c 3c
       -0.056659106 -0.056135103 -0.04739017 0.009554016
0003e0 c2 07 08 3d f2 41 9e 3c 6c ea 60 bd 8b f5 fa 3d
       0.033210523 0.019318555 -0.054911062 0.12253865
0003f0 62 fc 62 3d 6a 7b a0 3d 06 ff b2 bb 94 c5 5e bd
       0.055416472 0.07836039 -0.00546253 -0.054387644

encoder.3.bias f4 [64]
000000 1f de fc 3c f9 31 71 3b 6f 20 d9 3c 3d dd cc bc
       0.030867634 0.0036803468 0.026504723 -0.025007838
000010 e3 a9 90 bd 91 ca e4 3c 90 82 00 bd b8 d0 f7 3c
       -0.07063653 0.027928622 -0.031374514 0.030250892
000020 ef 98 e7 3c 48 fd 6f 3c 20 d6 90 bd 6c ba 2e 3d
       0.028271167 0.014647789 -0.07072091 0.042658255
000030 99 ad c7 bc cf aa 86 3d 7d 4e ce 3d 23 53 93 3d
       -0.02437477 0.06575548 0.10073564 0.071935914
000040 8a ee b5 3d 6e 08 8d 3d 54 d4 98 bc eb 68 85 bb
       0.08883388 0.068863735 -0.018655933 -0.004071345
000050 f7 51 19 3d 38 9c 63 3d 52 7d 4c 3d e7 6d 8c bd
       0.037431683 0.055568904 0.049924202 -0.068569
000060 87 ed 93 3d 09 40 9e 3d ae 8a 46 bc 1e 09 5d bd
       0.07223039 0.077270575 -0.012118025 -0.053963773
000070 22 de 01 bd 01 94 3c bd 02 c6 14 3d aa 54 11 3d
       -0.031705983 -0.046039585 0.036321647 0.035481133
000080 00 93 07 3d f7 c0 37 bd d6 38 90 bd 02 14 91 bc
       0.033099174 -0.04486176 -0.070420906 -0.017709736
000090 16 5d 3c bd be 5c ad 3d d6 e0 43 bd ae 91 45 3d
       -0.04598721 0.08464955 -0.047821842 0.048234634
0000a0 e5 19 78 3d 77 47 a8 3d 04 2c 16 bd 2c 06 82 3d
       0.06057157 0.08216756 -0.03666307 0.063488334
0000b0 91 a6 b0 bd c7 95 21 3d 44 9f 9d 3d fd cb 96 3d
       -0.0862552 0.03944948 0.07696393 0.073631264
0000c0 a8 86 84 bd 4d 78 7c 3d 17 9c 88 bd 51 42 08 3d
       -0.06470996 0.061638165 -0.06670397 0.03326637
0000d0 2c f8 4d bc a1 0d c3 3d e3 a1 3e bd 7c 37 e5 3d
       -0.012571376 0.09524084 -0.046541106 0.111922234
0000e0 bf 38 d4 bb 48 e3 37 3d 2e 2e c2 3d dd f6 b2 bc
       -0.006476491 0.044894487 0.09481464 -0.02184623
0000f0 28 a9 0e 3d 71 b9 b5 3d b6 99 e1 3c 04 43 8f 3c
       0.03482929 0.08873261 0.027539115 0.01748801

encoder.5.weight f4 [32, 64]
000000 f8 70 0d bd dd 44 a5 3d 27 80 91 bd 7b 28 d3 3c
       -0.034531564 0.08069775 -0.07104521 0.025776139
000010 84 66 c1 3d 06 55 62 3c 4d 49 25 bd f0 cd 9c 3d
       0.094433814 0.0138142165 -0.04035311 0.07656467
000020 0c bb e3 bd 25 8b 4e 3d a0 3a 78 bd b9 ba b0 bd
       -0.11119661 0.050425667 -0.060602784 -0.086293645
000030 06 8c b5 bd e5 06 d7 3d 9d 84 b4 bd 10 f6 d9 bd
       -0.08864598 0.10499362 -0.088143565 -0.10642636
000040 a8 83 7f 3d a2 39 f7 bd d4 85 fc bd 89 6d 0f 3d
       0.062381417 -0.120715395 -0.12330213 0.03501657
000050 63 f5 9e 3d e2 09 28 3c d8 51 e7 bc 98 cb 79 bc
       0.077616476 0.0102562625 -0.028237268 -0.015246294
000060 82 e5 e2 bd 0a f6 bf 3c ff 65 4d bd 7a a3 c3 bd
       -0.110789314 0.02343275 -0.0501461 -0.09552665
000070 7e 8b d2 bd 75 ea 01 bd d2 44 1b 3d a4 bd 9f bc
       -0.10280512 -0.031717736 0.03790743 -0.019499607
000080 f2 0a dd 3d 0f 2c a4 bd 29 01 78 3d 19 65 99 3d
       0.10793103 -0.08016216 0.06054798 0.07489986
000090 41 2e d9 3b 73 c8 da bd 53 3a 92 3d 8e 99 dc bc
       0.0066278283 -0.10682764 0.07140031 -0.02692869
0000a0 ad be 6a bc 39 be e0 bd e1 c1 76 bc 8b 0e 9e bd
       -0.014327687 -0.10973782 -0.015060873 -0.077176176
0000b0 5e 2f 43 3d 94 5c 8d bc aa 4f 7b 3d 58 9d 0c bb
       0.047652595 -0.017256059 0.06135527 -0.002145609
0000c0 e0 33 a5 3c 51 e3 1e 3d 0c cb 7b bd 8e 3a c6 3d
       0.020166337 0.038791005 -0.061472937 0.09679137
0000d0 67 73 79 bc f6 2b 8f bd da da b8 3c 8b c3 a2 3d
       -0.015225268 -0.06990807 0.022565294 0.07947453
0000e0 e8 49 c9 bd c1 36 40 3d 65 06 02 bd 51 c2 a7 bd
       -0.098285496 0.046927217 -0.03174438 -0.0819136
0000f0 50 96 c9 bd 11 ce aa 3c 50 6a a9 bc 6d df d8 3d
       -0.09843123 0.020850213 -0.020680577 0.1058949
000100 73 61 e0 bc e6 19 bd 3c 43 7f 9e 3d a3 de d5 3d
       -0.027390217 0.023083638 0.07739117 0.10442855
000110 50 1e f2 3c 67 8b 8e bd 6b 8a 96 bd 4f d9 da 3d
       0.02955547 -0.06960183 -0.0735062 0.106859796
000120 63 d9 e6 bd 05 fc 21 bd 7d 18 2b 3d de 9b 35 3c
       -0.11271932 -0.039546985 0.0417714 0.011084525
000130 34 19 81 3c db d2 55 bd af 23 d9 bd fd 02 a5 3d
       0.015759088 -0.05220304 -0.10602509 0.080572106
000140 ba ab c3 bd 74 4e 8d 3d f3 19 a9 bd 81 fc 21 bd
       -0.095542386 0.06899729 -0.082569025 -0.039547447
000150 8b 9a a7 bd 8b 01 55 3d 2e 13 80 bd b5 6f 19 3d
       -0.081837736 0.052003425 -0.06253658 0.037460048
000160 df 7e 5d 3d 59 45 d7 3d 2f 5e ae 3d bc 3d cb bd
       0.05407607 0.10511274 0.08514058 -0.09923884
000170 42 0d 84 bd 0c e2 8b bc 41 1f 9a bc a3 99 d0 3d
       -0.06447841 -0.017075561 -0.018813731 0.10185554
000180 56 f3 81 bd c5 2d 13 bd 60 ad 8b 3d 17 7b df 3d
       -0.06345241 -0.03593232 0.06820178 0.109121494
000190 3a 2c 31 bd b9 34 1c bd 68 1f f6 bb 3f 04 93 3d
       -0.04325507 -0.038136218 -0.007511068 0.07178544
0001a0 d4 8c 6d 3d 79 9f 9d bc 4a fb f6 3d cf 0c a0 bd
       0.057995632 -0.019241082 0.12059648 -0.07814943
0001b0 a1 85 19 3d 26 d3 be 3d c3 10 58 bd 61 7b a7 bc
       0.037480954 0.09317617 -0.05275036 -0.020444574
0001c0 34 f4 80 3d 75 72 e2 bd 74 bc 7f bd 51 a9 9c 3c
       0.06296578 -0.11056987 -0.062435582 0.019123705
0001d0 28 4a 78 bb ac 50 f4 3d 74 9f f4 bd 1f fd aa 3d
       -0.0037885997 0.119294494 -0.11944476 0.0834906
0001e0 8f a6 56 bd 68 b7 ef 3d 7d 6b 1d bd 2a 44 4a bd
       -0.052404936 0.11704904 -0.038432587 -0.049381413
0001f0 74 6c 6b bd fd 68 27 3d fd ae 1a 3d f3 96 e8 bc
       -0.057476476 0.04087161 0.037764538 -0.02839229
000200 2d 6f 66 3e d7 bd 03 3e 83 f7 6d 3b 5b 88 c9 3d
       0.22503348 0.12865387 0.0036310859 0.09840461
000210 03 e0 90 bd 6d 26 07 3e c5 8a 1c 3d 2f cd 59 bd
       -0.07073977 0.13198252 0.03821828 -0.053174194
000220 38 aa fd 3d 96 df ee 3c 1b a9 29 3d 34 f8 1d be
       0.12385982 0.029159348 0.041421037 -0.15426713
000230 f1 88 c3 bc 13 b9 91 bd 73 29 b8 3d e6 11 2a 3d
       -0.02386901 -0.07115378 0.08992281 0.041520976
000240 76 fb 88 3e 83 2c 59 3d da 44 23 3d 0e 6a 21 3b
       0.2675435 0.053020965 0.039860584 0.0024629864
000250 cd cd 1d 3d ac 4d cb bd a0 b2 0f 3d 5e b1 3c bd
       0.038526345 -0.09926924 0.03508246 -0.046067588
000260 64 8b 83 3d a6 01 86 3c 4f d7 df 3d d8 b1 b1 3d
       0.06423071 0.016358208 0.10929739 0.08676499
000270 d2 82 7f 3e 90 27 d7 3d 4e ab 83 3d 2b f9 e1 3c
       0.24952248 0.10505593 0.06429158 0.027584633
000280 9e 90 db 3c ef a8 d9 3c ae 6e b1 bc 2a f4 d8 bd
       0.026802357 0.026569812 -0.021659222 -0.105934456
000290 72 4c af 3d d8 84 24 3e 54 b7 e6 3d c8 e3 d0 bd
       0.08559503 0.16066301 0.11265436 -0.10199696
0002a0 4b cd 86 bb dc b9 a9 bd 79 30 ad 3b b4 8a 06 be
       -0.0041138283 -0.08287403 0.0052853194 -0.13138849
0002b0 86 34 f4 3d 41 32 ee 3d 30 8a a0 bd 04 ae a2 bd
       0.119240806 0.11630679 -0.07838857 -0.07943347
0002c0 43 97 00 3d c3 99 c1 bd 08 02 2c 3d 09 0d 24 3d
       0.031394254 -0.09453156 0.041994125 0.040051494
0002d0 ff 58 a6 3d d7 38 1d 3d 79 11 a0 3d ff 83 6b 3e
       0.081224434 0.038384285 0.07815833 0.22999571
0002e0 d5 e0 7b bd 93 23 bd bc a7 9a 9f 3d e0 7f 55 3d
       -0.061493713 -0.023088252 0.077931695 0.052123904
0002f0 66 cf 26 be ae d9 86 be 9e eb 2b 3e b0 9a 68 bd
       -0.16290054 -0.2633795 0.167891 -0.056788146
000300 cd c6 c9 bd 1a f4 da bd ee 7c fa bc 1b 6a ca 3d
       -0.09852371 -0.1069109 -0.03057715 0.09883519
000310 40 89 f3 bd 78 1c 85 3d 7a 76 f9 bd 27 60 48 3d
       -0.11891413 0.064995706 -0.12180801 0.048919823
000320 92 56 d5 3d f9 d1 94 3b a2 7b d7 3c 82 af 82 3d
       0.104169026 0.0045416323 0.02630407 0.06381132
000330 e5 9a d0 bd 71 84 e7 3d b6 8c b4 3c d0 cc 75 3c
       -0.10185794 0.11304558 0.022039752 0.015002444
000340 68 43 da bc 3e 94 9a bc b8 71 b8 bd 30 e6 dd bd
       -0.02664347 -0.018869516 -0.09006065 -0.108349204
000350 cc 05 7c 3d 58 f3 77 3d 15 3b 20 3b aa ec af 3c
       0.061528966 0.060534805 0.0024449278 0.021475155
000360 a5 aa de 3d 31 71 be 3c 28 9d 7d bc 8c 95 f8 3d
       0.108723916 0.023247333 -0.0154793635 0.12137899
000370 25 86 b8 3c 15 c1 bf 3c 97 49 d4 bc b3 28 be 3d
       0.022524903 0.023407498 -0.025913997 0.092851065
000380 b7 7e 15 bd 4f 8b bd bd ff f9 bd 3d bf 35 a2 bd
       -0.036497798 -0.09255087 0.092761986 -0.079204075
000390 90 91 ee 3d b5 2f 4b 3c 62 37 00 be cd 49 fa bd
       0.116488576 0.012401511 -0.12521127 -0.12221108
0003a0 e9 7c 4e 3d 70 b8 d4 bd 4c 1f 9a 3c b6 83 03 be
       0.050412092 -0.10386741 0.018813752 -0.12843212
0003b0 a9 06 19 3d 60 9d 59 bd 88 f1 c6 3d 48 fe 58 bd
       0.037359867 -0.0531286 0.09714037 -0.052976876
0003c0 60 cc c3 3d d9 e2 55 bd 85 b6 01 be 2e 53 04 3d
       0.09560466 -0.052218292 -0.12667282 0.03230589
0003d0 3a 71 da 3d 2c 23 4d 3d a8 0e ec bd e5 3c 8b 3d
       0.106661275 0.05008237 -0.11526233 0.06798724
0003e0 73 46 b4 bd 66 59 6e bc 8c c8 19 3d b3 fe 87 bd
       -0.088024996 -0.014547681 0.037544772 -0.06640377
0003f0 82 a4 35 bd 31 c5 84 3d 17 b8 ab bd 1b e6 9b 3b
       -0.04434634 0.06482924 -0.08384722 0.0047576553

encoder.5.bias f4 [32]
000000 4e d2 d2 3b 1c 9f c6 bd b6 a3 7c 3d e3 d3 10 3d
       0.0064337617 -0.096983165 0.061679564 0.03535832
000010 ef 9c c2 3c ce 44 cf 3d 6b 4e 94 3d 03 19 70 3d
       0.023756472 0.10120545 0.072415195 0.058617603
000020 d3 db 17 3e 26 58 d2 3d 85 96 83 3d f4 a5 a2 bd
       0.1482995 0.10270719 0.06425194 -0.07941809
000030 f6 0a 1f 3e 98 5a c3 3d 7d be fa 3d 52 01 93 3d
       0.15531525 0.09538764 0.12243364 0.07177986
000040 fd 1e 87 bd d0 35 51 bd 11 aa 92 3d 6b d5 d6 bd
       -0.065977074 -0.05107671 0.07161344 -0.10489925
000050 93 68 1e 3e a2 53 30 bc f7 e6 cb bd 44 27 26 3d
       0.1546958 -0.010762127 -0.099561624 0.04056479
000060 30 3c 66 3d 4c a3 b7 3d ab cc b1 3c 96 24 40 bd
       0.056209743 0.08966693 0.021704039 -0.04690989
000070 30 b1 a5 bd ba 4b f1 bd c4 76 ee 3d 8d 54 6d bc
       -0.080904365 -0.11782022 0.116437465 -0.0144854905

encoder.7.weight f4 [15, 32]
000000 88 29 7b bd 1f 90 ab 3d 5b b8 e8 bc 1e 08 a2 3d
       -0.061318904 0.08377098 -0.02840822 0.079117045
000010 93 09 1c be b6 d3 93 3a ba 09 97 3d 10 0c 8c 3c
       -0.15238027 0.0011278305 0.07374902 0.017095596
000020 e6 1e 55 bd 22 d3 76 bd 0f 06 2a 3d 60 7e 9c 3d
       -0.05203142 -0.060259946 0.041509684 0.076412916
000030 79 3d 8f bd 48 e4 32 3e bb 8a 7c be f2 c0 24 be
       -0.06994147 0.17469895 -0.24662296 -0.16089228
000040 33 86 11 3e 2b 23 95 bd 35 f2 b7 3d bb 79 27 be
       0.14211349 -0.072820984 0.08981744 -0.1635503
000050 77 65 13 3c 9a 16 b3 3d df 1a 68 be 94 46 1e be
       0.008996359 0.08744545 -0.226665 -0.15456611
000060 fe a1 35 3e ac 20 6b bd 7e b4 eb bd eb 79 17 bd
       0.17737576 -0.057404205 -0.115090355 -0.036981504
000070 74 c3 27 3d 21 d9 8c be 38 53 7f be ff 4b 55 bb
       0.040957883 -0.27509406 -0.24934089 -0.0032546518
000080 94 ad e6 3d 09 11 e6 bd 65 75 47 be 83 f0 f4 bd
       0.11263576 -0.11233718 -0.19478376 -0.119599365
000090 75 0d 48 3e 05 35 44 bd c9 7d fd bd e9 ac 21 be
       0.19536383 -0.047902126 -0.12377507 -0.15788616
0000a0 51 ff 43 be 80 e6 47 3d 6e d6 06 3c c3 32 0c 3e
       -0.19140364 0.048803806 0.008229835 0.13691239
0000b0 20 46 01 3e be 01 80 3e b3 85 43 3e e5 45 0e 3e
       0.12624407 0.2500133 0.19093971 0.1389385
0000c0 60 a6 c5 3d 69 c3 0c be 32 d9 ca bd 94 89 c3 3e
       0.09650874 -0.13746418 -0.09904708 0.381909
0000d0 83 35 00 3e 65 1b 8a bc 22 7e fc bd 94 11 b3 3d
       0.12520413 -0.016858766 -0.123287454 0.08743587
0000e0 3f 54 96 bd 1b 00 0e 3e 0e 98 43 3e 42 c4 2f be
       -0.073402874 0.13867228 0.19100973 -0.1716471
0000f0 a4 39 2e 3e 1c 0b 43 3c 74 5a 65 3e 07 e2 54 bc
       0.17014176 0.011904504 0.22397786 -0.012993342
000100 c2 2c c9 bd ae e0 de bd 79 a7 ab 3d 53 cf a2 3d
       -0.0982299 -0.10882698 0.08381552 0.079497
000110 86 5a 19 3d 5a d5 49 3e 20 d3 b4 bd eb 6a f7 bd
       0.037439846 0.19710293 -0.088293314 -0.1208094
000120 ec f3 45 3d 2a 13 6f bd ae 4b a7 3d 9b 02 8e 3d
       0.048328325 -0.058367886 0.08168732 0.06934091
000130 a1 09 0c bd 36 f7 08 3e ef 25 fd 3c e7 7b e5 3d
       -0.03418887 0.13375553 0.030901877 0.11205273
000140 76 9a 3f be b1 db 54 bc 57 a0 e1 bd 48 13 dc 3d
       -0.18711266 -0.012991832 -0.110169105 0.10745865
000150 b8 ac ca 3c f2 85 bd 3d 57 11 11 be 6e 16 a9 3c
       0.024740562 0.09254064 -0.14166771 0.020640578
000160 ab a1 1d 3e 62 e9 16 3e 6a 4a 92 be 47 29 03 be
       0.15393703 0.14737466 -0.28572398 -0.12808715
000170 95 d3 01 be 60 df 4f bd 22 04 d8 3d 2c ab 7e be
       -0.12678368 -0.050750136 0.10547663 -0.24869984
000180 82 69 09 3e ee 72 2f be 1a 1b c9 bd d2 78 19 be
       0.13419154 -0.17133686 -0.09819622 -0.14987496
000190 72 2a 79 3e 74 41 47 bd 4f e2 30 be 60 f3 76 bd
       0.24332598 -0.048646405 -0.1727383 -0.060290694
0001a0 ef d8 97 bd 02 6a 1e bc 37 ea 20 be 54 0a 50 bd
       -0.07414424 -0.009668829 -0.15714346 -0.0507911
0001b0 dd 41 14 3e 13 9f a4 3d 60 97 b0 bd 98 58 0c bd
       0.1447825 0.080381535 -0.086226225 -0.034264177
0001c0 92 11 46 be 94 f2 55 3e 95 da 4e be 94 1c 9e 3e
       -0.1934264 0.20893317 -0.2020057 0.30881178
0001d0 b9 43 03 3e c4 94 01 3e 9a 01 74 3e 14 2f 21 3e
       0.12818803 0.12654406 0.23828736 0.15740615
0001e0 ec 67 b1 3d 3a 5d 94 bd 2c c7 0f bd 66 d1 e7 bd
       0.086624 -0.07244344 -0.035102054 -0.113192365
0001f0 7b 75 e7 bd 23 2b 33 3d bb c9 22 bd 64 aa 17 3d
       -0.113017045 0.04374231 -0.039743166 0.03702773
000200 e9 b3 20 be 70 1f 73 3d ae 3e 6e 3d 4c a4 0e 3e
       -0.1569363 0.059356153 0.058165245 0.13929862
000210 45 2f 98 3d c0 a1 b1 bd 4e 39 08 be ec e2 f4 3d
       0.07430891 -0.086734295 -0.1330311 0.119573444
000220 e5 07 63 3d f7 8c 3e bd 78 3f 1b be 92 e8 2e be
       0.05542745 -0.046521153 -0.1516093 -0.17080906
000230 3f a8 50 be a8 e1 c5 3c db 45 59 3e 5c d0 30 bd
       -0.20376681 0.024155453 0.21218054 -0.043167457
000240 28 ff ac bb 48 8d 0f 3e 06 25 aa 3d c8 97 85 3d
       -0.0052794404 0.14018738 0.08307843 0.065230906
000250 2b 70 58 be 28 69 e8 bb f7 ca 33 3e 56 73 0e be
       -0.21136539 -0.0070926137 0.17557894 -0.13911185
000260 9c 3e c6 bd a8 6f 0e bd 17 42 17 3e 21 83 5c 3e
       -0.096799105 -0.034774452 0.14771305 0.21534397
000270 dd 7e 0b 3d 4c c7 71 3e 1a be 0f 3e 7d 99 80 3e
       0.034056533 0.23611182 0.14037362 0.25117102
000280 af 2e e6 bd 05 f1 dd 3d f5 85 f2 3d 71 3d bf 3d
       -0.11239373 0.108369865 0.118419565 0.09337891
000290 8d 68 a0 be 4e 9d 19 3e 62 8a 22 be 65 53 26 3e
       -0.31329766 0.15001413 -0.15873101 0.1624275
0002a0 99 a4 2d be 5e 4a 5b bd aa f7 15 bd 5f 68 2d 3e
       -0.1695732 -0.05353772 -0.036613144 0.16934346
0002b0 df 33 0c 3e 5b 18 0c bd a0 df 45 3e 17 07 94 bd
       0.13691662 -0.034202915 0.19323587 -0.07227915
0002c0 bc 7b 7a 3a dc 4a a9 bd c7 15 ab bd f0 60 29 bd
       0.0009555181 -0.082662314 -0.08353763 -0.041352212
0002d0 ec bf a4 3d 78 bd 38 be 31 17 9a be 02 59 89 be
       0.08044419 -0.18041027 -0.3009582 -0.2682572
0002e0 32 1a cd 3d 87 73 dc 3d dd 56 4b 3e ba d2 8f bd
       0.10014762 0.107642226 0.19857354 -0.07022615
0002f0 bc 6a 1c be d8 56 f0 bd e7 04 e8 bd 6b 89 95 3b
       -0.15275091 -0.11735314 -0.1132906 0.0045635006
000300 f6 3e eb 3d 51 35 2e be b1 75 55 be 5b 2b 2a 3e
       0.11486618 -0.17012526 -0.20845677 0.16618101
000310 da 46 14 3d 21 c8 db 3d 2c 51 22 be 43 f2 0f 3e
       0.03620038 0.10731531 -0.15851277 0.1405726
000320 02 42 e5 3c dd 75 04 3e c5 7d 0c 3e 56 86 a3 3d
       0.027985577 0.12935586 0.13719852 0.07984607
000330 c3 e6 f7 3d fc 14 1e be b4 dc 49 bc c6 72 28 be
       0.12104561 -0.15437692 -0.012320686 -0.16450033
000340 d6 c3 ba bd d0 16 bb bd ab 2d 3c be 0d 09 a6 3d
       -0.09119384 -0.091352105 -0.18376796 0.08107195
000350 10 d4 ea 3d 0c 98 95 bd 23 1e 23 be 3e 16 0f be
       0.11466229 -0.07304391 -0.15929465 -0.13973328
000360 41 03 49 be 1c f9 80 bd 85 7e 8b 3e 75 a6 7f be
       -0.19630148 -0.06297514 0.27244964 -0.24965842
000370 ec e7 0a be 41 c1 3f be d6 9b 8f be b1 7c 9b be
       -0.13565034 -0.18726064 -0.2804858 -0.3036857
000380 73 91 60 3d 55 9e 2c be 77 7a 26 3e 88 3b 67 3d
       0.05482621 -0.16857274 0.16257654 0.056453258
000390 9c 96 9a 3c 61 93 a2 3d 03 97 41 3e 30 19 1c 3e
       0.018870644 0.079382665 0.18905263 0.15243983
0003a0 6e 23 32 be 69 f9 4e bd 76 58 45 3e 4f ad a4 bd
       -0.17396328 -0.050530825 0.19272026 -0.080408685
0003b0 42 92 1d 3e 15 3e 67 3d c2 cf 05 be bf c8 09 3e
       0.15387824 0.05645569 -0.13067535 0.13455485
0003c0 c3 9d 9a bd 16 cb 31 3e 62 28 23 3e 78 f4 68 3e
       -0.07549622 0.17362627 0.15933374 0.22749507
0003d0 d7 f0 e1 3d 12 25 d3 bd 27 a3 6b 3e c1 59 a5 bd
       0.11032265 -0.10309805 0.23011456 -0.0807376
0003e0 6f 17 c5 3d 73 dd 33 3e 5a 7a d3 be 45 ec 47 be
       0.0962361 0.17564945 -0.41304284 -0.19523723
0003f0 52 51 85 3d 4a a8 ab bd 25 40 65 be cc c4 84 3e
       0.06509651 -0.08381708 -0.2238775 0.25931394

encoder.7.bias f4 [15]
000000 82 87 af 3d ec a8 cc bb ca c3 7d bd b9 c7 16 3d
       0.08570768 -0.006245723 -0.061954297 0.036811564
000010 ff 59 8f 3d cb 94 63 3e fb b2 5c 3e 45 b9 5d 3d
       0.06999587 0.22224729 0.2155265 0.054131765
000020 58 8b bd bc 86 27 13 3b b7 4b bb bd 93 0f e0 3d
       -0.023137733 0.0022453978 -0.09145301 0.109404705
000030 8d a3 17 be e9 17 9a 3d 4c eb 08 3e
       -0.14808483 0.07524092 0.13371009

decoder.0.weight f4 [32, 15]
000000 34 43 55 3e ef 67 87 bc d9 19 89 3d d5 58 08 3e
       0.20826417 -0.016529052 0.06694383 0.13315137
000010 4c ca 63 be 47 e3 ea 3d 67 03 7d be 0b 92 a2 3e
       -0.22245139 0.11469131 -0.24708329 0.31752047
000020 68 b5 95 3d 51 8f 82 bc ba 07 58 be 28 57 af be
       0.07309991 -0.01593748 -0.21096697 -0.34246182
000030 6d 97 0f 3f fb fd 1d 3e 03 c8 ec bd 86 ed 59 3e
       0.5609043 0.15428917 -0.11561587 0.21282014
000040 18 44 96 be c9 e1 f4 3d 75 bf 8d bd 52 f3 7b bd
       -0.29348826 0.119571276 -0.06921283 -0.061511345
000050 6b c0 3a 3e fb f0 5e be a3 d4 cf 3d 58 c3 5f 3d
       0.18237464 -0.21771614 0.10147979 0.054629654
000060 65 c2 b5 bd c3 fe 40 3e f2 b4 87 bd c6 d4 12 bf
       -0.088749684 0.18847184 -0.066263095 -0.57355917
000070 f9 6f 38 bd 81 ad 31 3c 4e 2d 57 3e 71 a2 b3 3d
       -0.04502866 0.010844589 0.21013376 0.087712176
000080 d7 e2 5a 3d b1 cb 0d bd 1a 6f 19 be 16 c5 fb bd
       0.053438988 -0.034618083 -0.14983788 -0.122934505
000090 ef 36 0c 3d b0 8a 8d 3d 95 00 e8 3d 38 5a 2f 3d
       0.034232076 0.06911218 0.11328236 0.04281065
0000a0 f0 41 96 3d ab d0 f2 bd d1 03 8b 3d c0 20 96 be
       0.07336795 -0.118562065 0.06787837 -0.2932186
0000b0 b8 bb 90 be 1c 89 1f 3d 8c bc 1e 3e 67 7f 79 3e
       -0.28268218 0.038949117 0.15501612 0.24365006
0000c0 d0 32 4c be 31 3b 0a be e2 aa c1 3d 68 9c af bd
       -0.19941258 -0.13499142 0.094564214 -0.08574754
0000d0 e2 7a 83 be 3b 67 71 be 38 c7 49 3e 8c c6 5e 3d
       -0.2567969 -0.23574536 0.19704902 0.054388568
0000e0 99 a6 71 be c7 fb b2 3d 97 8c c4 ba 92 be d7 3d
       -0.23598708 0.08739429 -0.0014995512 0.10534395
0000f0 e1 9f 7b 3e 34 3b ac be 89 00 c8 bd 56 23 9c be
       0.24572708 -0.33638918 -0.09765727 -0.3049571
000100 9c f0 38 bd 0f 7a 3d 3e 98 76 00 be 9e dc d3 3d
       -0.045151338 0.18503593 -0.1254524 0.10344814
000110 e4 c7 87 3e db 23 36 3e 93 1d 77 3e b3 9d 54 be
       0.26519692 0.17787115 0.24132375 -0.20763282
000120 40 31 2f be c4 cc 93 3e c1 fc 02 be 11 05 ae bd
       -0.17108631 0.2886716 -0.1279173 -0.0849706
000130 77 29 86 be 95 75 e9 bb c1 5a 97 be 1c 2d f6 bd
       -0.2620351 -0.0071246126 -0.29561427 -0.12020323
000140 5f 53 93 3c 73 7c 0b be f6 86 d4 bd 62 c1 03 be
       0.01798409 -0.13621692 -0.10377304 -0.12866738
000150 2f a9 e4 3d 01 b6 49 be 3e 8b 37 3e 89 c0 a0 3d
       0.11165082 -0.19698335 0.1792421 0.07849223
000160 b3 b8 02 be 8a b8 8b 3e 4b 48 77 3e 20 76 3c 3e
       -0.1276577 0.2728923 0.24148671 0.18404436
000170 2a ce 6c bd aa 84 53 3e 4c 38 97 be 3b 57 c3 bd
       -0.0578138 0.20656076 -0.2953514 -0.09538122
000180 4b 79 4f 3e 55 2e 8b 3e 28 7a 6f 3c d9 41 70 bd
       0.20261113 0.27183786 0.014616527 -0.058656547
000190 20 3e 84 bd 18 55 9e 3e ce aa 07 3d d6 15 6e 3e
       -0.06457162 0.30924296 0.033121876 0.23250517
0001a0 33 63 50 3e 54 fe fb 3d 20 9a 05 bd ec 3d 6d bd
       0.20350341 0.123043686 -0.03261769 -0.05792038
0001b0 39 3f 3c be be 79 1c 3e 55 75 78 be a1 e3 80 be
       -0.18383493 0.15280816 -0.24263509 -0.25173667
0001c0 c3 45 5b 3e 98 93 d4 3d 1e 35 32 be ae d0 d0 bd
       0.2141333 0.10379714 -0.17403075 -0.101960525
0001d0 f7 c0 3d bd f7 41 5d 3e ad 95 e0 3e e3 78 ee bd
       -0.046326604 0.21607195 0.43864194 -0.11644151
0001e0 fe 97 4e be 1a 99 16 3e 38 d9 eb bc 52 3f 3d 3e
       -0.20175168 0.14706841 -0.028790101 0.18481186
0001f0 fe 5e 65 be 2e 55 f0 bc 29 70 57 3d c7 0f 06 be
       -0.22399518 -0.029337492 0.0525972 -0.13091956
000200 c3 5a 07 be dd 5c fd bd 6f 9c 5f 3e 93 3e 98 3c
       -0.13218217 -0.12371228 0.21837018 0.018584525
000210 c4 45 5d be be 44 18 3e e3 5c 4b be 56 11 54 3e
       -0.21608645 0.14869973 -0.19859652 0.20709738
000220 4f b9 c2 bd a9 ad 89 3e 8d 35 5c 3e 7e 2f 77 3e
       -0.09508001 0.26890305 0.21504803 0.2413921
000230 77 1c 28 be 14 c1 91 be 6e f2 3e 3e 77 39 0c 3d
       -0.16417108 -0.2846762 0.18647167 0.03423449
000240 a4 b5 10 3d 03 40 0b be e6 04 70 be 64 7a a6 be
       0.035329476 -0.13598637 -0.23439369 -0.32515252
000250 54 f6 88 bb 3d 98 97 3d 1d e7 7d 3e a7 75 43 bd
       -0.004179755 0.07402084 0.24795194 -0.047719624
000260 e1 47 78 3e c4 df 95 be 19 59 5f be ee b1 c1 3d
       0.2424617 -0.29272282 -0.21811332 0.094577655
000270 40 41 03 3e e2 06 26 be 0c 1d 79 3e 48 8e 3c be
       0.1281786 -0.16213563 0.24327487 -0.18413651
000280 2a 65 6c 3e df 84 61 3e 1a 91 99 be 4c df 50 3e
       0.23085466 0.22023343 -0.29993516 0.20397681
000290 51 fa 13 bd 93 c1 0e 3e 8f ef e0 3d 4b e0 8b 3e
       -0.036127392 0.1394103 0.10983192 0.2731956
0002a0 63 6c 61 3e 00 42 9a 3d ef 93 cb 3e 9c 4b 32 3e
       0.22014003 0.0753212 0.39761302 0.17411655
0002b0 17 43 34 3e 0c b1 5f bd bd a4 6d bd db a1 82 be
       0.17603718 -0.054612204 -0.058018435 -0.2551411
0002c0 51 6d 1b bd 2b 78 a8 3e 08 11 13 bd c5 8b 81 be
       -0.03794605 0.3290418 -0.035904914 -0.25301948
0002d0 c8 39 b4 bd 72 d4 06 3e 5a 78 7f 3d fb 62 40 be
       -0.088000834 0.13166979 0.062370636 -0.18787758
0002e0 24 0c cb bd 6c 9a 26 be 8d 4c f4 bd 9a e9 a7 bb
       -0.09914425 -0.16269845 -0.119286634 -0.005124283
0002f0 35 ee 6c bd d1 f5 f7 bd a5 91 a6 be 07 7b 59 be
       -0.05784436 -0.12107433 -0.32532993 -0.21238337
000300 25 40 77 be df 0f b0 3e 19 61 24 3c f0 f0 48 3e
       -0.24145563 0.3438711 0.0100329155 0.1962316
000310 45 7f 1b 3e 96 fd 37 3e 7f 32 3c be f5 9a 42 3e
       0.15185268 0.17967829 -0.18378638 0.19004424
000320 31 7f 42 be f8 ed 32 be c7 24 2c be b7 8b c2 bd
       -0.18993832 -0.1747359 -0.16810904 -0.09499305
000330 0c 12 4e be d5 68 0f 3e f4 73 99 bd 7d 92 b3 3d
       -0.20124072 0.14004834 -0.074928194 0.08768175
000340 7c af 59 bd 79 f3 4a be 71 a3 97 3e d9 55 1d 3d
       -0.05314587 -0.1981944 0.29616883 0.03841195
000350 f1 5f 30 3e e2 88 65 be ed f8 97 bd fc a7 8c be
       0.17224099 -0.22415498 -0.07420526 -0.27471912
000360 6c 84 64 3e b1 d5 c3 bb d6 81 08 3e 8d 3c 0c be
       0.2231614 -0.0059764017 0.13330778 -0.13694973
000370 83 f8 0b 3e d2 c2 9b be 24 c9 10 be a2 e1 db be
       0.13669018 -0.30422074 -0.14139229 -0.42945582
000380 31 37 aa be a9 9a a1 3d 16 88 cb bd a9 e9 a4 3c
       -0.33245233 0.07890827 -0.09938066 0.02013095
000390 3f d6 a4 bd 99 66 10 3c 79 bc 1d b9 88 39 7e 3c
       -0.08048677 0.008813524 -0.00015042898 0.015516646
0003a0 04 7f 60 be 81 a9 27 be 41 00 1e 3e f1 65 4d 3e
       -0.21923453 -0.16373254 0.15429784 0.20058419
0003b0 11 d9 98 3d 3e 97 4b bc 29 cc 1b bc c3 32 e2 3d
       0.07463277 -0.012426196 -0.009509125 0.11044838
0003c0 26 d8 8c be b9 1b 5b 3e 47 1b a9 3c fa b8 14 3e
       -0.27508658 0.21397294 0.02064289 0.14523688
0003d0 f7 b5 4d 3d 27 d7 d8 be 2e c5 7a be 0b 6f d2 bd
       0.050222363 -0.42351648 -0.2448928 -0.10275086
0003e0 44 84 3e 3e 2b f5 67 3c 46 5d 1f be 38 91 9e be
       0.18605143 0.014157574 -0.15562925 -0.30970168
0003f0 ea a7 e0 3d 16 b5 04 be 4a 91 a7 3e b0 ce 1e be
       0.10969527 -0.12959704 0.32728034 -0.15508533

decoder.0.bias f4 [32]
000000 c7 0a 0a be 9e 42 08 3d aa 07 53 3e 9d 04 6a be
       -0.13480674 0.033266656 0.20608392 -0.22853322
000010 9b 20 4b bd c5 19 d4 3c 00 e3 9b 3e ba 8a 8b be
       -0.049591642 0.025891194 0.30446625 -0.27254277
000020 66 f5 43 be 82 41 12 bd bf c3 08 3d 8a 70 a3 3e
       -0.19136581 -0.035707004 0.033389803 0.31921798
000030 5e e4 85 3e a9 8f cc bd 55 09 f0 3d a1 fd 4f be
       0.26150793 -0.099883385 0.1172053 -0.20311595
000040 cc 9a b2 bd c3 b7 74 3e 54 0b 7a 3e 3d 80 3b bd
       -0.087209314 0.23898225 0.24418384 -0.045776594
000050 c7 9c 2a 3e 53 8e 11 be 53 7a 8b 3e c3 f2 c6 3d
       0.16661368 -0.14214449 0.27241763 0.09714272
000060 4c b3 83 3e 4b ea 89 3d 85 7b 92 3e 52 0c b0 3c
       0.2572273 0.06734141 0.28609863 0.02149025
000070 6d 24 cf 3e e6 78 1c 3e 9b 5c 22 3e 83 97 3d bc
       0.40457478 0.15280494 0.15855639 -0.011571768

decoder.2.weight f4 [64, 32]
000000 bb 5c 2b 3e 34 e4 01 bd 15 0b f3 3d 73 52 04 be
       0.16734593 -0.031711772 0.11867348 -0.12922077
000010 8e 44 37 be ba dc 04 be a5 a9 23 be 54 01 36 3d
       -0.17897245 -0.12974826 -0.15982683 0.04443486
000020 ba d0 8d bd b4 92 8b 3d b3 47 8a 3c c6 bc c2 3d
       -0.06924577 0.06815091 0.016879892 0.09508662
000030 62 a6 aa 3c eb 27 bc bc 3e 16 93 3d be c6 ea bd
       0.02083129 -0.022968253 0.07181977 -0.11463688
000040 4a 1f 56 3e 65 9f a2 3d 9b d1 ba bd f1 4a ce bd
       0.20910373 0.07940558 -0.0912201 -0.10072888
000050 1d 59 04 3e 30 44 c2 3d ff ce 11 be 3e d7 92 3d
       0.12924619 0.09485662 -0.14239119 0.071699604
000060 11 50 ab 3d ad e4 25 be 69 bf ce bc a6 9c bf 3d
       0.08364881 -0.16200514 -0.025237756 0.0935605
000070 55 5a 74 3d a0 65 0b 3d b4 0d 0c bc c9 e4 86 3c
       0.05965646 0.034032464 -0.008548189 0.016466515
000080 a2 86 cd bc 3a 04 3f 3d bc 3c b5 bd 19 bb 19 be
       -0.025088612 0.04663489 -0.08849475 -0.15012778
000090 b1 b4 83 bd 37 f4 02 be 7e be c9 3c cf 12 e7 bd
       -0.064309485 -0.12788473 0.024626967 -0.11282884
0000a0 b5 66 2b bd d8 1c b9 3d 44 7a 82 bc 74 9b 7c 3d
       -0.041845996 0.09038705 -0.015927441 0.06167169
0000b0 2e 22 44 bd 0f 27 96 3d e8 cf 1f 3e e3 9a 0f be
       -0.04788416 0.073316686 0.15606654 -0.14023928
0000c0 9c 12 8c bd d7 04 ec bc ed a9 29 3d 13 9d e1 bc
       -0.06839487 -0.028810902 0.04142182 -0.02754072
0000d0 00 73 0d 3d f1 b0 d6 3d 1b f1 d0 bc 68 9b be bd
       0.0345335 0.10482968 -0.025505593 -0.09306985
0000e0 f7 29 67 bd f6 40 11 be 21 81 8e bd 92 71 6e bb
       -0.056436505 -0.14184937 -0.06958223 -0.003638361
0000f0 62 46 3e bd 21 cd 2b be 11 ed db 3d 73 1e e2 bc
       -0.04645384 -0.16777469 0.10738576 -0.02760241
000100 5d e0 b2 3d 8e 86 bc bd cf fd 98 be 8d e5 35 3e
       0.087342 -0.09205352 -0.2988114 0.17763348
000110 ec 8f 66 bd c2 03 43 3d 60 95 90 bd 1a e3 20 bd
       -0.0562896 0.047611006 -0.07059741 -0.03927908
000120 f4 ad 83 3d 97 fd 2d 3e 1a f0 87 3d 22 d4 40 be
       0.06429663 0.16991268 0.066375926 -0.18830922
000130 7c 1b 27 3e 79 7f 10 be 9d 0d 8b be d4 f4 1c be
       0.16319078 -0.14111127 -0.27158824 -0.1532777
000140 60 8f e2 bb 9d 04 24 be 22 a4 40 be c0 b6 01 3e
       -0.0069140643 -0.16017385 -0.18812612 0.1266737
000150 09 8e cf 3c 5a 5e b8 3d 7f cd 4e 3d be b4 18 3e
       0.025336282 0.09002371 0.050488945 0.14912698
000160 4e f4 42 3e 38 97 85 bb 90 9b 2a 3e 00 08 80 3e
       0.19038507 -0.0040768646 0.16660905 0.25006104
000170 54 4a 8a bd 2a d3 85 3d 24 9d 4b be 1a 88 2f 3e
       -0.06752458 0.06534417 -0.19884163 0.17141762
000180 ed 29 37 bd 91 75 13 be e0 e3 8f 3e 01 24 bc bd
       -0.044717718 -0.14400317 0.28103542 -0.09186555
000190 c4 9a 80 bd fe b2 56 3e f6 25 e7 bd f5 77 09 be
       -0.06279519 0.20966718 -0.11286537 -0.13424666
0001a0 6b f7 f6 bd 80 5e 13 3d a9 e1 c2 3c f9 56 d1 ba
       -0.1205891 0.035978794 0.023789244 -0.0015971354
0001b0 e1 e7 c3 3d eb eb 8b bc 57 62 8c 3e b7 b3 91 bd
       0.09565712 -0.017080268 0.27418777 -0.07114356
0001c0 45 cc c6 3c 00 90 97 bc 6d 52 9a bd c3 2f 28 3d
       0.024267325 -0.018501282 -0.07535253 0.041061174
0001d0 ef 54 1a 3e c4 82 c7 bd 88 a3 14 bd 14 00 01 3e
       0.15071462 -0.097417384 -0.036288768 0.12597686
0001e0 f9 98 8d 3d 93 2a 80 bd 0a 64 94 3b 41 5c a0 3d
       0.06913943 -0.062581204 0.004528527 0.07830096
0001f0 b3 30 16 bd 8d 3a e0 3d a7 6b 02 3d f6 4b 80 3d
       -0.036667537 0.10948668 0.031840947 0.062644884
000200 24 0a fe 3c 40 5e 67 3e 72 0b ab bd 08 4f 0b be
       0.031010695 0.22594547 -0.083517924 -0.13604367
000210 9c c1 53 3e d3 e4 2b 3e 59 3e 9d bc 0b 98 e1 bd
       0.20679325 0.16786508 -0.019194769 -0.11015328
000220 9e 0f 68 3d 62 7f fc 3d ae d0 1f 3d 6a 87 a6 bd
       0.05665552 0.12328984 0.03901737 -0.08131297
000230 e5 3b 09 be db eb 73 3d 6d ad 91 bd bb fd e7 bc
       -0.13401754 0.0595511 -0.071131565 -0.02831923
000240 47 5a 06 3e 32 ee 1d 3e fb 7a 8b 3d 07 1f 1b 3e
       0.13120376 0.15422896 0.06810566 0.15148555
000250 65 a5 76 3c 8b d6 ab 3d fd 7f 52 bd f7 ff 30 3e
       0.015054082 0.0839053 -0.05139159 0.17285143
000260 2e 6b 61 be 67 c9 f1 3d 94 65 b6 bc 66 eb 4a 3e
       -0.22013542 0.118059926 -0.022265233 0.1981636
000270 28 69 d2 bd 55 b0 6d 3d ca ff 5a bd f8 95 6e 3e
       -0.10273963 0.05802949 -0.053466596 0.23299396
000280 a3 71 a8 3d ec b7 42 3c 7d 33 6e 3d e1 59 6f bd
       0.082247995 0.011884671 0.05815457 -0.058435325
000290 0b 34 1a be fd 52 cc bd 97 bb 1c be 42 1c 40 be
       -0.15058915 -0.09976766 -0.15305935 -0.1876078
0002a0 57 b9 04 3e 4b 28 33 3e 23 06 17 be 91 16 55 3b
       0.12961327 0.1749584 -0.14748435 0.0032514671
0002b0 15 e0 31 3e b7 6e 8d 3b d0 25 da 3b 88 f1 8d 3d
       0.17370637 0.0043161768 0.0066573396 0.06930834
0002c0 96 11 29 3e 77 28 b2 3d 63 b1 68 3d e3 88 08 3e
       0.16510615 0.08699124 0.056809794 0.13333468
0002d0 74 04 ac bd 9d 59 05 3e 85 7c 5e 3d 4f a2 0a 3e
       -0.08399287 0.13022466 0.05431797 0.13538478
0002e0 85 b7 af bd 9c 05 94 bd 5f 6b 95 bd 57 e3 0d 3e
       -0.085799254 -0.072276324 -0.0729587 0.13856255
0002f0 ce 63 27 3e 51 04 38 3e d8 5e a7 bc ba 79 8e 3e
       0.16346666 0.17970397 -0.020430967 0.27827245
000300 10 78 20 3e 84 e5 95 3a c6 9b 8f 3e 51 0c 9b bd
       0.156708 0.0011436199 0.28048533 -0.075707085
000310 18 bd dc bd c2 5d 98 bd 2e 97 11 be cd 34 48 3e
       -0.10778254 -0.07439758 -0.14217827 0.19551392
000320 37 9c 13 be d1 27 b6 bc 74 89 1b 3e be 3a fc 3d
       -0.1441506 -0.022235783 0.15189153 0.12315892
000330 91 14 d6 bd 68 95 64 bd 4b bc 80 3e e6 7a ba bc
       -0.104531415 -0.055806547 0.25143656 -0.02276368
000340 25 8b 1c be 91 aa 85 be 01 84 49 bc 20 f0 83 bd
       -0.15287454 -0.26106694 -0.012299539 -0.064422846
000350 03 e6 20 3d 1d 3e a8 3c b1 7f d5 3d e8 c9 ce 3d
       0.039281856 0.02053743 0.10424746 0.10097104
000360 89 68 23 be 2f 1e d5 3d db 5e 34 3e f2 84 25 be
       -0.15957846 0.10406148 0.1761431 -0.16163996
000370 ca 50 34 3d 5c c9 3d 3d 12 0c 26 3e ed e7 d1 bb
       0.04402236 0.04633461 0.16215542 -0.0064058215
000380 8a 76 8b bd c7 a4 0d 3d b9 67 e9 bd 89 6b 16 3c
       -0.06809719 0.034580972 -0.11396737 0.009180912
000390 3c 3f 0c be 7c 96 ac bd f4 dc 10 be 36 c3 b0 bd
       -0.13695997 -0.0842714 -0.14146787 -0.086309835
0003a0 65 58 08 be ca 9e d8 bc 31 bc 01 be 6b a5 24 be
       -0.1331497 -0.026442904 -0.12669446 -0.16078727
0003b0 e0 0b de 3b c9 77 8b bd 61 72 5a 3d f7 a9 61 bd
       0.006776318 -0.068099566 0.053331736 -0.05509373
0003c0 e1 82 20 bd 20 28 0b be 5d 90 96 3d df 6e e6 bd
       -0.039187316 -0.13589525 0.07351754 -0.11251616
0003d0 ec e0 ce bd 16 22 39 3d 77 00 cc 3d fb 5e 16 bd
       -0.10101494 0.045198523 0.09961026 -0.036711674
0003e0 ba 58 2c be 72 d8 4d 3d e3 ce 22 3e ab c1 0f 3d
       -0.16830721 0.050255246 0.15899234 0.035096806
0003f0 03 b4 29 3e 04 01 b2 bd 20 06 60 bd 12 43 fc bd
       0.16572575 -0.086916 -0.05469334 -0.1231748
